LSTM_torch/models/pHdata/curriculum_PID/vanilla/model_sl_10_bs_64_hs_5_ep_100_tim_0.683_gm_[-0.601,-12.4]_thd_[-0.02,-0.05].pth (torch, 2999 bytes, 5 tensors)

lstm.weight_ih_l0 f4 [20, 2]
-0.3483445 -0.07550007 0.19050488 0.015731022 0.007342745 -0.07626658 0.01035849 -0.057407077
0.21269792 0.088585004 -0.08414975 -0.050041717 0.057639252 -0.011579927 0.012924339 -0.040336568
0.009710757 -0.04279156 0.058302198 0.28054023 -0.26587078 -0.16074541 -0.39108837 -0.11260105
0.31998065 0.14501792 -0.28608605 -0.15061074 -0.4179484 -0.058846183 -0.32093513 -0.10336512
0.25637484 0.015987622 -0.31203392 0.050762538 -0.3269238 0.03904517 0.35422093 0.3084764
00000000: 365a b2be c89f 9abd b613 433e 58de 803c
00000010: 699b f03b a731 9cbd a8b6 293c af23 6bbd
00000020: 7ccd 593e 0e6c b53d b456 acbd 8bf8 4cbd
00000030: 2317 6c3d bcb9 3dbc 9bc0 533c f537 25bd
00000040: de19 1f3c 3446 2fbd 49ce 6e3d f8a2 8f3e
00000050: 3720 88be 729a 24be bc3c c8be 619b e6bd
00000060: 81d4 a33e 947f 143e df79 92be b439 1abe
00000070: 55fd d5be b208 71bd 9c51 a4be 18b1 d3bd
00000080: 9043 833e 79f8 823c e9c2 9fbe 61ec 4f3d
00000090: 8e62 a7be d4ed 1f3d 725c b53e 9ef0 9d3e

lstm.weight_hh_l0 f4 [20, 5]
0.04154877 0.007626581 -0.02734026 0.027369872 -0.026049504 0.07583049 0.35053596 -0.43528223
0.040530287 -0.105641454 0.058749065 0.008661873 -0.039173815 0.038769778 -0.038362928 0.04218879
0.0051081413 -0.027668102 0.027478429 -0.028950488 0.34839508 -0.05376641 -0.00033496402 0.0019593614
-0.08626412 0.03672327 0.021958834 -0.03515462 0.044116966 0.00070235477 0.03649541 0.014953656
-0.05051326 0.02362454 -0.027678784 0.031760264 0.014088685 -0.033460557 0.04292999 -0.029217051
0.05161919 0.020859273 -0.036922947 0.035082184 -0.024657337 -2.7920232e-06 -0.04723375 0.033602975
-0.027058242 -0.04850102 -0.06674081 0.06675732 -0.067452 0.06757919 -0.06714922 -0.065825135
-0.06676501 0.06714957 0.066741094 0.067454524 0.06714247 -0.066747874 -0.06758021 0.06675244
0.06715502 0.06715882 -0.06606149 0.066075444 -0.065817624 -0.06714079 -0.06715661 0.06607014
-0.0671413 -0.067168325 -0.0671277 0.32727844 0.32719505 -0.0396445 0.037886467 -0.022583785
0.2972922 0.3261737 -0.32725078 0.052693952 -0.27531025 0.29977894 0.23844682 -0.32465896
0.02606244 -0.101104185 0.04014158 0.32731882 -0.01624352 0.32741383 -0.07848318 0.31826955
-0.08022823 -0.008016393 0.010693959 -0.13586341
00000000: 0b2f 2a3d 66e8 f93b aef8 dfbc c836 e03c
00000010: c565 d5bc 044d 9b3d 7379 b33e 50dd debe
00000020: 1603 263d 8c5a d8bd dca2 703d 87ea 0d3c
00000030: b974 20bd 0fcd 1e3d 7222 1dbd 27ce 2c3d
00000040: 3262 a73b 37a8 e2bc 711a e13c 9329 edbc
00000050: d760 b23e 2b3a 5cbd 1c9e afb9 a168 003b
00000060: 3eab b0bd 246b 163d 03e3 b33c 4afe 0fbd
00000070: feb3 343d 3b1e 383a 367c 153d 2e00 753c
00000080: fee6 4ebd 4088 c13c 9ebe e2bc 0d17 023d
00000090: 3ad4 663c f00d 09bd 5bd7 2f3d 9958 efbc
000000a0: a56e 533d 11e1 aa3c 843c 17bd 56b2 0f3d
000000b0: 2ffe c9bc 985e 3bb6 2d78 41bd 46a3 093d
000000c0: 3fa9 ddbc 01a9 46bd 68af 88bd 10b8 883d
000000d0: 4624 8abd f566 8a3d 8885 89bd 54cf 86bd
000000e0: 18bc 88bd b785 893d 8eaf 883d 9925 8a3d
000000f0: fe81 893d 1cb3 88bd 7e67 8abd 81b5 883d
00000100: 9288 893d 908a 893d 3f4b 87bd 9052 873d
00000110: 64cb 86bd 1c81 89bd 6889 89bd c84f 873d
00000120: 6181 89bd 8c8f 89bd 3f7a 89bd 0a91 a73e
00000130: 1c86 a73e 4562 22bd d72e 1b3d a101 b9bc
00000140: af36 983e 3d00 a73e 6a8d a7be 9dd5 573d
00000150: 77f5 8cbe a07c 993e 672b 743e b339 a6be
00000160: e680 d53c b60f cfbd 7f6b 243d 5596 a73e
00000170: 2111 85bc c9a2 a73e cabb a0bd 3af4 a23e
00000180: b34e a4bd 3057 03bc b735 2f3c c71f 0bbe

lstm.bias_ih_l0 f4 [20]
0.06048814 0.06429956 0.07632145 0.18074322 0.47371554 0.10113877 0.33465746 0.16266145
0.043346338 0.023943776 0.001640242 0.082122065 -0.062448755 0.040640105 0.303908 0.31060547
0.386884 0.3704305 0.14298302 0.14151561
00000000: 69c2 773d 7daf 833d 6c4e 9c3d c014 393e
00000010: d88a f23e d821 cf3d 3958 ab3e b990 263e
00000020: ee8b 313d bd25 c43c 63fd d63a 9d2f a83d
00000030: 44ca 7fbd 3d76 263d d499 9b3e ae07 9f3e
00000040: a915 c63e 11a9 bd3e 246a 123e 78e9 103e

lstm.bias_hh_l0 f4 [20]
0.060477618 0.26473552 0.2507374 0.17012316 -0.13525763 -0.036218263 -0.22726427 -0.0891132
0.040887564 0.008823828 -0.006417836 0.07993182 -0.062389232 0.040299278 0.2926357 0.015700174
0.45014924 -0.050781123 0.14304127 0.18858464
00000000: 61b7 773d 6a8b 873e a760 803e c434 2e3e
00000010: fa80 0abe 9a59 14bd f7b7 68be fb80 b6bd
00000020: b879 273d d191 103c b64c d2bb 4bb3 a33d
00000030: da8b 7fbd db10 253d 59d4 953e a79d 803c
00000040: f679 e63e deff 4fbd 6979 123e 551c 413e

linear1.weight f4 [1, 5]
-0.576877 -1.1583748 0.7292149 -0.56113696 -1.2116524
00000000: 36ae 13bf a045 94bf d4ad 3a3f aca6 0fbf
00000010: 6d17 9bbf
