LSTM_torch/models/pHdata/curriculum_PID/vanilla/model_sl_10_bs_64_hs_5_ep_100_tim_0.684_gm_[-0.000156,1.59e-06]_thd_[-0.05,-0.1].pth (torch, 3024 bytes, 5 tensors)

lstm.weight_ih_l0 f4 [20, 2]
000000 ef 38 e6 3d 24 a1 e1 3c f9 1d 6c 3d 0f 0d c9 bd
       0.11241328 0.027542658 0.05764577 -0.09816944
000010 a6 fb 8b 3d 53 a9 c4 bb 44 a4 37 3c a4 27 a2 bc
       0.068351075 -0.0060016303 0.011208598 -0.019794293
000020 15 85 95 3d 8f 40 a0 bb 39 d5 79 3e 74 42 fd 3d
       0.07300774 -0.0048905085 0.24397744 0.123661906
000030 d1 1e 2f bd 7f 22 59 be bc 79 14 3e e0 89 4a 3d
       -0.042754 -0.21204565 0.14499563 0.049447894
000040 d1 b4 c9 3d 39 c3 12 bc 55 05 25 3e 9b 3e 6f 3d
       0.09848941 -0.0089576775 0.16115315 0.058409315
000050 09 4a a3 be c2 42 a2 bd dd e7 bf be 63 21 1f be
       -0.31892422 -0.07922889 -0.37481585 -0.1554008
000060 db f9 8e 3e 65 2e 00 3e 37 62 99 be 7a d2 fb bd
       0.27925 0.12517698 -0.29957744 -0.122960046
000070 a6 32 8f be 51 ba ee bd b5 39 79 3e dc b6 c4 3d
       -0.2796833 -0.11656631 0.2433842 0.0960519
000080 f1 f8 e1 3d bf 4a 11 be 4e c5 52 3e ca 05 47 3d
       0.1103381 -0.1418867 0.20583078 0.048589505
000090 83 39 34 3e 87 ad 91 bb 34 8f 59 3e 79 60 54 3d
       0.17600064 -0.004445735 0.21246034 0.051849816

lstm.weight_hh_l0 f4 [20, 5]
000000 4f 82 36 bd 3c f8 73 3c fd f4 04 3d ba b7 a9 bc
       -0.044557866 0.014890727 0.0324602 -0.02071749
000010 9e 84 0d bd 49 c7 f4 bc 8b 11 db 3c be 1d 81 3c
       -0.0345503 -0.029880183 0.026741764 0.015761252
000020 ce fd 61 bb bb 8b 84 bc 40 67 ff bc 3e f9 99 3c
       -0.0034483555 -0.01617991 -0.031177163 0.018795606
000030 ec 0b 82 3c 1a 09 c6 bb 09 19 91 bc e7 a3 0a bd
       0.015874825 -0.0060435655 -0.017712133 -0.033847716
000040 ec 1d c0 3c 01 ba 8b 3c 26 32 b8 bb 34 7b 97 bc
       0.023451768 0.017056467 -0.0056212125 -0.018491365
000050 a5 1d 10 bd dc d5 b9 3c 95 be 8f 3c 6b ef c8 bb
       -0.03518452 0.022684984 0.017546931 -0.0061320565
000060 9e a7 9f bc 94 74 b3 bd d7 a1 8f ba c0 f4 74 3d
       -0.019489106 -0.0876247 -0.0010958266 0.059803724
000070 49 f0 30 bd 53 93 84 bd 7f a4 40 bc f5 94 85 3d
       -0.043197904 -0.06473412 -0.011757969 0.06522552
000080 f6 f5 b4 bb a3 b1 c5 3c 23 63 bd 3b c6 94 66 bd
       -0.005522485 0.024132555 0.0057796403 -0.056294225
000090 93 be 5d 3c 2f 1c fd 3c 6c e8 8b bc af 42 0a bd
       0.013534206 0.030897228 -0.0170786 -0.033755
0000a0 a9 a4 49 bd 6c bb fa 3c 61 89 bc 3c 57 a1 de bb
       -0.049229298 0.030606948 0.023014726 -0.0067941356
0000b0 59 f3 d0 bc b4 0d 85 bd a2 7f 89 3c 80 20 0d 3d
       -0.025506662 -0.06496754 0.016784493 0.034454823
0000c0 89 39 97 bc 98 c8 1c bd 79 89 2b 3d 33 d9 53 bd
       -0.018460052 -0.03827724 0.04187915 -0.05172081
0000d0 95 a4 31 3d 30 fc 92 bc 7f 9b fb bc 5f 7b 56 bd
       0.04336985 -0.017942518 -0.030713795 -0.05236375
0000e0 7d 40 26 3e 8a bf a8 3c 25 2e 89 3d 7b 3f 09 bd
       0.16235538 0.020599145 0.066982545 -0.033507805
0000f0 89 02 b8 b7 6f 52 70 bd da db 5b bc d6 ac 92 3b
       -2.193569e-05 -0.058672365 -0.013419116 0.00447617
000100 8c f9 5c 3c df 2d 84 3c a0 69 d7 3d 6f d9 cf bc
       0.013487231 0.016135154 0.10518193 -0.025372235
000110 8d b1 59 3d 80 80 9a bc df 68 0f 3b 4a 42 27 3d
       0.05314784 -0.018860102 0.0021882576 0.040834703
000120 de 93 c7 3c d8 58 b1 3c 6f 6c 89 3c 42 d5 b2 bd
       0.0243625 0.02164881 0.016775338 -0.08732082
000130 96 5a 15 3a d9 8a 8d 3d 49 b6 54 bd cc 9a 93 bd
       0.0005697397 0.06911249 -0.051931653 -0.072072595
000140 02 9c 4c bd be 89 42 3d e4 9c d2 3c c9 f6 70 bb
       -0.04995347 0.047494642 0.025709577 -0.003676819
000150 6e 06 d9 bc e5 12 90 bd 4f 18 94 3b 07 03 4c 3d
       -0.026492324 -0.07034854 0.0045194994 0.049807575
000160 2d ab 0f bd 2f 7e 55 bd 81 b5 8c bd 73 0a ae 3c
       -0.035075355 -0.05212229 -0.068705566 0.021245217
000170 53 2b 32 3d fd be ce bc 73 ea 3b bd a5 ca 9a bd
       0.04349835 -0.025237555 -0.045877885 -0.075581826
000180 23 e2 fa 3b 5a e3 59 3d 19 9f 16 bd fc da 64 bd
       0.007656352 0.053195335 -0.03677282 -0.055872902

lstm.bias_ih_l0 f4 [20]
000000 21 c1 fa 3d 41 95 3c 3e b9 9c 98 3d 84 7d e8 3d
       0.12243868 0.18416311 0.074517675 0.11352065
000010 ee a9 c2 3d 24 6b df 3d d6 d7 2a 3e fa 20 c6 3d
       0.09505068 0.10909107 0.16683897 0.096742585
000020 4b 52 10 3e ab 7b c8 3d 31 8c 5e 3e bf e2 2c be
       0.14093892 0.09789213 0.21733166 -0.16883372
000030 94 85 36 bd 4b 86 a9 bc c2 4f a5 3d 28 ce 59 3e
       -0.044560984 -0.020693919 0.08071853 0.21270049
000040 cd c5 85 3e 79 b4 2e 3e 51 3e 50 3e 12 86 41 3e
       0.26127473 0.17061032 0.20336272 0.188988

lstm.bias_hh_l0 f4 [20]
000000 46 be fa 3d 08 91 3c 3e 03 e5 f6 3d 33 84 e8 3d
       0.12243323 0.184147 0.12055399 0.1135334
000010 09 aa c2 3d 78 6a df 3d 52 d3 2a 3e c0 22 c6 3d
       0.09505088 0.10908979 0.16682175 0.09674597
000020 2d 50 10 3e 62 79 c8 3d 5d db 62 3e 1f c2 2c be
       0.14093085 0.09788777 0.22153993 -0.16870926
000030 73 83 38 bd 98 fb a9 bc 0f b4 ac 3d 3c cd 59 3e
       -0.045047235 -0.020749852 0.08432781 0.21269697
000040 36 c7 85 3e e8 b9 2e 3e 34 3a 50 3e 86 1c 43 3e
       0.26128548 0.17063105 0.20334703 0.1905385

linear1.weight f4 [1, 5]
000000 b0 6f 6f bf 32 c8 5f bf 6d ef 3c 3f 71 24 47 bf
       -0.93529797 -0.8741485 0.73802835 -0.7778998
000010 e6 58 4f bf
       -0.80995023
