LSTM_torch/models/pHdata/curriculum_PID/vanilla/model_sl_5_bs_64_hs_5_ep_1_tol_1e-06_gm_[-1.04,-534]_thd_[-0.01,-0.05].pth (torch, 2974 bytes, 5 tensors)

lstm.weight_ih_l0 f4 [20, 2]
-0.45169267 0.3089982 -0.19399555 0.053084295 -0.16512626 -0.33015746 0.18632714 0.2988806
0.019185394 -0.45481077 0.3853946 -0.43160576 0.21364807 0.10558535 -0.4538486 0.24698357
-0.32890233 -0.03976519 0.3651775 0.39323908 -0.035766862 -0.47312716 0.3166858 -0.27718967
-0.11805443 -0.24773294 -0.06112961 0.12513275 0.3112867 -0.42758292 -0.044252202 -0.014367875
-0.11434574 0.19758095 0.18140769 0.08790593 0.3815464 0.17371482 0.39480314 -0.34387136
00000000: 4344 e7be 0335 9e3e c5a6 46be eb6e 593d
00000010: dc16 29be 660a a9be 8bcc 3e3e e106 993e
00000020: b02a 9d3c f5dc e8be 7152 c53e 6efb dcbe
00000030: 8fc6 5a3e 223d d83d d85e e8be 43e9 7c3e
00000040: e365 a8be d3e0 22bd 8cf8 ba3e a256 c93e
00000050: 4680 12bd b93d f2be a424 a23e ceeb 8dbe
00000060: 85c6 f1bd b4ad 7dbe 0b63 7abd cd22 003e
00000070: f860 9f3e 26ec dabe cc41 35bd 3c67 6bbc
00000080: 192e eabd a952 4a3e f0c2 393e 0608 b43d
00000090: 0d5a c33e 4ce2 313e a323 ca3e e80f b0be

lstm.weight_hh_l0 f4 [20, 5]
-0.2818168 -0.049245913 -0.05839119 -0.016959118 -0.12806249 0.22057092 0.23709336 0.21702333
-0.26072624 -0.12007383 0.03285809 -0.41338402 -0.2783325 0.39896342 -0.25681543 -0.25233424
0.47065932 0.117643654 0.34696642 0.068460524 -0.22565055 0.48558033 -0.14187592 -0.12921552
0.41389108 -0.36678514 -0.46306932 0.15906525 -0.044133533 0.16221794 0.26172292 -0.4367996
-0.22850898 -0.15669885 -0.41754904 0.3087386 0.25722724 0.37003607 -0.15177117 -0.08036526
-0.012778921 0.20293227 -0.39637363 0.29537448 0.15126319 0.29385942 0.07345165 -0.14610524
0.17537506 0.23335396 0.23106594 0.00027157695 -0.18161692 -0.123859584 -0.10906728 0.23567054
0.30748153 0.18147695 -0.00026083726 -0.33865488 0.13710956 0.33092844 0.05685495 -0.011601764
0.21795563 0.00016559866 -0.0002462324 0.28906325 -0.099049464 -0.013901619 -0.09908184 1.9035766e-05
0.18969157 0.124136314 -0.11468168 -0.011500763 -0.120579205 0.25071752 -0.18295564 0.2840546
-0.23348302 0.36893296 -0.031140985 -0.15216887 -0.0958721 -0.39511096 0.24262248 0.3608962
0.3284398 -0.25842226 -0.39518738 0.2959315 -0.27025148 -0.083446704 0.23875435 0.39435637
-0.048279695 -0.26669902 -0.39537877 -0.35435233
00000000: 4b4a 90be 15b6 49bd 9a2b 6fbd d9ed 8abc
00000010: d022 03be 58dd 613e 9ac8 723e 5d3b 5e3e
00000020: e97d 85be 45e9 f5bd 3496 063d 12a7 d3be
00000030: 9981 8ebe ef44 cc3e 507d 83be f431 81be
00000040: 42fa f03e 28ef f03d 95a5 b13e 0835 8c3d
00000050: f010 67be fc9d f83e ec47 11be 1351 04be
00000060: 88e9 d33e 43cb bbbe 6c17 edbe 00e2 223e
00000070: 5dc5 34bd 761c 263e 8c00 863e 32a4 dfbe
00000080: 42fe 69be aa75 20be fdc8 d5be fc12 9e3e
00000090: 4ab3 833e 5e75 bd3e e769 1bbe 8b96 a4bd
000000a0: ae5e 51bc 7acd 4f3e 7cf1 cabe 533b 973e
000000b0: bde4 1a3e be74 963e d26d 963d 9d9c 15be
000000c0: 8595 333e 57f4 6e3e 8d9c 6c3e 7162 8e39
000000d0: c9f9 39be 18aa fdbd ab5e dfbd 9e53 713e
000000e0: 386e 9d3e 18d5 393e fcc0 88b9 2c64 adbe
000000f0: 7366 0c3e 746f a93e bce0 683d 5315 3ebc
00000100: c32f 5f3e 8da4 2d39 c118 81b9 1900 943e
00000110: 72da cabd 9ec3 63bc 6beb cabd ffae 9f37
00000120: 823e 423e 2e3b fe3d 3bde eabd b26d 3cbc
00000130: 3bf2 f6bd 0c5e 803e b958 3bbe 9b6f 913e
00000140: 2c16 6fbe c8e4 bc3e 611b ffbc 28d2 1bbe
00000150: 9758 c4bd fc4b cabe 0772 783e 63c7 b83e
00000160: 4329 a83e ec4f 84be 0056 cabe 5584 973e
00000170: 675e 8abe 1be6 aabd 057c 743e 14e9 c93e
00000180: eec0 45bd c68c 88be 166f cabe ab6d b5be

lstm.bias_ih_l0 f4 [20]
0.3623164 -0.13704598 0.20399119 0.43462396 0.17544313 0.0673849 0.3099327 0.0043409634
-0.2625319 0.34650102 0.082876146 -0.23690131 -0.3550585 0.26089743 0.15043497 -0.33238247
0.32313544 -0.48391035 -0.3313568 0.005672568
00000000: 8981 b93e c855 0cbe 11e3 503e 0887 de3e
00000010: 5da7 333e 1801 8a3d 80af 9e3e a43e 8e3b
00000020: 956a 86be 9568 b13e f8ba a93d 4296 72be
00000030: 3aca b5be 5994 853e a00b 1a3e 092e aabe
00000040: 0272 a53e 19c3 f7be 99a7 a9be f3e0 b93b

lstm.bias_hh_l0 f4 [20]
0.26355138 0.15434074 0.23426504 0.04977024 -0.36244023 0.16022347 0.28476363 -0.060515556
-0.3182644 0.063152224 0.20270261 0.10195106 -0.124127164 0.39570814 0.15446167 0.24243757
-0.03769134 0.32217807 0.39040813 0.002067432
00000000: 35f0 863e 800b 1e3e 2de3 6f3e e1db 4b3d
00000010: c491 b9be 9f11 243e 8acc 913e 29df 77bd
00000020: 8df3 a2be f455 813d 4691 4f3e b8cb d03d
00000030: 6236 febd 429a ca3e 332b 1e3e 8e41 783e
00000040: 3c62 1abd 86f4 a43e 93e3 c73e c17d 073b

linear1.weight f4 [1, 5]
-0.33515352 -0.20608744 0.2082697 0.21320263 0.49735415
00000000: 3e99 abbe 9608 53be a744 553e ca51 5a3e
00000010: 34a5 fe3e
