LSTM_torch/models/model_sl_5_bs_64_hs_5_ep_100_tol_1e-05_r_tensor([3., 3.])_thd_tensor([8., 8.]).pth (torch, 2339 bytes, 5 tensors)

lstm.weight_ih_l0 f4 [20, 2]
0	0x3ee5ef44	0.44909108
1	0x3e244961	0.16043617
2	0x3eded244	0.43519795
3	0x3e35057a	0.1767787
4	0x3f03ed44	0.51533914
5	0x3e970b13	0.29500636
6	0x3ed0ad0c	0.40757024
7	0x3e19c255	0.15015538
8	0x3eee9bbc	0.4660319
9	0x3e18517a	0.14874831
10	0xba2e116b	-0.0006640169
11	0x3a7de15b	0.00096847647
12	0x399fe2de	0.00030495872
13	0xb98c6248	-0.00026776106
14	0xb935cb8c	-0.00017337332
15	0xb91747d5	-0.00014427242
16	0x3aa2e6c3	0.0012428391
17	0x3a008eda	0.0004904099
18	0x3a8bfa2f	0.0010679419
19	0x3a870165	0.0010300098
20	0xbeae354b	-0.34025034
21	0xbd8e88c3	-0.06959679
22	0x3eb0ba0a	0.34516937
23	0x3d9452b7	0.07242339
24	0xbe7f1691	-0.24910952
25	0xbd8bd1be	-0.068271145
26	0x3ed551c4	0.41663945
27	0x3db2a59c	0.08722994
28	0xbedeca9c	-0.43513954
29	0xbda37a97	-0.079823665
30	0x3e61fba7	0.22068654
31	0x3e512b91	0.20426776
32	0x3e5f05e7	0.21779595
33	0x3e4ff55e	0.20308444
34	0x3e60eb29	0.21964706
35	0x3e53f930	0.20700526
36	0x3e5d51bb	0.21613209
37	0x3e4b89be	0.19876763
38	0x3e61ea60	0.22062063
39	0x3e4dc38d	0.20094128

lstm.weight_hh_l0 f4 [20, 5]
0	0xbe95bd09	-0.29245785
1	0x3f1c44ae	0.61042297
2	0xbf1c3b25	-0.6102775
3	0x3ed81d29	0.42209747
4	0xbf1886fc	-0.5958097
5	0xbf1c2e12	-0.610078
6	0x3f063855	0.52429706
7	0xbf1be439	-0.60895115
8	0x3edd45c2	0.43217283
9	0xbf1c4873	-0.6104805
10	0xbedaf0c5	-0.42761818
11	0xbe5ead52	-0.21745804
12	0xbf1c5566	-0.6106781
13	0x3f09e84b	0.53870076
14	0xbf15af7a	-0.5847088
15	0xbf1c298d	-0.610009
16	0x3f1c32b8	0.6101489
17	0xbf1c45d8	-0.61044073
18	0x3f1c3a3d	0.61026365
19	0xbf04e243	-0.5190775
20	0xbed63d44	-0.41843617
21	0x3f1ba89b	0.60804147
22	0xbf1c05a6	-0.6094612
23	0x3f1c1ae8	0.60978556
24	0xbf1c392d	-0.61024743
25	0x38f6565d	0.000117462805
26	0x3aa1a0ba	0.0012331225
27	0xb899ef08	-7.3401316e-05
28	0xba5dafc6	-0.0008456673
29	0xba58126e	-0.00082424923
30	0xba3871f9	-0.0007036026
31	0x3b0a9137	0.0021143684
32	0xb8ad0b4e	-8.2513885e-05
33	0xbabff91b	-0.0014646383
34	0x3aa5e614	0.001265707
35	0x36d68d19	6.394123e-06
36	0xbad3390e	-0.0016115026
37	0x391767e3	0.00014439183
38	0xbad6527b	-0.0016351485
39	0x3ad968a5	0.0016586973
40	0x3a138d26	0.0005628638
41	0x3910fb33	0.00013826489
42	0x3ace4b21	0.0015738943
43	0x3af112dc	0.0018392461
44	0x3ace1014	0.0015721344
45	0x39d40fad	0.0004044747
46	0x3a4e07c2	0.00078594324
47	0xbadb203a	-0.0016717978
48	0x3aa9f3b0	0.0012966301
49	0xb92fe9ec	-0.00016776443
50	0x3885595b	6.358578e-05
51	0xb92e5db8	-0.00016628846
52	0xb92ecd40	-0.00016670395
53	0xb84106ff	-4.60213e-05
54	0xb8f222e1	-0.00011545956
55	0x38f1dfa9	0.000115334355
56	0x36f6ba33	7.3530477e-06
57	0xb8417fb5	-4.6133722e-05
58	0xb949efde	-0.00019258211
59	0x375d1410	1.3177298e-05
60	0x3816617e	3.5853584e-05
61	0xb8b97cf4	-8.844762e-05
62	0xb8ffd72c	-0.000121994264
63	0xb8ddb044	-0.00010570933
64	0xb8898011	-6.556523e-05
65	0x394c2f1b	0.00019472504
66	0x392b7951	0.00016353025
67	0x3822535f	3.8701455e-05
68	0x38f448f2	0.00011648414
69	0xb79f862f	-1.9016761e-05
70	0xb8d1786c	-9.988327e-05
71	0xb91db3b4	-0.00015039631
72	0xb6e5f304	-6.8530226e-06
73	0xb91dd1cb	-0.00015050841
74	0xb8413aef	-4.6069672e-05
75	0xbe6073db	-0.21919195
76	0x3e61483d	0.22000213
77	0xbe60b7b1	-0.21945073
78	0x3e61f8ac	0.22067517
79	0xbe61b4ca	-0.22041622
80	0xbe605bf4	-0.21910077
81	0x3e60349f	0.21895073
82	0xbe61c336	-0.22047123
83	0x3e614971	0.22000672
84	0xbe5fecbb	-0.2186765
85	0xbe61b4ea	-0.2204167
86	0x3e60daf2	0.21958521
87	0xbe606e7b	-0.21917145
88	0x3e5ebd39	0.2175187
89	0xbe6168f3	-0.22012691
90	0xbe60e6cf	-0.21963046
91	0x3e5fead1	0.21866919
92	0xbe611202	-0.21979526
93	0x3e60e175	0.21961005
94	0xbe623202	-0.22089389
95	0xbe61ed96	-0.22063288
96	0x3e60ad03	0.21940999
97	0xbe612086	-0.21985063
98	0x3e60756a	0.2191979
99	0xbe614e34	-0.22002488

lstm.bias_ih_l0 f4 [20]
0	0x3e0a7ae7	0.13523446
1	0xbd4f5dda	-0.050626613
2	0x3ec5bcdb	0.38620648
3	0x3e37c9a0	0.17948008
4	0x3ef7c641	0.48393443
5	0x3e329a7c	0.17441744
6	0x3d86ff19	0.06591625
7	0x3bae3346	0.005316171
8	0x3da3c539	0.079966016
9	0xbd873b72	-0.06603135
10	0xbe927f74	-0.28612864
11	0x3eaa8599	0.33305052
12	0xbf808fbe	-1.0043867
13	0x3f832f74	1.0248857
14	0xbfd41c09	-1.6571056
15	0x3d29d3ba	0.041461684
16	0x3c86a7e0	0.01643747
17	0x3d6f135b	0.05836807
18	0x3d530f87	0.05152848
19	0x3eb89bc3	0.36056337

lstm.bias_hh_l0 f4 [20]
0	0x3ef349b0	0.47517157
1	0x3f29378f	0.661004
2	0x3db48b93	0.08815684
3	0x3eba51dc	0.3639058
4	0x3e0019b3	0.12509803
5	0xbe303227	-0.17206632
6	0xbd83d162	-0.06436421
7	0xbbea3a4a	-0.007148062
8	0xbd9f6066	-0.077820584
9	0x3d861756	0.0654742
10	0xbf656e2d	-0.8962124
11	0x3f760d56	0.961141
12	0xbebe969b	-0.37224278
13	0x3fcdb725	1.6071516
14	0xbf94b9d0	-1.1619205
15	0x3e380939	0.17972268
16	0x3e50980f	0.20370506
17	0x3e22742e	0.15864632
18	0x3e2cb44b	0.16865651
19	0xbe11ec6f	-0.14250349

linear1.weight f4 [1, 5]
0	0xbfda56c8	-1.7057734
1	0x3fc26b42	1.5188982
2	0xbff26364	-1.8936582
3	0x3fb949f9	1.44757
4	0xbfd67377	-1.6753987
