LSTM_torch/models/robot_forward/curriculum_PID/vanilla/model_sl_5_bs_64_hs_10_ep_100_tol_1e-06_gm_[-0.0246,0]_thd_[-0.01,-0.05].pth (torch, 6312 bytes, 6 tensors)

lstm.weight_ih_l0 f4 [40, 12]
-0.09932596 -0.12616399 -0.06771554 0.010584514 0.03897866 -0.005534468 -0.0010627423 3.168865
1.8444959 0.1762814 1.0769494 -0.42093676 0.04848182 -0.005752813 -0.032818373 -0.024542546
-0.0494007 -0.006462846 -0.16822837 0.4729949 0.15058021 0.5727812 0.60523504 0.45622823
0.04349786 -0.022325048 0.012500504 0.0363974 0.015975064 -0.032958046 -0.107465364 -0.044293582
-0.27369466 0.093268305 0.07468004 0.03619256 -0.034528855 0.029188279 -0.0081445705 -0.004564587
0.049180966 -0.0034362094 0.13919929 0.05139071 0.06758587 0.15502924 0.04095847 0.0380969
-0.0056257946 -0.07127826 -0.1272151 -0.012378978 0.027809322 0.036085855 0.028106788 -0.9220698
0.3485339 0.2571644 -1.4147745 0.91892195 -0.00290054 -0.04301911 -0.036158267 -0.015196589
0.02162931 0.0040295315 0.023827584 -0.015664632 0.050847724 0.03833077 -0.02856717 0.007974005
0.0997559 -0.06909564 0.119422495 -0.019870972 0.01854785 -0.023277612 -0.27541474 0.18541585
0.1923574 0.15249255 -0.08685919 -0.21181029 -0.013845093 0.040459793 -0.016178314 0.005685554
-0.028002206 0.008173333 0.02230914 0.03257691 -0.03363559 -0.033641405 0.10772594 -0.005434627
-0.024176866 -0.030430853 -0.023651307 0.019707596 -0.00806932 -0.024150828 -0.009023087 -0.02742888
-0.029418834 0.044538077 0.0024250774 -0.006471637 -0.0053098802 0.012494875 -0.033841606 -0.0009460153
0.0050117597 0.0044489 0.06612071 0.03802229 0.114750475 -0.1346592 -0.20456797 -0.0925233
-0.003979357 -0.0062822653 0.020059073 -0.009938295 -0.0066175032 0.0037386273 -0.040384714 0.05690672
-0.075681776 0.0010906925 0.104970515 0.02931742 -0.0034621153 0.0012743197 0.002350727 -0.00200812
0.0052805296 -0.0020798147 -0.014869544 0.07491417 0.015682928 0.033586215 0.01575433 -0.017767668
0.02210511 0.00074460794 0.011380188 0.020406863 -0.00011713053 -0.016085021 -0.008741901 0.028499283
0.0072073215 0.08816467 0.03774938 -0.012988087 -0.0125821 -0.017542835 -0.021222947 0.013670284
0.018669382 -0.017751353 -0.0056719766 0.014401992 -0.032520324 0.028222851 -0.0066224206 -0.04221939
0.0110400105 0.037798192 -0.018294515 -0.011089791 0.021180917 -0.011530209 0.0036516152 0.0022159908
-0.0077153957 -0.04202557 0.022826595 -0.017635442 -0.0066433935 -0.016111169 -0.025995014 -0.0073987744
0.011284204 0.013438371 -0.041225336 0.053521674 0.084727004 -0.021423744 0.07123084 0.04394015
0.0042818002 -0.014967149 -0.0054373946 0.002315856 -0.0018277584 -0.0011799163 0.011384078 -0.010900983
0.0054575065 0.017783677 0.024713466 -0.0089662345 -0.008568057 0.022891952 -0.023475436 0.00952383
-0.010497067 0.009246833 -0.00980447 0.116433024 -0.03202045 0.005259635 0.018475862 0.03493724
-0.023498397 -0.00974098 -0.011179623 0.0087359315 -0.025710749 -0.0062380335 -0.06598371 -0.0074517583
-0.04044997 -0.0066417526 0.033835806 -0.05660886 0.0006097953 0.015483761 0.013802165 0.01962271
0.032668415 0.019322023 0.025086388 0.0141687 0.049225327 0.062267803 0.07502969 0.003918019
-0.0060765925 -0.0012712823 0.0016405928 -0.0113917235 -0.00512286 0.01262959 -0.0041596056 -0.048120428
-0.0097748665 -0.0555046 -0.044494323 0.03502057 0.0071599376 -0.0025735488 -0.00465828 -0.0062276116
00000000: 696b cbbd 2231 01be 72ae 8abd ab6a 2d3c
00000010: 16a8 1f3d 7c5a b5bb b74b 8bba afce 4a40
00000020: 7118 ec3f 1c83 343e 7ad9 893f 0685 d7be
00000030: df94 463d 1882 bcbb 8f6c 06bd 730d c9bc
00000040: 6358 4abd 48c6 d3bb 0f44 2cbe 632c f23e
00000050: b331 1a3e caa1 123f aff0 1a3f bf96 e93e
00000060: d02a 323d 05e3 b6bc eace 4c3c 7115 153d
00000070: 23de 823c 04ff 06bd cd16 dcbd 306d 35bd
00000080: b521 8cbe 7403 bf3d d9f1 983d a63e 143d
00000090: 216e 0dbd 421c ef3c ce70 05bc 8892 95bb
000000a0: fb71 493d 0732 61bb 428a 0e3e 117f 523d
000000b0: 766a 8a3d fcbf 1e3e 12c4 273d 7f0b 1c3d
000000c0: 9658 b8bb 56fa 91bd ad44 02be 32d1 4abc
000000d0: 60d0 e33c c3ce 133d 3540 e63c c40c 6cbf
000000e0: 0973 b23e 0dab 833e 5517 b5bf 783e 6b3f
000000f0: fc16 3ebb ce34 30bd b11a 14bd 1dfb 78bc
00000100: f32f b13c 290a 843b 1132 c33c 1d53 80bc
00000110: b445 503d ba00 1d3d b305 eabc 67a5 023c
00000120: d24c cc3d 0482 8dbd c893 f43d 73c8 a2bc
00000130: a9f1 973c b1b0 bebc 2903 8dbe a7dd 3d3e
00000140: 57f9 443e 0227 1c3e 3be3 b1bd cce4 58be
00000150: 87d6 62bc 2bb9 253d 6288 84bc e24d ba3b
00000160: e264 e5bc 71e9 053c a8c1 b63c 5e6f 053d
00000170: 79c5 09bd 92cb 09bd 6b9f dc3d f514 b2bb
00000180: 900e c6bc 204a f9bc 63c0 c1bc d371 a13c
00000190: 2e35 04bc f5d7 c5bc 92d5 13bc 88b2 e0bc
000001a0: c4ff f0bc 8f6d 363d 0cee 1e3b 0710 d4bb
000001b0: 81fe adbb 4eb7 4c3c 7f9d 0abd 03fe 77ba
000001c0: b039 a43b 14c8 913b 4b6a 873d 43bd 1b3d
000001d0: 4c02 eb3d 1ae4 09be 447a 51be db7c bdbd
000001e0: 4465 82bb 76db cdbb ed52 a43c 3bd4 22bc
000001f0: a4d7 d8bb c203 753b 716a 25bd 0517 693d
00000200: 0cff 9abd 91f5 8e3a c8fa d63d 162b f03c
00000210: a8e4 62bb 1307 a73a a80e 1a3b aa9a 03bb
00000220: 4b08 ad3b 804d 08bb 639f 73bc 9a6c 993d
00000230: 7c79 803c b391 093d 3a0f 813c 808d 91bc
00000240: c715 b53c cb31 433a f873 3a3c 4b2c a73c
00000250: f9a3 f5b8 bcc4 83bc 313a 0fbc 5477 e93c
00000260: 652b ec3b ae8f b43d 189f 1a3d fccb 54bc
00000270: 2725 4ebc feb5 8fbc bfdb adbc 54f9 5f3c
00000280: 88f0 983c 496b 91bc fddb b9bb 55f6 6b3c
00000290: 0834 05bd 9c33 e73c e400 d9bb 3dee 2cbd
000002a0: 29e1 343c 47d2 1a3d 61de 95bc f4b1 35bc
000002b0: 9a83 ad3c 34e9 3cbc f04f 6f3b 283a 113b
000002c0: 6ed1 fcbb 0123 2cbd d7fe ba3c 3478 90bc
000002d0: d3b0 d9bb 92fb 83bc 7ff3 d4bc 6b71 f2bb
000002e0: 62e1 383c 9d2c 5c3c e6db 28bd 8b39 5b3d
000002f0: 5a85 ad3d d980 afbc 7ae1 913d 96fa 333d
00000300: 584e 8c3b c638 75bc 2c2c b2bb 9ec5 173b
00000310: 6591 efba 6ca7 9aba 4984 3a3c 099a 32bc
00000320: e2d4 b23b 13af 913c e573 ca3c 1de7 12bc
00000330: 0961 0cbc e787 bb3c 8f4f c0bc d709 1c3c
00000340: e4fb 2bbc 0780 173c eea2 20bc 7074 ee3d
00000350: e027 03bd 0459 ac3b b15a 973c 5a1a 0f3d
00000360: b67f c0bc a298 1fbc bd2a 37bc 2721 0f3c
00000370: 599f d2bc 6b68 ccbb 7822 87bd e12d f4bb
00000380: deae 25bd 0fa3 d9bb 6a97 0a3d b1de 67bd
00000390: abda 1f3a 9aaf 7d3c 7a22 623c cebf a03c
000003a0: 51cf 053d 3849 9e3c f881 cd3c d623 683c
000003b0: 7fa0 493d 860c 7f3d 2ba9 993d ba62 803b
000003c0: 271e c7bb 28a1 a6ba 2909 d73a 5aa4 3abc
000003d0: aadd a7bb 57ec 4e3c 4d4d 88bb ed19 45bd
000003e0: c326 20bc cb58 63bd ae3f 36bd bb71 0f3d
000003f0: e99d ea3b fca8 28bb 7ca4 98bb fe10 ccbb

lstm.weight_hh_l0 f4 [40, 10]
1.5963287 2.397497 2.4054217 -1.9770063 1.4346663 0.14147526 -0.2602786 -2.7139223
0.6630079 1.555742 -0.30529273 -5.648163 0.0066796574 -0.23115276 0.16582187 0.032413118
0.031293258 -0.108624525 0.4560262 6.6822042 0.047797862 0.4874844 2.3547127 -0.31326446
0.15477604 -0.59389526 0.73953444 -0.14299305 -0.165265 0.24398457 0.30237332 0.16575934
-0.35096943 -2.9332385 -0.30203032 -0.89589995 0.48362184 -0.8023989 -7.809251 -0.18065539
-2.394002 1.0843219 0.6433333 -0.6231322 3.1442087 1.9822288 1.9700911 -1.234424
0.05786405 1.0142366 -0.24921916 -0.06515962 0.6299347 0.18698056 -0.10479185 -5.6803536
0.058253095 0.51136446 0.25908747 -0.11679828 0.99594796 4.6342106 2.2879195 -1.2431548
2.790807 2.9833353 3.2968233 -4.9616694 -3.356134 5.5880046 0.045288518 0.029604623
0.07452009 0.22719006 0.086433016 -0.32847342 0.41270843 5.513251 -0.22381921 -0.025975559
-0.27549803 -0.22598818 0.18900709 0.016469767 -0.08286473 -0.28744304 -0.28368905 0.2358364
6.3543596 -0.10467904 -0.21285847 2.4401455 0.20587026 -0.38763815 -0.11053979 0.014117998
0.7558129 -0.38632244 1.6175405 4.7369747 0.06379422 0.062897995 -0.2221331 -0.24897994
0.06342984 -0.17979248 -0.150129 0.09503343 -0.09684207 0.01690093 -0.055348165 0.3101131
0.04698784 0.016482873 0.0041609677 0.097369134 0.09457705 -0.04863453 0.07548621 0.12922223
0.31276098 0.064423695 0.31113547 0.056032587 0.015606262 0.28641382 0.2665887 -0.05137228
-4.4844313e-05 0.075187586 0.1813348 0.04324278 0.023167687 0.297257 0.023933042 0.0039720763
-0.038662985 -0.12781776 0.2465033 -0.005165195 0.13490012 -0.076138504 0.020399887 0.0082616825
-0.2691461 -0.032401938 -0.005472067 0.013082763 -0.16610752 0.007934941 0.03291048 -0.06082544
-0.311366 0.02963169 -0.103289306 -0.31373912 0.12820503 0.094896525 -0.08465169 -0.037821274
0.0922123 0.069522634 -0.009541175 -0.040842827 0.04245691 -0.012354284 0.31343377 -0.04229387
-0.03136599 0.102264695 0.17797638 -0.021217057 -0.13370678 -0.06682454 -0.033021122 -0.07847777
0.11701552 0.3131671 0.30893826 -0.034821685 0.28606722 -0.0054092156 -0.035559688 0.31156895
0.17003657 0.016209923 0.04460645 0.31261605 -0.095547214 0.07337545 0.06361377 0.3121064
-0.029097715 0.025326865 -0.007998334 0.019245114 0.06451923 0.060045946 -0.29854873 -0.23621015
-0.017628636 -0.00050387473 -0.015664214 -0.016218005 0.009058823 -0.0069988617 -0.0011403195 -0.002952865
-0.017950945 0.0010402433 0.0022723663 -0.0661007 0.00017504852 0.00035733278 -0.01037164 0.0045265635
0.008894596 -0.0029392892 0.008458871 0.022530518 3.7576876e-05 -9.8638586e-05 0.00017184952 0.00011901831
0.00016574346 0.0003645182 -0.00042789764 -0.00031645875 0.00039227225 0.00020502567 0.0003789789 0.0002864458
-0.00013852183 -0.00037177416 0.000114753726 -0.0001407572 -0.00011826273 0.000212373 3.289703e-05 -0.00035966383
4.2657208e-05 -0.0004800626 -2.268548e-06 -0.0005080741 0.00017397015 0.0002022955 0.00042124803 0.00026087457
0.0018516236 -0.0007593802 0.00026137155 0.0003353398 -0.0002398608 5.8069585e-05 0.00022799961 0.00040009792
00000000: 8054 cc3f 9770 1940 6ef2 1940 8b0e fdbf
00000010: 25a3 b73f e4de 103e 3d43 85be e7b0 2dc0
00000020: e3ba 293f 8e22 c73f 544f 9cbe c0bd b4c0
00000030: 07e1 da3b 4fb3 6cbe 35cd 293e 9ec3 043d
00000040: 5c2d 003d 8976 debd 447c e93e 9ed4 d540
00000050: b1c7 433d 8e97 f93e 9db3 1640 3364 a0be
00000060: 9c7d 1e3e 8509 18bf 2152 3d3f c56c 12be
00000070: 3a3b 29be 17d7 793e add0 9a3e d1bc 293e
00000080: 44b2 b3be 2eba 3bc0 b8a3 9abe b359 65bf
00000090: 489d f73e 046a 4dbf 62e5 f9c0 bafd 38be
000000a0: 5437 19c0 0fcb 8a3f 7eb1 243f 9885 1fbf
000000b0: b73a 4940 acb9 fd3f f22b fc3f 9b01 9ebf
000000c0: db02 6d3d 81d2 813f 4f33 7fbe 6872 85bd
000000d0: 6743 213f d577 3f3e 1c9d d6bd 75c5 b5c0
000000e0: cc9a 6e3d c8e8 023f 1da7 843e f033 efbd
000000f0: 72f6 7e3f 744b 9440 466d 1240 b21f 9fbf
00000100: 959c 3240 f7ee 3e40 27ff 5240 ffc5 9ec0
00000110: e6ca 56c0 efd0 b240 7480 393d 6585 f23c
00000120: fd9d 983d 83a4 683e cb03 b13d ab2d a8be
00000130: 854e d33e 8d6c b040 dd30 65be b2ca d4bc
00000140: 140e 8dbe 7269 67be 138b 413e 9beb 863c
00000150: fcb4 a9bd bc2b 93be b13f 91be 197f 713e
00000160: ea56 cb40 f761 d6bd 92f7 59be 582b 1c40
00000170: a7cf 523e 8278 c6be af62 e2bd 2d4f 673c
00000180: f47c 413f 0ecc c5be 910b cf3f 4c95 9740
00000190: 8ba6 823d aad0 803d dc76 63be 99f4 7ebe
000001a0: 81e7 813d 851b 38be 6bbb 19be e3a0 c23d
000001b0: 2355 c6bd d273 8a3c c2b4 62bd 25c7 9e3e
000001c0: 5276 403d 1707 873c ba58 883b 7869 c73d
000001d0: 9db1 c13d 0035 47bd 8498 9a3d d552 043e
000001e0: 3522 a03e 92f0 833d 264d 9f3e 6d82 653d
000001f0: 68b1 7f3c d5a4 923e 507e 883e bd6b 52bd
00000200: 3717 3cb8 f3fb 993d d4af 393e 571f 313d
00000210: 29ca bd3c 1232 983e 3a0f c43c 3128 823b
00000220: 145d 1ebd a9e2 02be 5c6b 7c3e cc40 a9bb
00000230: 4223 0a3e 81ee 9bbd aa1d a73c 025c 073c
00000240: 85cd 89be e5b7 04bd 064f b3bb 1659 563c
00000250: 1718 2abe 8e01 023c 24cd 063d 1924 79bd
00000260: 5d6b 9fbe 28be f23c 5889 d3bd 6aa2 a0be
00000270: 2e48 033e 1c59 c23d de5d adbd 7bea 1abd
00000280: cdd9 bc3d e261 8e3d 9752 1cbc cf4a 27bd
00000290: 4ce7 2d3d 9f69 4abc 647a a03e 563c 2dbd
000002a0: a079 00bd 2770 d13d 713f 363e 65cf adbc
000002b0: 6eea 08be 4edb 88bd 2841 07bd f4b8 a0bd
000002c0: d5a5 ef3d 7057 a03e 282d 9e3e 2fa1 0ebd
000002d0: 6777 923e ca3f b1bb 09a7 11bd f785 9f3e
000002e0: 111e 2e3e acca 843c 41b5 363d 360f a03e
000002f0: 42ae c3bd de45 963d f047 823d 69cc 9f3e
00000300: 555e eebc 497a cf3c 720b 03bc eea7 9d3c
00000310: a822 843d bdf2 753d 61db 98be 13e1 71be
00000320: ee69 90bc 7616 04ba 3d52 80bc 9fdb 84bc
00000330: 756b 143c b556 e5bb c676 95ba db84 41bb
00000340: dc0d 93bc c658 883a fbeb 143b ce5f 87bd
00000350: 3b8d 3739 6558 bb39 d0ed 29bc 9153 943b
00000360: a4ba 113c 17a1 40bb 1497 0a3c ec91 b83c
00000370: dd9b 1d38 30dc ceb8 8132 3439 7899 f938
00000380: 6ccb 2d39 ce1c bf39 7357 e0b9 60ea a5b9
00000390: e4a9 cd39 29fc 5639 b0b1 c639 1b2e 9639
000003a0: 2c40 11b9 afea c2b9 f0a7 f038 3998 13b9
000003b0: d203 f8b8 71b0 5e39 ebfa 0938 4391 bcb9
000003c0: d4ea 3238 e9b0 fbb9 5c3d 18b6 4730 05ba
000003d0: c26b 3639 491f 5439 f4da dc39 fec5 8839
000003e0: 2eb2 f23a 2411 47ba b208 8939 8cd0 af39
000003f0: 2583 7bb9 be8f 7338 2e13 6f39 3cc4 d139

lstm.bias_ih_l0 f4 [40]
3.0598586 1.2070905 1.658393 2.216597 1.9204384 2.4135208 3.1347156 2.1158397
2.159209 -0.14646645 0.08256146 0.15712604 -0.16466518 0.18679644 -0.3131523 0.016917357
0.017278636 -0.27177143 -0.18874823 -0.14748281 -0.25072023 -0.0050100135 1.3978589 0.8683475
-0.53965074 -1.1721395 -0.14570095 1.8009331 1.2950033 -0.46882343 1.5113595 1.2264652
1.4055862 0.7343558 0.2645244 0.13627686 1.0722371 0.16391315 1.043649 0.69628084
00000000: b9d4 4340 f181 9a3f 3946 d43f badc 0d40
00000010: edd0 f53f 2077 1a40 2e9f 4840 eb69 0740
00000020: 7b30 0a40 4dfb 15be fc15 a93d a6e5 203e
00000030: fd9d 28be 9147 3f3e 8055 a0be 4596 8a3c
00000040: ed8b 8d3c a025 8bbe 3747 41be bc05 17be
00000050: 675e 80be 0a2b a4bb 0aed b23f 064c 5e3f
00000060: 8d26 0abf ab08 96bf a132 15be fa84 e63f
00000070: abc2 a53f a009 f0be 3a74 c13f d0fc 9c3f
00000080: 40ea b33f befe 3b3f be6f 873e 298c 0b3e
00000090: 113f 893f d9d8 273e 4a96 853f 763f 323f

lstm.bias_hh_l0 f4 [40]
3.0433753 1.6215689 1.9458655 2.0926178 2.183849 2.2814183 3.0900059 2.1762657
2.22219 0.11415445 0.22918257 0.11485819 -0.05165823 -0.35651144 0.073604755 -0.33045572
0.29527062 -0.041613538 -0.09038275 -0.16164243 -0.18699181 -0.079196855 0.94367886 0.8779558
-0.9151184 -0.9928046 0.16002649 1.8859007 0.9553635 -0.5282401 1.089105 1.3550497
1.1844529 0.48442954 0.30861315 0.5095907 1.5270532 -0.009611062 1.3032734 0.3158368
00000000: a9c6 4240 928f cf3f 1f12 f93f 73ed 0540
00000010: 2fc4 0b40 c202 1240 a8c2 4540 f047 0b40
00000020: 5c38 0e40 cfc9 e93d d6ae 6a3e c53a eb3d
00000030: 9597 53bd ab88 b6be 17be 963d 7e31 a9be
00000040: b62d 973e f572 2abd 971a b9bd 9885 25be
00000050: c87a 3fbe f631 a2bd f094 713f b6c1 603f
00000060: 3345 6abf 7128 7ebf fcdd 233e 3265 f13f
00000070: b492 743f be3a 07bf cb67 8b3f 4572 ad3f
00000080: 279c 973f 2607 f83e 8b02 9e3e 8974 023f
00000090: 7b76 c33f b777 1dbc aad1 a63f 5cb5 a13e

linear1.weight f4 [6, 10]
-6.3514867 22.725924 -21.18887 14.431523 11.646933 -3.2644238 -38.171223 13.3221855
19.848204 1.1366695 -4.0103636 0.4750048 -2.8358 9.106114 23.064138 -15.70944
9.717312 -24.396029 8.364354 8.58555 10.0911665 -14.247136 -11.767306 16.219591
-18.814468 -31.026724 19.300926 24.4464 12.404002 -0.54284734 -23.497993 -28.220581
-22.940676 -19.293852 -23.640902 -26.38961 -29.290821 -21.422392 -21.551382 27.365242
-7.8122387 -25.935904 1.4194595 -15.932605 27.71621 18.250154 7.2998257 29.25868
19.533392 24.661587 21.539127 -24.83196 18.964165 28.663347 -24.94716 26.143976
-26.471151 -28.783617 22.49864 26.185005
00000000: 613f cbc0 b1ce b541 ce82 a9c1 85e7 6641
00000010: d659 3a41 52ec 50c0 55af 18c2 ac27 5541
00000020: 1fc9 9e41 637e 913f e654 80c0 d433 f33e
00000030: bf7d 35c0 a5b2 1141 5b83 b841 de59 7bc1
00000040: 1c7a 1b41 112b c3c1 65d4 0541 6a5e 0941
00000050: 6b75 2141 45f4 63c1 e346 3cc1 b9c1 8141
00000060: 0884 96c1 bb36 f8c1 4c68 9a41 3a92 c341
00000070: cb76 4641 0bf8 0abf e4fb bbc1 c0c3 e1c1
00000080: 8186 b7c1 cf59 9ac1 9120 bdc1 ec1d d3c1
00000090: 9a53 eac1 0f61 abc1 3b69 acc1 04ec da41
000000a0: dcfd f9c0 bb7c cfc1 d9b0 b53f f3eb 7ec1
000000b0: ccba dd41 5100 9241 2c98 e940 c711 ea41
000000c0: 6344 9c41 ee4a c541 2250 ac41 dba7 c6c1
000000d0: 9cb6 9741 894e e541 c993 c7c1 dd26 d141
000000e0: ebc4 d3c1 d944 e6c1 37fd b341 e47a d141

linear1.bias f4 [6]
-0.8337694 7.4347467 -22.279188 3.82998 -0.84306896 -1.5808644
00000000: e971 55bf 72e9 ed40 c73b b2c1 641e 7540
00000010: 5ed3 57bf c459 cabf
