LSTM_torch/models/robot_forward/curriculum_PID/vanilla/model_sl_5_bs_64_hs_10_ep_200_tol_1e-06_gm_[-0.744,-0.44]_thd_[-0.01,-0.05].pth (torch, 6327 bytes, 6 tensors)

lstm.weight_ih_l0 f4 [40, 12]
000000 07 9e df bc 72 bf 84 3c 3b 80 ae bc 09 1b d2 3c
       -0.027297033 0.01620457 -0.02130138 0.025647657
000010 4b 24 94 3c 5d a3 6b 3c 08 81 8b bd 92 5a 5f bd
       0.018083712 0.014382211 -0.0681172 -0.054529734
000020 bb cb 14 3d 32 39 bd bd 9f b2 8e bc 9c e4 e2 3b
       0.036327105 -0.09239425 -0.017419158 0.006924225
000030 ae 2e ac 3c e5 c9 4c 3d cd 10 8d bd 7f 89 06 3b
       0.021018352 0.04999723 -0.0688797 0.0020528731
000040 7a 7c 98 bc 0c 98 74 3b e5 22 42 3c 8f af 8e bd
       -0.018614043 0.0037322072 0.01184914 -0.06967079
000050 1e 3a 1d bd 89 03 be 3d 07 86 52 be 07 ba f9 3d
       -0.038385503 0.09278018 -0.2055894 0.12193685
000060 d1 2e 3d bc 2a bd bd bd af 23 69 3d e3 26 f7 3b
       -0.011546806 -0.09264596 0.056918796 0.0075424775
000070 b4 af 4f bc 85 bb 05 3c 68 70 81 bf f8 64 c9 3f
       -0.012676168 0.008162384 -1.0112429 1.5733938
000080 cd 34 af 3f 9b e1 98 3e e4 93 41 3f c2 b9 db 3d
       1.3687989 0.29859623 0.7561629 0.1072879
000090 71 f0 f1 3c 65 be b1 3b bc a9 34 bd 00 93 4d bc
       0.029533597 0.005424308 -0.044107184 -0.012547255
0000a0 d7 90 87 bc 2e 44 ba 3c 5c 82 4e 3c cd 3f 9c bc
       -0.016548557 0.022737589 0.012604322 -0.019073391
0000b0 67 15 da 3d 8b db 9c 3c 3d e7 f7 3d c1 8b c1 bd
       0.106486134 0.019147655 0.12104652 -0.09450484
0000c0 79 41 c0 bb 4a 5d 92 bc 1d 35 1b 3d 5c 21 9f 3c
       -0.00586718 -0.01786675 0.03789245 0.019425087
0000d0 f3 53 d5 3c ac 39 6e bc 05 cd b8 3e cd d5 bd be
       0.026041007 -0.014540117 0.36093917 -0.3707718
0000e0 15 d5 a6 bf 9f 55 ae 3e ff 3c a7 3e 4c bc 1a bc
       -1.3033777 0.340497 0.32663724 -0.009444308
0000f0 10 0a 09 bc 9f 3b 87 3d d2 a3 ab bc c7 79 04 3c
       -0.0083642155 0.06603169 -0.020952139 0.008085675
000100 39 49 10 bc 8c 32 86 3c 6c a8 68 3e 34 49 08 3c
       -0.00880652 0.016381525 0.22720498 0.008318234
000110 69 c0 b1 3e fd 0b 41 3e 99 1b 9b be df be 65 3e
       0.3471711 0.1885223 -0.30294493 0.22436093
000120 29 07 05 3c e0 a8 fe 3b 08 de 44 bd a0 a2 b7 bc
       0.008119383 0.0077715963 -0.048063308 -0.022416413
000130 34 a3 72 bb dd 80 2c bc 50 b3 0d 3f 76 85 ff be
       -0.0037023546 -0.01052877 0.55351734 -0.4990651
000140 3c f8 bd 3e b2 7a 02 3e 2a a5 9c 3e 9c 41 81 bd
       0.3710345 0.12742117 0.3059476 -0.06311342
000150 fd 34 9f bc c4 8e fe bc 7a 13 c4 3d 56 18 ad 39
       -0.019434446 -0.031073935 0.09574027 0.00033015263
000160 86 e7 0b 3b d6 02 2a 3c b1 77 c4 3e 6d 71 73 3f
       0.0021347716 0.010376653 0.38372567 0.9509495
000170 39 c4 20 40 ee 94 24 3f ec f6 90 3e 59 2a b9 bd
       2.5119765 0.6428975 0.28313386 -0.0904128
000180 5a f6 78 3d ca 33 bf 3d 91 df a9 bd c2 d3 fc bc
       0.060781814 0.0933605 -0.08294595 -0.030862693
000190 2f 1f 68 bc 3f e0 b3 3c db 61 20 bf 37 4e 91 3f
       -0.014167591 0.021957515 -0.62649316 1.1351994
0001a0 ab 93 81 3f a4 5f 84 bd 1d 52 8e 3f c2 a1 a4 be
       1.012319 -0.064635545 1.1118809 -0.3215466
0001b0 1b ff 39 bb 7c 95 e9 3c 43 09 c1 bb 60 c1 db bb
       -0.0028380814 0.028513663 -0.0058909967 -0.0067064017
0001c0 06 d2 32 3c 03 6c de ba 29 13 0a bd 7f 78 0c be
       0.010914331 -0.0016969446 -0.03370968 -0.1371784
0001d0 ef 84 4e 3d d7 6e ec bb 85 45 ac 3c 90 3c 37 3d
       0.050419744 -0.0072153616 0.021029243 0.04473549
0001e0 b4 da c8 bc 26 29 b0 3d 3f d2 9a bc 29 02 30 3d
       -0.024518348 0.086015984 -0.018899081 0.04297081
0001f0 0d a6 ab bc 49 89 7e 3b d3 9f ed 3c 49 9c 87 3d
       -0.020953203 0.0038839153 0.029006874 0.06621606
000200 9c 54 a3 bd c0 6b 18 3e 1a 5a 54 3d f7 ab 4e 3d
       -0.07975122 0.14884853 0.05184374 0.050456967
000210 92 5d a2 bc 74 99 82 bb 0a 4c a8 bc cd bc f6 bb
       -0.019820008 -0.003985578 -0.02054407 -0.007529831
000220 80 e2 e3 3c 42 f0 83 3c 57 20 b0 bc 97 8c c4 bb
       0.027817965 0.016105775 -0.021499796 -0.005998205
000230 8f 71 70 3c 28 06 c7 bc 3e 45 bd 3c c0 8b 53 bc
       0.014675512 -0.024294928 0.023104306 -0.012911737
000240 b1 74 0d bb 05 1a 79 bb 90 e9 fd 3a 53 47 24 ba
       -0.0021584446 -0.0038009894 0.0019371975 -0.00062667317
000250 17 0d e0 ba ec 11 bf bb 4b 52 0d bb a6 6e 31 3c
       -0.0017093745 -0.005830994 -0.0021563943 0.010829603
000260 66 c3 8b 3c 82 04 d6 ba 04 f3 1d 3c 69 8a 5e 3c
       0.017060947 -0.0016328248 0.009640459 0.013582804
000270 60 7f cb 3c 33 4b 76 bc ef 9d 23 bc 38 6d 4d bb
       0.02484101 -0.015032577 -0.009986385 -0.0031345617
000280 32 74 61 bc 1a 17 35 3c aa c9 3d 3d b3 2f 36 3b
       -0.013760613 0.011052871 0.0463349 0.0027799427
000290 6c ad 48 bc 25 0f 21 bd 8e 9d e1 bd fd f8 02 3e
       -0.012248378 -0.039321084 -0.11016379 0.12790294
0002a0 c2 08 94 3c 18 4d b1 bb 16 ec 9a b9 9e 20 f3 3b
       0.018070582 -0.0054108016 -0.00029549067 0.0074196598
0002b0 90 11 8f 3c 48 c9 fd bb b8 c6 94 bc 86 a2 10 3c
       0.01746443 -0.007744942 -0.018161163 0.008827811
0002c0 cd 77 a3 3c c8 87 d0 bc 74 bd 50 3b 0a 3d a9 3c
       0.019954586 -0.02545537 0.0031851204 0.020658989
0002d0 7c 23 8c ba 5a df e8 3b 27 51 73 bc c8 c6 f5 bb
       -0.0010691728 0.0071067037 -0.014850891 -0.007500503
0002e0 de 50 eb 3b a7 0f 56 bc 08 70 98 bc 56 d2 34 3c
       0.007181271 -0.013065255 -0.018608108 0.011036476
0002f0 47 f8 a5 bc d9 c2 11 bc a3 a5 8b 3c e8 e9 5d bc
       -0.02025999 -0.008896553 0.017046755 -0.013544537
000300 85 75 a0 bb 6c 30 59 3c 70 6f 3b 3c e1 b7 5b 3b
       -0.004896822 0.013256174 0.011440143 0.0033526348
000310 c4 4b a8 bb 1a 07 3e 3b 68 1b 0d bc ba 8c 6a 3d
       -0.005135985 0.0028995932 -0.008612491 0.057263114
000320 f1 3f 96 3c f9 8b 4e ba a7 a6 f2 bc e0 a2 1c 3c
       0.018341037 -0.0007879134 -0.029620482 0.009560317
000330 34 fa 91 bb 8a 24 3b 3c de 8e 00 bc 6b 95 9f 3c
       -0.0044548754 0.011422286 -0.007846562 0.019480428
000340 51 2e 1d bc f6 0c 21 bc 43 8e 28 3e fe 0c 81 bd
       -0.009593562 -0.00982975 0.16460519 -0.06301306
000350 91 ed 46 3d cf 2f 9f 3d fd 6b a1 bc 4a f7 b3 3d
       0.048566405 0.07772791 -0.019704813 0.08787401
000360 c1 8e c4 bd 6b ea 64 bc 6c 59 f1 3c d9 0c 75 bd
       -0.09597541 -0.013971905 0.029461585 -0.059826706
000370 e2 44 01 be e1 92 68 3d 07 9c ef ba a9 e3 d5 3b
       -0.12623933 0.0567807 -0.0018280753 0.0065273833
000380 cc 1f 33 3b 7a 73 b3 3b 2b 08 89 3c a8 a5 74 bb
       0.0027332185 0.0054764124 0.016727528 -0.0037330184
000390 3a 7d fa 3a a4 3b 92 bc bb 66 e5 3b 48 56 54 3b
       0.0019110807 -0.017850704 0.007000772 0.003240006
0003a0 e9 5b 54 bc bf 1e 24 bb eb f1 7b bd e1 62 d5 3c
       -0.012961366 -0.002504274 -0.061510008 0.026048126
0003b0 09 5a 75 3d 82 09 a2 bc 4c 78 69 3c 2f 0c aa 3d
       0.059900317 -0.019779924 0.014249872 0.08303105
0003c0 b8 9c af be de a7 a8 3f 49 6f 90 bf 82 53 c4 3e
       -0.34299254 1.3176229 -1.1283962 0.3834496
0003d0 92 c4 66 3e 43 b2 f6 3d b2 b9 7d bc 5e d4 80 bd
       0.22535923 0.120457195 -0.015486168 -0.06290506
0003e0 07 cd e7 3e 72 12 f7 bd 4d 5a df be 85 ba a7 bd
       0.4527361 -0.12064065 -0.43623582 -0.08189873
0003f0 f6 5f 0c 3f 65 41 c8 be 88 e6 a8 3f 0d 18 0c 3f
       0.54833925 -0.39112392 1.3195353 0.547242

lstm.weight_hh_l0 f4 [40, 10]
000000 25 f8 7b c0 4f f2 81 bd e0 d2 66 3d 8b bb 61 bf
       -3.9370205 -0.06345045 0.05635345 -0.8817679
000010 28 44 a2 bd 4a b2 fc bd f9 17 52 3f bd e8 b0 3e
       -0.07923156 -0.123386934 0.8206783 0.34552565
000020 2b a8 82 3d 36 ac 5d 3f 97 29 ee 3f ec b6 99 c0
       0.06379732 0.865909 1.8606442 -4.8035793
000030 de 72 27 be 2d e1 01 3f 65 dc 7a bd a8 a7 67 3f
       -0.16352412 0.50734216 -0.06124534 0.904902
000040 54 ef 3b 3f 10 61 53 3b ae 17 66 3e 96 cb 11 3f
       0.7341206 0.0032253899 0.2246997 0.5695127
000050 12 a8 e2 40 90 94 02 bf 58 b8 16 c0 ef 6f e1 c0
       7.0830164 -0.5100794 -2.3550014 -7.044914
000060 eb 43 33 3d 4a 6d 35 3f 53 ff 55 40 ad 31 7e 3e
       0.043765943 0.70869887 3.3437088 0.24823637
000070 9f 4b b2 3d d3 d9 8c 40 46 12 46 3f 21 3b c7 3d
       0.0870583 4.40159 0.77371633 0.09728075
000080 52 19 99 be a9 37 51 40 25 a2 3c 3e b4 3a aa bd
       -0.2990213 3.2690222 0.18421228 -0.08311978
000090 cd e8 06 3d a6 51 75 3f ad 78 0c 3c 74 ea bf 3d
       0.03293686 0.9582771 0.008573693 0.0937089
0000a0 eb c7 d1 3f 52 87 b3 bf 04 8d b8 bf ad 86 b0 c0
       1.6389135 -1.4025671 -1.4418035 -5.51644
0000b0 68 e2 54 c0 7c b5 cb 3f 27 77 d2 3f b5 0c e0 3f
       -3.3263187 1.591476 1.6442612 1.7503878
0000c0 41 94 a1 c0 4a db 03 40 9e f6 94 bf fe 3b bb 3d
       -5.0493474 2.0602593 -1.1637762 0.09142302
0000d0 bd ed 5b 3e b0 29 28 3f 26 8d 14 3e 8d 0a 46 c0
       0.21477409 0.6568861 0.14506969 -3.094394
0000e0 ca c3 2b 3f ce 33 9c bf 62 0a e3 bd 21 b8 be 3f
       0.67095625 -1.220331 -0.11085965 1.4899942
0000f0 b2 8a 11 3f d2 c9 4e 3f 1a b9 e6 3e cb 43 13 3f
       0.5685226 0.80776703 0.45063096 0.5752532
000100 71 11 29 be ec 40 c0 3e ec 39 1e c0 4a c8 81 3e
       -0.1651056 0.3754953 -2.4722853 0.2534812
000110 7c 02 15 be 7d 90 90 bf a2 34 ca 40 81 d0 cc bf
       -0.14551729 -1.1294094 6.318925 -1.600113
000120 ff 79 74 c0 2e 58 e3 c0 08 cd 2a be 16 9a 2e 40
       -3.819946 -7.104514 -0.16679776 2.7281547
000130 0a 7b 0b 40 8f 92 09 40 72 bd c4 be a1 15 82 40
       2.1793847 2.1495702 -0.38425785 4.0651402
000140 74 ad c7 3f f2 ec f8 bd 6d 0a b9 bf f3 b1 49 bf
       1.5599809 -0.12154569 -1.4456307 -0.78787154
000150 f5 a9 e2 bf 77 a5 cf bf 87 1f 6a bf bf c8 a0 3f
       -1.7708117 -1.6222371 -0.91454357 1.2561263
000160 51 e9 98 bc 0a 5b 8c 3e 0e 5d 36 3f 95 f6 ab 3d
       -0.018665941 0.27413207 0.7123574 0.08396641
000170 2f 4b 1c be 34 77 38 3e 0a c5 84 bd d7 ed 94 3e
       -0.15263055 0.18014222 -0.06482895 0.29087707
000180 cf 6a a5 3e ae 13 01 bf 92 de d4 bd ea 75 c2 3f
       0.3230805 -0.50420654 -0.103940144 1.5192235
000190 31 f0 2c 3f e0 39 cf 3d e8 72 2f bc 5c a5 19 3e
       0.67554003 0.10118461 -0.010708548 0.15004486
0001a0 7c a7 85 3c df a3 c4 3b 54 91 99 3f e0 0e 40 3e
       0.016315214 0.0060009803 1.1997476 0.18755674
0001b0 80 9a c4 3d 07 bf 2e be 42 c7 d2 be 9d b3 62 bf
       0.09599781 -0.17065059 -0.41167647 -0.8855532
0001c0 e5 0f d1 3b a1 71 b8 bc 12 38 a1 3c 6a 27 c6 bd
       0.0063800686 -0.02251512 0.019680057 -0.096754864
0001d0 a5 6a 20 be db d9 62 bd 8c 56 8a bc d8 14 12 3f
       -0.15665682 -0.055383544 -0.016886972 0.57063055
0001e0 ee 86 ab 3d 14 87 01 bc 93 cf b9 3d a2 9d 1b be
       0.08375345 -0.00790574 0.09072795 -0.15196851
0001f0 e3 35 4d bc 90 ba 9d 3c 86 f1 0f bc c6 d9 a5 bd
       -0.012525055 0.019253999 -0.008785611 -0.080981776
000200 b2 79 2f bc db 98 6a bd 84 03 9f bd 12 a8 0f 3d
       -0.010710167 -0.05727468 -0.077643424 0.035072394
000210 c3 a8 a9 bd 35 17 29 bd 54 5e 27 bd 46 cb b3 3d
       -0.08284142 -0.041281898 -0.040861443 0.08779006
000220 6e 60 81 bd ad 54 d2 3e 94 67 29 bd 22 53 be be
       -0.06317221 0.41080227 -0.041358545 -0.371728
000230 62 23 47 3e 51 37 8b bc 2e 64 00 bd a3 10 2d bc
       0.19447091 -0.01699415 -0.03134554 -0.0105630485
000240 de c5 a2 bf 19 0a 20 3d 12 bd 01 bd 3c a1 80 3d
       -1.2716634 0.03907213 -0.031674452 0.06280753
000250 4e aa a2 3f ab 01 bc 3d 33 63 25 3e 1a 0c 9c 3b
       1.2708223 0.09180006 0.16151123 0.004762185
000260 9d 2a 21 be 85 ea 9d bd 3d 00 04 bc 32 d7 6c 3f
       -0.15738912 -0.07710747 -0.008056697 0.9251586
000270 93 f3 71 3d 68 3c 50 bd bb a8 db 3c 73 1e f6 bc
       0.05907018 -0.050838858 0.026813855 -0.030043816
000280 06 f3 dd 3e 6e a5 92 bd 91 53 c0 bd 75 16 d6 bd
       0.43349475 -0.071604595 -0.09390939 -0.10453502
000290 b4 9d 61 3c 84 2e ab 3d 06 1e 82 3f cf ad 11 be
       0.0137705095 0.083584815 1.0165412 -0.14226459
0002a0 d5 27 c3 3c 88 7c 5c 3e 18 37 a2 3f d7 e4 f4 be
       0.023822704 0.2153188 1.2673063 -0.4783084
0002b0 d9 67 4c be ce df a2 bf fe 5d 37 bf 46 e8 0d 3f
       -0.1996149 -1.272455 -0.71627796 0.55432546
0002c0 76 a3 a2 3f ac ee b4 3e 53 92 01 bf 1b 4e 8b 3f
       1.2706134 0.35338342 -0.506139 1.0883211
0002d0 7b 0c 2d bd 5b 9e 93 bc 06 f8 c3 bc 5a aa 00 be
       -0.04224823 -0.018019846 -0.023921978 -0.12564984
0002e0 09 48 5e 3f 1a 6b a2 bd 89 fa 1a 3e 9c 12 02 be
       0.86828667 -0.07930584 0.15134634 -0.12702411
0002f0 c5 fe a2 bf 74 6e a6 bc 23 54 2f 3d 0d 98 69 be
       -1.2734 -0.02031634 0.04280485 -0.22811909
000300 40 44 b9 3d e5 44 15 3e ae 4a 31 3d 1d c7 30 3e
       0.09046221 0.14577062 0.04328411 0.17263456
000310 f9 08 a0 bd 59 d7 37 3d 35 35 5a 3d 77 18 b8 bd
       -0.078142114 0.044883106 0.0532734 -0.08989041
000320 0e 80 56 b8 85 19 ab b5 70 4b 42 38 d3 9d 84 b7
       -5.1140836e-05 -1.274792e-06 4.632346e-05 -1.5809119e-05
000330 31 d7 99 39 d3 7f 15 b8 0c ee 94 39 10 3c 8c 39
       0.00029342764 -3.5643414e-05 0.00028406119 0.0002674763
000340 a7 73 97 37 25 59 0e b9 d6 8b 00 b9 57 6c 03 3a
       1.8054458e-05 -0.00013575384 -0.00012259124 0.00050133973
000350 af 0a 39 b9 95 18 b6 b9 be 1f d2 39 24 48 15 3a
       -0.00017646955 -0.0003473206 0.0004007797 0.0005694649
000360 33 0d 46 b9 77 9d b7 b9 51 8c d4 b9 97 3a 31 38
       -0.00018887669 -0.000350218 -0.00040540335 4.2254655e-05
000370 84 77 93 b9 21 d3 e6 39 5d 57 44 be d3 5f c7 39
       -0.0002812707 0.00044026322 -0.19173951 0.00038027632
000380 b0 46 47 38 86 f7 96 bc a4 1f 11 ba ed 24 24 b8
       4.751113e-05 -0.018428575 -0.0005536026 -3.9135037e-05
000390 80 bf ab 3a 29 06 be 39 9a d6 88 b8 28 01 1d b7
       0.0013103336 0.00036244214 -6.524958e-05 -9.358198e-06
0003a0 33 92 3a 39 f9 d6 2e 38 b6 73 1c 39 41 2b fe b8
       0.00017792806 4.168504e-05 0.00014920425 -0.000121197205
0003b0 4f 54 0f b9 53 88 8d 39 96 b2 10 b8 43 76 65 39
       -0.0001366895 0.00026995185 -3.4498597e-05 0.00021883198
0003c0 91 e7 c2 b8 17 97 b3 b8 91 2a 19 ba dc f4 db 38
       -9.2937735e-05 -8.563528e-05 -0.00058428297 0.000104883424
0003d0 97 0d c9 b8 af 94 8d b8 ac 0a bf 38 63 b6 d9 38
       -9.586958e-05 -6.7510984e-05 9.1095775e-05 0.000103813385
0003e0 a6 a4 5a b9 54 92 14 39 9e 7e 7f 3a 93 c0 0b ba
       -0.00020851436 0.00014168891 0.00097463455 -0.0005331125
0003f0 51 0b 10 bb 7e a4 a6 b9 8c dd af 3a ec d0 b2 ba
       -0.0021979401 -0.00031784544 0.0013417467 -0.0013642586

lstm.bias_ih_l0 f4 [40]
000000 f8 1a b7 be 5c 6e b1 3e b7 2e aa 3e 17 05 da be
       -0.35762763 0.3465451 0.33238766 -0.42582008
000010 14 57 db 3e c6 e3 c7 3f cc a2 cd 3f 07 93 35 3d
       0.42839873 1.5616386 1.6065307 0.04432967
000020 d0 4e 36 40 ef 9f 98 bc 8a 0e 9a be 5b 52 19 bf
       2.8485603 -0.01863095 -0.30089217 -0.5989129
000030 11 a0 e1 3d 67 d3 24 bc d1 d7 0b 3f fb 36 b6 be
       0.11016858 -0.010060168 0.54626185 -0.35588822
000040 5b 23 ec be fe 19 23 3f 0a 00 6b 3e 96 3b 30 3e
       -0.46120724 0.63711536 0.22949234 0.1721023
000050 5d d4 93 bf 76 99 1c 3f 23 7a c6 3c 19 ea 77 3f
       -1.1549183 0.6117166 0.024228161 0.9684158
000060 e1 bd 95 bf 34 1f 87 3d 41 a8 2d 3e 28 cc 87 3e
       -1.1698571 0.065977484 0.16958715 0.26522946
000070 3e 58 c0 bf 1f f3 36 be d4 28 c9 be 71 9f 8b bd
       -1.5026929 -0.17866181 -0.39288962 -0.068175204
000080 97 b4 0a 40 c8 af 2a bf 13 b9 07 3f 42 76 e2 3f
       2.1672723 -0.6667447 0.53016776 1.769234
000090 5d 4f 14 3f 98 3e 29 40 7a 53 3c 3f 34 c4 24 3f
       0.579336 2.6444454 0.73564875 0.6436188

lstm.bias_hh_l0 f4 [40]
000000 b1 eb e8 be 70 10 04 3f 07 c1 d2 3e 45 57 1f be
       -0.45492318 0.5158758 0.41162893 -0.15560634
000010 ab cb 07 be 5c 6d b4 3f f5 9d c7 3f 1a b3 0b bd
       -0.13261287 1.4095874 1.559508 -0.03410635
000020 5c d0 2a 40 b8 96 a4 bd 50 d9 49 be 4e 7d 2c bf
       2.6689672 -0.0803656 -0.19711804 -0.673787
000030 13 e3 aa 3e 07 2a 9f be 42 ef c0 3e 9e e5 14 be
       0.3337637 -0.31086752 0.3768254 -0.14540717
000040 e0 cc a3 3d b6 23 23 3f ea fb a5 3c 7c 4e 00 3f
       0.07998061 0.63726366 0.020261724 0.5011976
000050 a1 1e 9d bf e5 5e ad 3e bf df 89 bc 23 16 29 3f
       -1.2274972 0.3386146 -0.016830323 0.660494
000060 cd 25 8b bf 9c d7 2f 3e 9c ad b6 bc 20 77 68 be
       -1.0870911 0.17172092 -0.02229958 -0.22701693
000070 7e c8 02 c0 4b 0e 7f 3d 26 69 0d bf ea 6f 43 3e
       -2.043487 0.06226949 -0.5523857 0.1908566
000080 7a 2f 1a 40 e6 66 35 bf 61 ed 1c 3f 31 76 d4 3f
       2.4091477 -0.70860136 0.6129971 1.6598569
000090 3b 45 80 3f db 0c 34 40 a1 8b 57 3f de 58 29 3f
       1.0021127 2.8132846 0.8419743 0.66151226

linear1.weight f4 [6, 10]
000000 8b 83 83 c1 be 0c a5 41 82 60 fb 41 54 7a d2 c1
       -16.43923 20.631222 31.422123 -26.30973
000010 63 74 b0 41 4f 37 3a 40 a6 bb 8b 41 69 a0 d2 c1
       22.05683 2.9096258 17.466625 -26.328325
000020 b1 c8 8e c1 49 7d f0 41 58 b7 3a 41 8b 39 87 40
       -17.847994 30.061174 11.669762 4.2257743
000030 81 eb e9 41 7b 3c a6 3f 17 75 b1 bd 16 93 19 c0
       29.239992 1.2987207 -0.08664911 -2.3996024
000040 b6 06 b9 c1 3f 8e 94 41 3f 4f ba be 79 67 14 41
       -23.128277 18.569456 -0.36388585 9.275262
000050 f9 2a 8b c1 8c 65 d1 41 ed 80 92 41 0b cf ec 41
       -17.395983 26.174583 18.312952 29.601095
000060 a5 f0 89 c0 66 b6 1c 42 2b 30 66 3f d8 16 82 41
       -4.3106256 39.178123 0.8991725 16.261154
000070 bc b7 5a 40 b2 84 2f c1 f9 32 1c 42 f4 8c a6 41
       3.4174643 -10.969896 39.049778 20.818825
000080 90 03 c8 c1 b1 59 1b 41 3e 5d c1 41 05 87 b0 41
       -25.00174 9.709397 24.170528 22.065928
000090 0a e7 1c c2 fc 39 15 c2 6b f4 b0 c1 df dc b4 3f
       -39.225624 -37.306625 -22.119345 1.4129905
0000a0 9b 84 75 41 a1 b2 ce c1 ca e1 9b 41 0e 30 b6 41
       15.344874 -25.837221 19.485249 22.773464
0000b0 d8 5c d6 41 49 b1 15 c0 5a b7 e0 41 3f c3 f0 40
       26.795334 -2.3389456 28.089527 7.5238338
0000c0 a4 d0 bf c1 49 73 d6 c1 90 eb af 41 b3 8f d8 c1
       -23.976875 -26.806292 21.99002 -27.070166
0000d0 5b be 1b 42 52 71 13 c2 25 d0 a6 c1 1e 4b ec 41
       38.935894 -36.860664 -20.851633 29.536678
0000e0 55 90 2d c0 6c e1 09 c2 fe 86 90 41 fb 52 10 c2
       -2.7119343 -34.47014 18.065914 -36.081036

linear1.bias f4 [6]
000000 79 90 c6 3e 3d 77 96 40 84 d2 b9 c1 0a f2 a0 40
       0.387821 4.7020555 -23.22779 5.029546
000010 da fa 3a 3f 00 9b 8c c0
       0.7303902 -4.393921
