LSTM_torch/models/pHdata/curriculum_exp/vanilla/model_sl_10_bs_64_hs_5_ep_100_tim_0.666_gm_[1,1]_thd_[0.2,0.8].pth (torch, 2870 bytes, 5 tensors)

lstm.weight_ih_l0 f4 [20, 2]
0	0x3dfa87d9	0.12232942
1	0x3c4df24c	0.012569975
2	0x3d1565fa	0.036474206
3	0xbe3c72db	-0.18403189
4	0x3e1aa9ec	0.15103883
5	0x3ca3b1a8	0.019982174
6	0x3e9caf33	0.30602416
7	0xbdf732ff	-0.120702736
8	0x3e87ee62	0.2654906
9	0xbe8ad484	-0.27115262
10	0x3d3c5559	0.04597983
11	0x3c360ab4	0.01111095
12	0x3cca66bf	0.024707196
13	0xbd47b7ff	-0.048759457
14	0x3d435cff	0.04769611
15	0x3d440061	0.047851924
16	0x3d375c09	0.044765506
17	0x3cf26bc4	0.029592402
18	0x3d45cb07	0.048289325
19	0x3d41fc40	0.047359705
20	0x3e98bf33	0.29833373
21	0x3d6816f6	0.056662522
22	0x3ef9bdb8	0.48777556
23	0x3e92afbb	0.28649697
24	0xbeb58e11	-0.3545995
25	0xbcccf224	-0.025017805
26	0x3e8814d8	0.26578403
27	0x3e350020	0.17675829
28	0xbea099ee	-0.3136744
29	0xbd952921	-0.07283235
30	0x3e58ac0c	0.2115938
31	0x3e67eeaa	0.22649637
32	0x3e533664	0.20626217
33	0xbe783936	-0.24240574
34	0x3e7acbe5	0.24491842
35	0xbd005e3c	-0.03133987
36	0x3e2c2e43	0.16814522
37	0x3e741424	0.23835808
38	0x3e1e45c7	0.15456305
39	0x3e7b5094	0.24542457

lstm.weight_hh_l0 f4 [20, 5]
0	0x3d0857c3	0.03328682
1	0xbc5ea269	-0.013588526
2	0xbd56925b	-0.05238567
3	0x3ce58ad3	0.028020298
4	0xbd2b33c4	-0.041797414
5	0x3e9d1c2e	0.30685562
6	0xbcad9ddc	-0.021193437
7	0xbc9166e7	-0.017749263
8	0x3d14d322	0.036334164
9	0xbd18ee58	-0.037336677
10	0x3d657675	0.056021173
11	0xbc8c16d2	-0.017100725
12	0xbd8fcf15	-0.0702192
13	0x3d552109	0.052033458
14	0xbd81f04f	-0.06344663
15	0x3ab74f9b	0.0013985516
16	0xbd07476c	-0.033027098
17	0xbc569f67	-0.013099528
18	0xbb3b972a	-0.0028624036
19	0xbc1cff7b	-0.009582396
20	0x3e9dd06e	0.30823082
21	0xbb9f6c50	-0.004865207
22	0xbd9e5646	-0.07731299
23	0x3e9a8410	0.3017888
24	0xbd814da5	-0.06313638
25	0x3cb2d29b	0.02182894
26	0x3cb2ec25	0.021841118
27	0xbd1a8933	-0.0377285
28	0x3d41f961	0.047356967
29	0xbcd3026e	-0.025757995
30	0x3ce70126	0.02819879
31	0xbb658d14	-0.0035026716
32	0xbcae7e8d	-0.021300578
33	0x3d322486	0.043491863
34	0xbd2f8fa2	-0.04286159
35	0x3d31935c	0.043353423
36	0x3d18ad10	0.03727442
37	0xbd3b6f40	-0.045760393
38	0x3d2aa3f9	0.041660283
39	0xbd22cfe4	-0.03974904
40	0x3d03dd50	0.032193482
41	0x3d189579	0.037251923
42	0xbd2588fa	-0.040413834
43	0x3d08471c	0.03327094
44	0xbd312356	-0.04324659
45	0x3d3ed32e	0.046588115
46	0x3d2052a0	0.039141297
47	0xbd4395c9	-0.047750268
48	0x3d3ebf6c	0.046569273
49	0xbceef114	-0.02916769
50	0x39fd1e4d	0.00048278496
51	0x3a25f8fc	0.0006331352
52	0x3a335494	0.0006840911
53	0x3a4b1618	0.00077471277
54	0x39cad6d9	0.00038688516
55	0xba3264a6	-0.0006805159
56	0x3a70239e	0.0009160581
57	0x3a202438	0.00061089126
58	0x39cfcfb0	0.00039636856
59	0xba1a611b	-0.00058891036
60	0xbda4cdb3	-0.080470465
61	0x396272fe	0.00021595877
62	0x3a24559d	0.0006268861
63	0xb984aac2	-0.00025304226
64	0xb9c93d2a	-0.00038383278
65	0xba01099e	-0.00049223925
66	0xbc9b44de	-0.018953737
67	0xba97557f	-0.0011545866
68	0x3d7e6dca	0.06211642
69	0xb9fa513a	-0.00047744234
70	0x3d4bb632	0.049734302
71	0x3a15ac82	0.00057096046
72	0x3a28680c	0.00064241956
73	0xb99dfc1e	-0.00030133215
74	0xba1bf59a	-0.0005949378
75	0x3d690b93	0.056895804
76	0xbb7f1b31	-0.003892612
77	0xbd95bc44	-0.073112994
78	0x3d635972	0.055505224
79	0xbd8a4ea5	-0.067532815
80	0x3d58c69b	0.05292378
81	0xbd169395	-0.03676184
82	0xbd45ea9c	-0.048319444
83	0x3e71c56c	0.23610467
84	0xbe736ab8	-0.23771179
85	0x3e7242b9	0.23658265
86	0x3e7b27e4	0.24526936
87	0xbe7b77f5	-0.24557479
88	0x3d815ce8	0.063165486
89	0xbe37ff09	-0.17968382
90	0x3e6eacca	0.23308101
91	0xbc23e07c	-0.010002252
92	0xbd76193e	-0.060082667
93	0x3d356576	0.044286214
94	0xbe67e816	-0.22647128
95	0x3e741f89	0.23840155
96	0x3e6fd452	0.23420838
97	0xbd73a20e	-0.05948072
98	0x3e760498	0.2402519
99	0xbd673e8e	-0.05645614

lstm.bias_ih_l0 f4 [20]
0	0x3e267b8d	0.16258068
1	0xbda938de	-0.082628
2	0xbd6e74b1	-0.058216754
3	0x3dfe32ed	0.12412057
4	0xbe44476d	-0.19167872
5	0xbd92de43	-0.07171299
6	0x3e46058d	0.19338055
7	0x3e08fd4d	0.13377877
8	0x3e0949d5	0.13407071
9	0xbda620b3	-0.08111706
10	0xbc3486c2	-0.011018457
11	0x3e8640c4	0.26221287
12	0x3e505c8e	0.20347807
13	0x3de12b27	0.10994559
14	0x3d028316	0.031863295
15	0xbe182429	-0.14857544
16	0x3de8b8fb	0.11363407
17	0x3e803931	0.25043634
18	0xbda0bc6f	-0.07848441
19	0x3e67db7a	0.22642317

lstm.bias_hh_l0 f4 [20]
0	0x3e102d22	0.14079717
1	0x3ec83c3f	0.39108464
2	0x3ebb2509	0.36551693
3	0x3df66d53	0.12032571
4	0xbdeec6c5	-0.11659006
5	0x3dec57d5	0.1154019
6	0xbe144dd5	-0.14482816
7	0xbdacc8ac	-0.084367126
8	0xbdd10d9b	-0.10207673
9	0x3d99b772	0.075056925
10	0xbc3307a6	-0.0109271165
11	0x3e85d897	0.26141807
12	0x3e5a6a68	0.21329653
13	0x3de08f25	0.10964803
14	0x3d05d2d7	0.032671776
15	0x3ec781e4	0.38966286
16	0x3e07f4c6	0.13276967
17	0xbc048595	-0.008088489
18	0x3ea63f6c	0.32470262
19	0x3ca7c36f	0.020478932

linear1.weight f4 [1, 5]
0	0x3f49ab0d	0.7877663
1	0x3f8c3f52	1.0956824
2	0xbf6a0cad	-0.9142559
3	0x3f5df169	0.8669649
4	0xbf51ba86	-0.8192524
