LSTM_torch/models/pHdata/curriculum_balance/vanilla/model_sl_5_bs_64_hs_5_ep_100_tol_1e-06_gm_[6.59,0.936]_thd_[0.01,0.05].pth (torch, 2974 bytes, 5 tensors)

lstm.weight_ih_l0 f4 [20, 2]
0.35226732 -0.072051734 0.3504716 0.17620088 0.18407261 0.35018927 -0.23014069 -0.34476992
0.14282407 -0.32205638 0.10366875 -0.0015255056 0.055160433 0.015956795 0.17052455 -0.019894227
0.27535105 0.25227225 0.16851096 0.15507859 -0.20383559 0.22199006 -0.2663943 0.03085984
0.6645882 0.10943466 0.6493921 0.2121207 0.21269386 -0.05972456 0.43083462 0.23907444
0.3242896 0.30311063 0.374129 0.43110505 0.4339899 0.46073595 0.1520663 0.23970579
00000000: 625c b43e dc8f 93bd 0371 b33e 016e 343e
00000010: 887d 3c3e 024c b33e 00aa 6bbe af85 b0be
00000020: 7940 123e 93e4 a4be 4850 d43d 79f3 c7ba
00000030: e8ef 613d d3b7 823c fd9d 2e3e 38f9 a2bc
00000040: d0fa 8c3e d429 813e 238e 2c3e eccc 1e3e
00000050: 47ba 50be 5d51 633e d564 88be c6cd fc3c
00000060: 7422 2a3f 471f e03d 903e 263f 2b36 593e
00000070: 6bcc 593e bda1 74bd 5b96 dc3e eecf 743e
00000080: 4909 a63e 5131 9b3e d68d bf3e cdb9 dc3e
00000090: ed33 de3e 95e5 eb3e 45b7 1b3e 6f75 753e

lstm.weight_hh_l0 f4 [20, 5]
0.20992525 -0.13762565 0.34631687 0.58771175 0.46774504 -0.23917389 -0.3561547 -0.02661964
0.370708 0.35530996 -0.35381162 -0.35192627 0.34910333 0.34674954 0.35009465 -0.42755005
-0.34908256 0.3968517 0.3762531 0.38035077 0.102072224 -0.3470902 0.29192802 0.34903023
0.1983455 -0.28637764 -0.4572269 0.45719463 0.4548661 0.46595037 -0.46966144 -0.45789388
0.09447356 0.48047963 0.45520762 0.0072953864 -0.13541263 0.15547639 0.46781063 0.45257545
-0.46415254 -0.38451076 0.46578 0.45682147 0.4603759 -0.052104987 -0.36743343 0.06240626
0.45852184 0.46049994 0.009745259 0.0453333 -0.010078599 -0.019238861 0.009370193 -0.007925182
0.12559628 -0.045368284 0.007932799 -0.010338258 0.0047106026 0.120594285 -0.1277813 0.008234488
-0.025412515 -0.010396703 0.0076025585 0.07059845 -0.1002764 -0.079831555 -0.03634776 -0.032905202
-0.007907002 -0.0047714775 0.009702305 -0.43197402 -0.42766884 0.45927465 0.46022823 0.4595549
-0.43223527 -0.42815083 0.45804945 0.4435793 0.4347968 -0.45761538 -0.4504504 0.4574382
0.4610326 0.46118712 -0.4506255 -0.4418297 -0.41599613 -0.41798195 -0.42275715 -0.4412542
-0.45828786 0.44340894 0.43295404 0.44589028
00000000: a5f6 563e bded 0cbe 7250 b13e 4774 163f
00000010: 477c ef3e 00ea 74be e959 b6be 6e11 dabc
00000020: 70cd bd3e 30eb b53e cc26 b5be ae2f b4be
00000030: acbd b23e 2889 b13e 9b3f b33e d7e7 dabe
00000040: f3ba b2be 2530 cb3e 3fa4 c03e 56bd c23e
00000050: 3e0b d13d cfb5 b1be 9777 953e 17b4 b23e
00000060: 151b 4b3e 17a0 92be a519 eabe 6a15 ea3e
00000070: 36e4 e83e 0c91 ee3e 7777 f0be 1171 eabe
00000080: 5b7b c13d 6d01 f63e f910 e93e 230e ef3b
00000090: 9ca9 0abe 3435 1f3e e084 ef3e f8b7 e73e
000000a0: 67a5 edbe 98de c4be b77a ee3e 81e4 e93e
000000b0: 64b6 eb3e 0a6c 55bd 3c20 bcbe b59d 7f3d
000000c0: 60c3 ea3e a6c6 eb3e 94aa 1f3c 69af 393d
000000d0: b520 25bc d19a 9dbc 7085 193c 9fd8 01bc
000000e0: 509c 003e 18d4 39bd 92f8 013c cc61 29bc
000000f0: 665b 9a3b 23fa f63d 1ad9 02be f2e9 063c
00000100: e82d d0bc ef56 2abc e21e f93b ec95 903d
00000110: b75d cdbd ba7e a3bd 64e1 14bd 9bc7 06bd
00000120: 5f8c 01bc 0e5a 9cbb 6bf6 1e3c b32b ddbe
00000130: 69f7 dabe 0c26 eb3e 09a3 eb3e c84a eb3e
00000140: f14d ddbe 9636 dbbe 7585 ea3e d31c e33e
00000150: b09d de3e 904c eabe 6fa1 e6be 5735 ea3e
00000160: 770c ec3e b820 ec3e 63b8 e6be 8137 e2be
00000170: 72fd d4be bb01 d6be a073 d8be 12ec e1be
00000180: b5a4 eabe 7f06 e33e 27ac dd3e bb4b e43e

lstm.bias_ih_l0 f4 [20]
0.18226327 0.36927402 -0.09113322 0.061703905 0.3995541 0.42030546 0.31286842 0.00081363413
0.5228197 0.25788233 -0.3681338 0.16917156 0.56574965 0.17628653 0.25013664 0.1239365
-0.2853526 0.15876578 0.58466923 0.5110758
00000000: 39a3 3a3e 7c11 bd3e 0ea4 babd 3cbd 7c3d
00000010: 5b92 cc3e 4732 d73e 4a30 a03e 104a 553a
00000020: 83d7 053f 2709 843e 097c bcbe 4f3b 2d3e
00000030: f8d4 103f 7584 343e e911 803e 6bd2 fd3d
00000040: bc19 92be 7f93 223e e2ac 153f ddd5 023f

lstm.bias_hh_l0 f4 [20]
0.118038446 -0.022162383 0.52398384 0.5975255 -0.034819268 -0.24790376 0.044395026 0.4603367
-0.0828265 0.2020384 -0.14754598 -0.06782815 0.24051458 0.54874796 0.1916567 0.33482477
-0.17589858 0.29239652 -0.14582711 -0.050836418
00000000: 24be f13d e38d b5bc ce23 063f 6ef7 183f
00000010: a69e 0ebd 7cda 7dbe 8fd7 353d 40b1 eb3e
00000020: f1a0 a9bd 28e3 4e3e 4b16 17be 7ce9 8abd
00000030: 7449 763e bf7a 0c3f a741 443e 276e ab3e
00000040: c21e 34be ffb4 953e b453 15be d939 50bd

linear1.weight f4 [1, 5]
-1.4554605 -1.6498955 1.241838 1.3195801 1.3537196
00000000: 884c babf c72f d3bf 8cf4 9e3f 00e8 a83f
00000010: af46 ad3f
