LSTM_torch/models/robot_forward/curriculum_exp/vanilla/model_sl_40_bs_128_hs_20_ep_50_tim_2.057_gm_[-1,-0.936]_thd_[0.05,0.1].pth (torch, 27294 bytes, 10 tensors)

lstm.weight_ih_l0 f4 [80, 12]
0	0x3aae34de	0.0013290902
1	0xbd942655	-0.07233874
2	0x3d5b108d	0.05348258
3	0xbe78d8a1	-0.24301387
4	0x3d8cb404	0.06870273
5	0x3d20266f	0.039099153
6	0xbb97a5d4	-0.0046279225
7	0x3bcd424b	0.0062640063
8	0x3ca8d867	0.020611001
9	0xbe341e13	-0.17589597
10	0xbc991f15	-0.018691579
11	0xbc7531e1	-0.014965505
12	0x3c883f81	0.016631844
13	0xbdc2dee0	-0.09515166
14	0xbdf1c13f	-0.11804437
15	0x3e81f9d6	0.25385922
16	0xbd433e86	-0.04766705
17	0xbdbb7f55	-0.09155146
18	0xbb80ce24	-0.003930824
19	0x3c700e18	0.014651798
20	0xbdd8421a	-0.10559483
21	0xbcb97478	-0.022638544
22	0xbd8d8cd7	-0.06911629
23	0xbd1e7253	-0.038683247
24	0xbcdb131e	-0.026742514
25	0x3cf74e1f	0.030188618
26	0x3d89fb95	0.067374386
27	0xbe6b65bb	-0.22988026
28	0xbda4d0f5	-0.08047668
29	0xbc140300	-0.009033918
30	0x3c699ad7	0.014258108
31	0xbc6059c8	-0.0136932805
32	0xbb7c1290	-0.0038463213
33	0x3ac4753e	0.0014988554
34	0xbc0f86eb	-0.008760194
35	0x3ce99f79	0.028518425
36	0xbdf3450e	-0.118784055
37	0xbd9cb82d	-0.07652316
38	0xbd44404f	-0.047912892
39	0xbcd9d8fa	-0.02659272
40	0x3c86acd3	0.01643983
41	0xbe84cfb0	-0.25939703
42	0xbc161778	-0.009160869
43	0xbe132329	-0.14368881
44	0x3dbe84c0	0.09302664
45	0xbb67656d	-0.0035308257
46	0x3d2df111	0.042466227
47	0x3d4e9810	0.050437987
48	0x3bee83a7	0.007278878
49	0x3d57b122	0.05265916
50	0xbd7554c4	-0.059895292
51	0x3bc331cf	0.0059568654
52	0x3e792f91	0.24334551
53	0xbcdc02bf	-0.026856778
54	0x3b44fcd3	0.0030057922
55	0x3d24586c	0.04012339
56	0xbbdc795a	-0.0067283334
57	0x3d56a727	0.052405503
58	0x3d0b020d	0.033937503
59	0x3d0f01f5	0.034913976
60	0x3e46fc0d	0.19432087
61	0xbd9156b8	-0.070966184
62	0x3e796e53	0.24358492
63	0xbdb5aafd	-0.08870504
64	0xbd0ab628	-0.033865124
65	0xbd72f3cf	-0.059314545
66	0xbd924895	-0.0714275
67	0xbe806806	-0.25079364
68	0x3e0561c8	0.13025582
69	0xbb99f3b3	-0.0046982407
70	0x3d821ef8	0.06353563
71	0x3d6285a3	0.055303227
72	0xbd9eca5f	-0.07753443
73	0x3e363999	0.1779541
74	0x3cc7c72e	0.024386968
75	0xbd963abc	-0.073354214
76	0xbd92cf02	-0.0716839
77	0x3dcbeb86	0.09957032
78	0x3bab8171	0.0052339365
79	0x3bbe3195	0.0058042505
80	0x3c6efebf	0.014587103
81	0x3d1df885	0.038567085
82	0xbd1cd6d3	-0.03829081
83	0xbd6e4a17	-0.058176126
84	0x3e20bdea	0.15697446
85	0x3daec854	0.08534303
86	0xbe3db259	-0.18525065
87	0x3e10af9a	0.14129487
88	0xbd9a1912	-0.07524313
89	0x3d2c7346	0.04210212
90	0x39fe49e2	0.00048501702
91	0xbd48a949	-0.048989568
92	0x3baea5f1	0.0053298404
93	0xbc0336bc	-0.008008655
94	0xbd7e5f99	-0.062102888
95	0x3c859e20	0.016310751
96	0xbc312d18	-0.010813974
97	0x3dd4e0d2	0.103944436
98	0xbd72fff9	-0.059326146
99	0x3e5ebdc2	0.21752074
100	0x3b56ce2a	0.0032776692
101	0xbc81a97b	-0.015827885
102	0xbc2f428e	-0.01069702
103	0x3d446ffc	0.04795836
104	0xbc3c03f2	-0.01147555
105	0xbd5a4e2b	-0.053297203
106	0xbc910f9d	-0.01770764
107	0x3b424e46	0.0029648705
108	0x3c97a7ea	0.018512685
109	0xbca0de3e	-0.019637223
110	0x3c20fcbe	0.009825883
111	0x3d98b0c8	0.07455593
112	0xbe6c1207	-0.23053752
113	0xbcf8fad7	-0.030393047
114	0xbbc7222e	-0.0060770726
115	0xbb8d69ea	-0.0043156045
116	0x39e89413	0.00044360812
117	0xbcea811b	-0.028626015
118	0xbde1b15b	-0.11020156
119	0x3c03c19b	0.008041765
120	0x3c7384cb	0.014863203
121	0x3c3a74ea	0.011380414
122	0x3dc62ed4	0.096769005
123	0x3e4e8839	0.20169152
124	0x3c454207	0.012039668
125	0xbcc553a3	-0.024087733
126	0xbd49aecf	-0.049238976
127	0x3d0736ea	0.033011355
128	0x3d0863cb	0.033298295
129	0xbce633f9	-0.028100954
130	0xbd315dfb	-0.043302517
131	0xbc0168d8	-0.007898532
132	0x3c34b555	0.011029561
133	0xbd10f5e2	-0.035390742
134	0x3d6bdc33	0.057583045
135	0xbe808849	-0.25103977
136	0xba472189	-0.00075962447
137	0x3e796426	0.2435461
138	0xbd001e3f	-0.031278845
139	0xbd69a876	-0.057045422
140	0x3d5d44ec	0.054020807
141	0x3d5efa74	0.05443807
142	0xbd2f6e39	-0.042829726
143	0xbd33bd68	-0.043881804
144	0x3db6036d	0.08887372
145	0xbde36fc1	-0.111053
146	0xbcded052	-0.027198944
147	0x3d28f8c7	0.041252878
148	0x3b664aa2	0.00351397
149	0x3c927380	0.01787734
150	0xbb0a0b1e	-0.0021063755
151	0x3d00c099	0.031433675
152	0xbca1b686	-0.019740354
153	0xba9f17f1	-0.0012137872
154	0xbca97781	-0.020686867
155	0xbc405bc9	-0.011740633
156	0xbd679224	-0.056535855
157	0xbd8ac1cf	-0.06775247
158	0x3c5e7073	0.013576615
159	0xbc5d59ad	-0.01351015
160	0x3ccc4ed3	0.02493993
161	0x3db5ab88	0.088706076
162	0xbd486785	-0.04892685
163	0xbd374103	-0.044739734
164	0x3e76c31c	0.24097866
165	0xbc7b6107	-0.015342957
166	0xbe053bb8	-0.13011062
167	0xbc4fb54e	-0.012677504
168	0xbe1279b3	-0.14304237
169	0xbe313ead	-0.17309065
170	0xbd5df9b8	-0.05419323
171	0xbe39bb3b	-0.18137829
172	0xbd1c373c	-0.038138613
173	0x3d8dc337	0.06922
174	0xbafc12b0	-0.0019231644
175	0x3e509591	0.20369555
176	0xbe51e70a	-0.2049829
177	0xbdccc319	-0.099981494
178	0xbd3febc8	-0.046855718
179	0x3dc9b44d	0.09848843
180	0xbca98ef6	-0.020698052
181	0xbd163700	-0.036673546
182	0xbc8a49d4	-0.016880907
183	0xbd189223	-0.03724874
184	0x3d7c67f7	0.061622586
185	0xbd160a89	-0.03663114
186	0xbbbf8299	-0.005844426
187	0xbce68214	-0.028138198
188	0xbd1784d9	-0.036991928
189	0xbb585feb	-0.0033016156
190	0xbda421d1	-0.080142625
191	0xbda40ae8	-0.08009893
192	0x39d42b31	0.0004046797
193	0x3ce05b6a	0.02738734
194	0xbd0192a7	-0.031634
195	0xbe4543bd	-0.19264121
196	0x3dc9f800	0.09861755
197	0xbd8a87cd	-0.06764183
198	0x3cdaa16d	0.026688302
199	0xbd28908b	-0.041153472
200	0x3c46c300	0.012131453
201	0x3d797659	0.06090388
202	0xbd83b1c8	-0.064303935
203	0x3cb0f0a6	0.021599125
204	0x3d0dcb2c	0.034617588
205	0x3c7c0bb5	0.015383651
206	0xbd2439fc	-0.04009436
207	0xbd238084	-0.039917484
208	0x3cf7555d	0.030192072
209	0xbdf03b77	-0.11730092
210	0xbd397b52	-0.045283623
211	0xbd3b3a18	-0.0457097
212	0x3d25deb2	0.040495582
213	0x3a7a6a2b	0.00095525634
214	0x3d03720f	0.032091197
215	0x3d8f8e54	0.07009569
216	0xbdf0817b	-0.117434464
217	0xbd83aad9	-0.06429071
218	0xbcc9be12	-0.024626765
219	0xbc277963	-0.010221812
220	0x3d9a8b49	0.07546098
221	0x3d9b75aa	0.07590802
222	0x3d7fd11d	0.062455285
223	0xbd8eb7b9	-0.06968636
224	0x3c00dfab	0.007865827
225	0x3c48bd8e	0.012252225
226	0x3bf4974e	0.007464326
227	0xbd0cf9cf	-0.034417924
228	0xbe854b5f	-0.26034066
229	0xbcce068e	-0.02514961
230	0xbb956529	-0.0045591784
231	0xbe7b6010	-0.24548364
232	0x3cd402b2	0.025880191
233	0xbe0e91be	-0.13922784
234	0xbd34bd81	-0.044126038
235	0xbdca3e0b	-0.09875115
236	0xbb099f5f	-0.0020999534
237	0xbc794d5c	-0.015216198
238	0xbd209357	-0.039203014
239	0x3db95495	0.09049336
240	0xbe239d79	-0.1597804
241	0x3eac53cd	0.33657685
242	0x3d205e3c	0.03915237
243	0xbec2a8a8	-0.380193
244	0xbdf3cac9	-0.119039126
245	0xbd7c1cdc	-0.06155096
246	0x3bbaba1e	0.0056984564
247	0x3cb4aa2f	0.022053806
248	0xbcfabb63	-0.030606931
249	0x3e06c3f3	0.13160686
250	0x3c81d996	0.015850823
251	0x3a81224d	0.0009852141
252	0xbc368ca2	-0.011141928
253	0x3e2cbee2	0.16869691
254	0xbeb99375	-0.36245313
255	0x3e4b17f0	0.1983335

lstm.weight_hh_l0 f4 [80, 20]
0	0xbda286b5	-0.079358496
1	0xbd022389	-0.03177217
2	0xbdc241d5	-0.09485213
3	0x3ebdef99	0.3709686
4	0xbdb202b5	-0.086919226
5	0x3e8b337c	0.27187717
6	0x3e5e7cea	0.21727338
7	0xbea1c289	-0.3159373
8	0xbeb2b62d	-0.34904614
9	0x3e996ae4	0.29964364
10	0xbebec5ca	-0.37260276
11	0xbe6b5a16	-0.22983584
12	0x3ebd431f	0.36965272
13	0xbebca144	-0.36841786
14	0x3b5a95ce	0.003335345
15	0x3e5623e4	0.20912129
16	0x3cde164d	0.027110243
17	0xbe9246cc	-0.2856964
18	0x3e085f8b	0.13317697
19	0xbdc2f83d	-0.09520004
20	0x3e94c4b5	0.29056326
21	0x3d980596	0.074229404
22	0xbe289d93	-0.1646636
23	0x3eb3e6d1	0.35137036
24	0xbe84ab7c	-0.25912082
25	0x3e069906	0.13144311
26	0xbd19aa3b	-0.03751586
27	0x3e2d5214	0.16925842
28	0xbe9d790b	-0.3075641
29	0x3b219363	0.00246545
30	0x3e0fca6c	0.14042062
31	0xbe6c0bb9	-0.23051347
32	0x3d66a510	0.05630976
33	0x3d9b9de4	0.075984746
34	0x3e5660b4	0.20935327
35	0x3e3e2342	0.18568137
36	0x3dc4f457	0.096169166
37	0x3e959558	0.29215503
38	0x3e803784	0.25042355
39	0x3e96a068	0.29419255
40	0x3df9bb01	0.12193871
41	0xbd20433b	-0.039126616
42	0x3da41fde	0.08013891
43	0x3d85304c	0.065033525
44	0xbe834c9a	-0.2564438
45	0xbdb21033	-0.08694496
46	0xbe96ef5b	-0.2947949
47	0xbe85d410	-0.26138353
48	0xbda37c75	-0.07982723
49	0x3e00f3da	0.12593022
50	0xbe73f1f1	-0.23822762
51	0xbe703afb	-0.2346
52	0x3e8118ea	0.2521432
53	0xbe8548c4	-0.26032078
54	0xbdcced05	-0.100061454
55	0x3df0516e	0.117342815
56	0x3e81d76f	0.25359675
57	0x3df2c774	0.11854449
58	0x3ea6b0f7	0.32556888
59	0x3e63a6bd	0.22231574
60	0x3ebd2d2c	0.36948526
61	0xbe66d310	-0.22541451
62	0x3eb14243	0.34620866
63	0xbe9c78b2	-0.30560833
64	0xbdb85209	-0.09000022
65	0xbddb0800	-0.10694885
66	0xbe434734	-0.1907013
67	0xbeba86a8	-0.3643086
68	0xbe9e97e9	-0.30975273
69	0xbe080613	-0.13283567
70	0x3cf8c034	0.030365087
71	0xbe882de6	-0.26597518
72	0x3ea60f7e	0.32433695
73	0xbda2911d	-0.079378344
74	0xbd80fd0c	-0.06298265
75	0x3e1cc07c	0.15307802
76	0xbe8dad66	-0.27671355
77	0xbe329ff8	-0.17443836
78	0x3e8e347f	0.27774426
79	0xbdafe6b7	-0.08588927
80	0x3e85209b	0.26001438
81	0x3e456a58	0.19278848
82	0xbe3bc834	-0.1833809
83	0x3eb17798	0.34661555
84	0x3e2e03c2	0.16993621
85	0x3eb0fac9	0.34566334
86	0xbe71ea62	-0.23624566
87	0xbdf28be8	-0.11843091
88	0xbea1758f	-0.31535003
89	0x3ebc3024	0.36755478
90	0xbe5576e2	-0.20846131
91	0xbdfef379	-0.124487825
92	0xbeae23ff	-0.34011838
93	0xbe710fed	-0.23541231
94	0x3d54c25a	0.05194316
95	0x3e81ac60	0.25326824
96	0xbe16d787	-0.14730655
97	0x3ea08cb4	0.31357348
98	0x3e852d3e	0.2601108
99	0xbdacf036	-0.08444254
100	0x3dd94cb4	0.10610333
101	0xbe89d127	-0.26917383
102	0xbe8c4599	-0.2739685
103	0x3e543f7b	0.20727341
104	0xbdd2b838	-0.10289043
105	0xbdf48d60	-0.11941028
106	0x3d67fffc	0.05664061
107	0xbe5f88b4	-0.21829492
108	0xbe846762	-0.25860125
109	0x3e10979e	0.14120337
110	0xbd248485	-0.040165443
111	0xbe67ad1f	-0.22624634
112	0x3e8490b0	0.25891638
113	0xbd58ee40	-0.052961588
114	0xbe8cec52	-0.27524048
115	0x3e13ff29	0.14452805
116	0x3e7d7e67	0.2475525
117	0x3dbd460a	0.092418745
118	0x3e516ee3	0.20452456
119	0x3e2303c3	0.15919404
120	0xbd64af1d	-0.055831064
121	0x3d0ca8cd	0.03434067
122	0xbead90cb	-0.3389953
123	0x3d5990ec	0.053116724
124	0xbe5eb510	-0.21748757
125	0x3eb058f6	0.34442872
126	0x3e81d4e1	0.25357726
127	0x3daccab1	0.08437098
128	0xbdb06f89	-0.08615024
129	0x3e4f75e8	0.20259821
130	0x3a74b4d5	0.00093348074
131	0x3e05c88d	0.13064785
132	0x3ebe6fcc	0.3719467
133	0xbde3909b	-0.11111566
134	0x3dd5054b	0.104014
135	0x3e855a31	0.26045373
136	0x3ea679c1	0.32514766
137	0x3d90c241	0.07068301
138	0xbd9caebf	-0.07650518
139	0x3dd03b10	0.10167515
140	0x3e0a47ed	0.13504
141	0x3e89b9d6	0.26899594
142	0x3de1b06c	0.11019978
143	0xbd70525f	-0.058672305
144	0x3e5c74d4	0.21528941
145	0x3db22eb9	0.08700318
146	0x3ce97ce2	0.028501932
147	0x3ea82ffc	0.3284911
148	0xbddff8a7	-0.109360985
149	0x3e82c19c	0.25538337
150	0x3e0398b0	0.12851214
151	0xbde295ee	-0.11063753
152	0x3d1f92e8	0.03895846
153	0x3dd2bf43	0.102903865
154	0x3e8ad753	0.27117404
155	0x3d189462	0.037250884
156	0x3e093fcd	0.13403244
157	0xbde7f984	-0.11326888
158	0x3e840241	0.2578297
159	0x3cb3c1a7	0.021942927
160	0x3e4a080f	0.19729637
161	0xbd6eabec	-0.058269426
162	0xbd11009c	-0.03540097
163	0x3e8a6930	0.27033377
164	0xbd9727d0	-0.073806405
165	0x3e84d084	0.25940335
166	0xbe48baba	-0.1960248
167	0xbe029b81	-0.12754633
168	0x3e5770f2	0.21039179
169	0x3cbbfc60	0.02294749
170	0xbda7c5ff	-0.08192062
171	0xbe7a45ea	-0.24440733
172	0x3dec2798	0.115309894
173	0x3e51e41d	0.20497175
174	0xbe204605	-0.1565171
175	0x3e2df600	0.16988373
176	0x3e8ffe2a	0.281236
177	0xbe1292d1	-0.14313819
178	0x3e5ccd12	0.21562603
179	0x3e856a95	0.26057878
180	0x3ebc3df6	0.36766022
181	0x3e6cb3a2	0.231154
182	0x3e0a099b	0.13480227
183	0x3e1d5d3e	0.153676
184	0x3e056fbd	0.13030906
185	0xbea82239	-0.3283861
186	0xbe306c8b	-0.17228906
187	0xbcdec2dc	-0.027192526
188	0x3caecbfa	0.021337498
189	0xbe9539ce	-0.29145664
190	0x3e0bb673	0.13643818
191	0xbdd1d711	-0.10246099
192	0x3e180e2e	0.14849159
193	0x3d8bcaad	0.06825767
194	0xbe0d5d4d	-0.13805123
195	0xbbb95992	-0.0056564296
196	0x3e85e1b4	0.2614876
197	0x3e028420	0.12745714
198	0x3ebd5d8a	0.36985427
199	0xbd97bbb1	-0.07408846
200	0x3eafc02f	0.34326312
201	0x3e82ac0b	0.25521883
202	0xbe1d684f	-0.15371822
203	0xbdaf2b17	-0.085531406
204	0xbce19f71	-0.027541848
205	0x3cd48894	0.025944032
206	0xbe13b4d8	-0.14424455
207	0x3d1b6ade	0.037943713
208	0xbe4c029a	-0.19922867
209	0x3dc6c6ab	0.09705862
210	0x3ccbc1aa	0.02487262
211	0xbe4b841a	-0.19874611
212	0x3dd33967	0.10313683
213	0x3bce75ba	0.006300655
214	0x3df75aa4	0.12077835
215	0xbd54c51b	-0.051945787
216	0x3dd13ff7	0.102172785
217	0x3e7ee54d	0.24892159
218	0x3df0125d	0.117222525
219	0xbbd7b34b	-0.0065826527
220	0x3d85f677	0.0654115
221	0xbe062f82	-0.1310406
222	0xbe103af2	-0.14084986
223	0x3e51a915	0.20474656
224	0x3e4cd479	0.20002927
225	0xbe4e464e	-0.20144007
226	0x3db42b47	0.08797317
227	0xbe3af3b4	-0.18257028
228	0xbe39c80c	-0.18142718
229	0x3e6291a7	0.22125874
230	0xbeb624a6	-0.35574836
231	0x3dba42a3	0.09094741
232	0x3dbdc0a5	0.0926526
233	0xbebfbb1f	-0.3744745
234	0x3c83cbd4	0.016088404
235	0x3dd9eaad	0.10640464
236	0x3e99eea3	0.30064878
237	0x3e855b53	0.26046237
238	0xbe1398ec	-0.14413804
239	0xbd7c535c	-0.061602935
240	0x3eb8a44c	0.3606285
241	0x3e30bf2e	0.1726043
242	0xbc3eca0c	-0.011644851
243	0x3d0b7fed	0.034057546
244	0x3c92e42f	0.017931072
245	0xbe3b474d	-0.18288918
246	0xbeaeb71f	-0.34124085
247	0x3db1d2a0	0.08682752
248	0xbdc5afcb	-0.096526705
249	0x3e7d5872	0.2474077
250	0x3de8a6fe	0.11359976
251	0xbdf854a1	-0.12125517
252	0x3db6de09	0.089290686
253	0x3e19810c	0.14990634
254	0x3d8331d5	0.06405989
255	0xbd98bbb9	-0.0745768

lstm.bias_ih_l0 f4 [80]
0	0x3e890d7f	0.2676811
1	0x3e517ac5	0.20456989
2	0x3e609cba	0.21934786
3	0x3db8470c	0.08997926
4	0x3e420e86	0.18950853
5	0x3dcf496d	0.10121427
6	0x3bf44ea9	0.007455666
7	0x3e5cb954	0.21555072
8	0x3dd8f1b3	0.105929755
9	0x3b308d72	0.0026939777
10	0x3e4f723b	0.20258419
11	0xbde780bf	-0.11303853
12	0x3afde28f	0.0019369888
13	0xbda2bcb6	-0.0794615
14	0x3e93cba4	0.28866303
15	0x3e1b56b0	0.15169787
16	0x3e3a6119	0.18201102
17	0x3e7dd8ac	0.24789685
18	0x3e42078f	0.18948196
19	0x3d831c50	0.064018846
20	0xbe3914a2	-0.18074277
21	0xbe164002	-0.14672855
22	0xbe5393aa	-0.20661798
23	0xbdb20794	-0.08692852
24	0x3d33ac4e	0.043865494
25	0xbe3d4842	-0.18484595
26	0xbe4de1a6	-0.2010561
27	0xbe96ca51	-0.2945123
28	0xbea54513	-0.32279262
29	0xbe0b4018	-0.13598669
30	0xbe8921fd	-0.26783744
31	0xbe56f3ae	-0.20991394
32	0xbea3f595	-0.32023302
33	0x3d452f6b	0.048140924
34	0x3d51e020	0.051239133
35	0xbd87ddf7	-0.06634133
36	0xbe922d00	-0.28549957
37	0xbeb46bd1	-0.35238507
38	0xbe19c4e1	-0.1501651
39	0xbd9b4704	-0.075819045
40	0x3ea6d3fe	0.32583612
41	0xbe3d7353	-0.18501024
42	0xbe04ce14	-0.12969238
43	0x3ed5b753	0.41741428
44	0xbec9afe2	-0.39392
45	0x3e87cd5a	0.26523858
46	0xbdeda500	-0.11603737
47	0xbe17fb45	-0.14841945
48	0xbe26c1d4	-0.16284877
49	0x3e9c7fbe	0.3056621
50	0xbc9d4925	-0.019199917
51	0xbe648bd1	-0.2231896
52	0x3e6157f3	0.22006206
53	0xbe50f2fb	-0.2040519
54	0xbf02cb36	-0.51091325
55	0x3e931506	0.28726977
56	0x3ec8f4e9	0.39249352
57	0x3eb57a35	0.354448
58	0x3ed643fa	0.41848737
59	0x3ed8411f	0.42237183
60	0x3e281d5e	0.16417453
61	0x3d016b7b	0.031596642
62	0x3e804db9	0.25059298
63	0x3e6a707d	0.22894473
64	0x3cd3fb7c	0.025876753
65	0x3d748cd3	0.059704613
66	0xbe0f7476	-0.1400927
67	0x3e2f8fcd	0.171447
68	0x3e141969	0.14462818
69	0x3d38f8b0	0.045159042
70	0x3e0e99d9	0.13925876
71	0x3d3bd7c3	0.045860063
72	0x3e7065c0	0.23476315
73	0x3e5a4a4d	0.21317406
74	0x3e0d9d8b	0.13829629
75	0x3eb49971	0.35273317
76	0x3ddcfdee	0.10790621
77	0x3e441ad5	0.1915086
78	0x3e6fd3e2	0.2342067
79	0x3e57e439	0.21083154

lstm.bias_hh_l0 f4 [80]
0	0xbdef3cf1	-0.116815455
1	0x3d89c7a4	0.067275316
2	0x3d2a28b9	0.041542742
3	0x3e2ec93e	0.17068955
4	0x3c3bbf5e	0.0114592
5	0x3e243588	0.16036046
6	0x3e77baa9	0.24192299
7	0x3d05c43c	0.032657847
8	0x3e1eb328	0.1549803
9	0x3c50e382	0.012749555
10	0x3d5f3601	0.05449486
11	0xbe16ba05	-0.14719398
12	0xbde1c272	-0.110234156
13	0xbd9f2ca0	-0.077721834
14	0x3da62588	0.08112627
15	0x3e0338e1	0.12814666
16	0x3ca2e272	0.019883368
17	0x3c1be06d	0.0095139565
18	0xbd8ef665	-0.0698059
19	0x3e862ec2	0.26207548
20	0xbe37fdd8	-0.17967927
21	0x3cc6f095	0.02428464
22	0xbe400164	-0.1875053
23	0xbe7606d8	-0.24026048
24	0xbe8dbb01	-0.27681735
25	0xbe4c0a08	-0.19925702
26	0xbe27a912	-0.16373089
27	0xbdc42e23	-0.095791124
28	0x3b246530	0.0025084727
29	0xbe81601c	-0.25268638
30	0xbdfd7ab5	-0.1237692
31	0x3da654c9	0.0812164
32	0xbd8debd8	-0.06929749
33	0x3de0079b	0.10938951
34	0x3da078d9	0.0783555
35	0xbe43edfa	-0.1913375
36	0xbdbb324c	-0.09140453
37	0xbd2dd46e	-0.042438917
38	0xbe7887ea	-0.24270597
39	0x3e3e5df9	0.18590535
40	0x3e8818a0	0.26581287
41	0xbeff07d5	-0.49810663
42	0xbe838860	-0.25689983
43	0x3e8259de	0.25459188
44	0xbed52783	-0.41631708
45	0xbcaedf11	-0.0213466
46	0xbecee61d	-0.40409938
47	0xbeb84dfb	-0.35996994
48	0xbdea5b46	-0.1144319
49	0x3e7142ed	0.23560686
50	0xbe526f4b	-0.20550267
51	0xbef63684	-0.48088467
52	0x3d3be371	0.045871202
53	0xbe84d39f	-0.25942704
54	0xbf1884f3	-0.59577864
55	0x3e7d40d0	0.24731755
56	0x3e1d5263	0.1536346
57	0x3e1c07ca	0.15237346
58	0x3d8f2e33	0.06991234
59	0x3ee81794	0.4533049
60	0x3e3dafd3	0.18524103
61	0x3e85b909	0.26117733
62	0x3dd5e00f	0.104431264
63	0x3dfee314	0.124456555
64	0x3e84ced7	0.25939056
65	0x3e937046	0.28796595
66	0xbe06af5e	-0.13152835
67	0x3ddf930e	0.1091672
68	0x3e4db267	0.20087586
69	0x3e6e8254	0.23291904
70	0x3e0c9fd6	0.13732848
71	0x3e2957e6	0.16537437
72	0x3df58ac1	0.11989356
73	0x3d6a24dd	0.05716406
74	0x3e5cbe7b	0.21557038
75	0xbb388164	-0.0028153295
76	0x3e7ce003	0.24694829
77	0x3e129e1c	0.14318126
78	0x3def3a0b	0.11680993
79	0x3d8d0431	0.06885565

lstm.weight_ih_l1 f4 [80, 20]
0	0x3e3c3b07	0.18381892
1	0xbe690f83	-0.22759824
2	0xbe0d0f75	-0.13775428
3	0x3e712fcb	0.23553388
4	0xbe8acc2c	-0.27108896
5	0x3d8c4d9a	0.06850739
6	0xbe1667f5	-0.14688094
7	0xbdfd9397	-0.12381666
8	0xbdd4d273	-0.103917025
9	0x3e233143	0.1593676
10	0xbd87a3f8	-0.066230714
11	0xbe304e9e	-0.1721749
12	0x3dc3dde5	0.095638074
13	0xbe2535e1	-0.16133834
14	0xbec1c458	-0.3784511
15	0x3e2c7e91	0.16845156
16	0x3e33141a	0.17488137
17	0x3e3d92da	0.1851305
18	0x3e27eae2	0.16398194
19	0x3e9fd4a4	0.3121692
20	0x3e39a75f	0.18130253
21	0xbe5f1d57	-0.21788536
22	0xbe70cd5a	-0.23515835
23	0x3e632a3c	0.2218408
24	0xbdc4ee01	-0.09615708
25	0xbd820a3d	-0.06349609
26	0xbe781e49	-0.24230303
27	0xbc03cb18	-0.008044027
28	0xbd9b591c	-0.07585356
29	0x3dad977b	0.08476158
30	0xbcb6c402	-0.02231026
31	0xbe5d4da8	-0.21611655
32	0x3c43e809	0.011957177
33	0xbd38aefd	-0.045088757
34	0xbe52515e	-0.20538852
35	0x3e4172c1	0.18891431
36	0x3e7a4fb7	0.24444471
37	0x3e0f42c8	0.13990319
38	0x3d5e8cc0	0.05433345
39	0x3ed89354	0.42299902
40	0x3e55abc8	0.2086631
41	0xbde0286d	-0.109452106
42	0xbe1d9bc2	-0.15391448
43	0x3e8e0d07	0.27744314
44	0xbe8cd450	-0.27505732
45	0x3d937680	0.072003365
46	0xbe26cf07	-0.16289912
47	0xbe2364c8	-0.15956414
48	0xbc08c2ce	-0.008347226
49	0x3e0423e5	0.12904318
50	0xbd9dc6f1	-0.07703961
51	0xbe389e4e	-0.18029138
52	0x3df051b2	0.11734332
53	0xbd53ea49	-0.051737104
54	0xbe79e61d	-0.24404188
55	0x3df2ffd3	0.11865201
56	0x3e481c99	0.19542159
57	0x3e64b998	0.22336423
58	0x3e03f60c	0.12886828
59	0x3e6b6649	0.22988237
60	0x3e336885	0.1752034
61	0xbe87aeb0	-0.26500463
62	0xbd816539	-0.06318135
63	0x3e76d0d1	0.24103095
64	0xbe942a44	-0.28938496
65	0x3cf83ad6	0.030301493
66	0xbe083045	-0.13299663
67	0xbe0e43c3	-0.13893037
68	0xbe04b374	-0.12959081
69	0x3e12f4f4	0.14351255
70	0xbe021b14	-0.12705642
71	0xbdc74f02	-0.097318664
72	0x3e1c378a	0.15255561
73	0xbe33a8b4	-0.17544824
74	0xbe9ae159	-0.30250052
75	0x3e409c21	0.18809558
76	0x3e10868f	0.1411383
77	0x3e24ff9d	0.16113134
78	0x3e1c390f	0.15256141
79	0x3e866a65	0.26253048
80	0x3c01af4c	0.007915329
81	0xbd8ba41b	-0.0681841
82	0xbd90dd40	-0.0707345
83	0x3e2f401b	0.17114298
84	0x3d08c91d	0.03339492
85	0xbcb245bc	-0.021761768
86	0xbe11cdc6	-0.14238653
87	0xbe03aca1	-0.12858821
88	0xbe0a9d8a	-0.13536659
89	0x3d9db243	0.07700016
90	0xbd8143ff	-0.06311797
91	0xbd98556e	-0.074381694
92	0x3db0b30e	0.08627902
93	0xbdff9867	-0.1248024
94	0xbd81e25d	-0.063420035
95	0x3e67af64	0.226255
96	0x3e05ce2d	0.13066931
97	0x3e10398f	0.14084457
98	0x3e57dbe0	0.2107997
99	0x3e11847e	0.14210698
100	0x3e179a10	0.14804864
101	0xbdf5c173	-0.11999788
102	0xbdef46ea	-0.11683448
103	0x3e297088	0.16546834
104	0xbe3958f8	-0.18100345
105	0x3d19198a	0.03737787
106	0xbdf59485	-0.119912185
107	0xbddf281a	-0.10896321
108	0xbd6d8eaa	-0.057997383
109	0x3e2ac85a	0.1667799
110	0xbd9388ad	-0.07203803
111	0xbddd857a	-0.10816474
112	0x3da7bbd3	0.081901215
113	0xbdbd73e8	-0.09250623
114	0xbe393238	-0.18085563
115	0x3e2595da	0.16170445
116	0x3e689c03	0.22715764
117	0x3dc31a16	0.0952646
118	0x3e412cd3	0.18864755
119	0x3e78cb15	0.2429622
120	0x3ded8ae6	0.115987584
121	0xbe39a6a5	-0.18129976
122	0xbde8a6f3	-0.11359968
123	0x3e1b0aaa	0.15140787
124	0xbe75914d	-0.23981209
125	0x3d5c2c47	0.053753164
126	0xbe01e8e2	-0.12686494
127	0xbe6009d2	-0.21878746
128	0xbd45fda4	-0.048337594
129	0x3dfb70ff	0.12277412
130	0xbdcef7ea	-0.101058796
131	0xbde9dc25	-0.11418942
132	0x3dc49a66	0.09599762
133	0xbde05d39	-0.10955281
134	0xbe979a82	-0.29610068
135	0x3db65fb5	0.089049734
136	0x3df6e9b2	0.120562926
137	0x3e47db90	0.1951735
138	0x3e075bc7	0.13218604
139	0x3e888cd1	0.26669934
140	0x3e3debab	0.18546931
141	0xbe7e6f71	-0.24847199
142	0xbde2d77a	-0.11076255
143	0x3e9e5496	0.3092391
144	0xbe9a27ea	-0.30108577
145	0x3dbc706c	0.0920113
146	0xbe142389	-0.1446668
147	0xbe94b2ad	-0.2904257
148	0xbd7da4e7	-0.06192484
149	0x3ddcc7ea	0.10780318
150	0xbdce3c49	-0.10070092
151	0xbe213854	-0.15744144
152	0x3dcb4e2f	0.09927022
153	0xbe424e0f	-0.1897509
154	0xbed89e7a	-0.42308408
155	0x3e314a4b	0.17313497
156	0x3e4ff331	0.20307614
157	0x3df826e5	0.121167935
158	0x3e58dca0	0.21177912
159	0x3e367889	0.17819418
160	0xbd89132a	-0.066931084
161	0xbd7e50f3	-0.062088918
162	0xbdfa27c4	-0.12214616
163	0x3eb73d82	0.35789114
164	0xbe95fadb	-0.2929295
165	0xbd05b900	-0.032647133
166	0xbe75eb67	-0.2401558
167	0xbe8c7de4	-0.27439797
168	0xbe49d365	-0.19709547
169	0x3ea0a25d	0.31373873
170	0xbde0205e	-0.109436736
171	0xbdd532ba	-0.10410066
172	0x3e448e15	0.19194825
173	0xbe0ec90c	-0.13943881
174	0xbe66be43	-0.22533517
175	0x3e4bbc6b	0.19896095
176	0x3df96407	0.12177282
177	0x3e93e66b	0.28886732
178	0x3e42f660	0.19039297
179	0x3eb8ac81	0.3606911
180	0xbb2a507e	-0.0025987918
181	0x3c83a388	0.016069189
182	0xbe14fdbe	-0.1454992
183	0x3e9e7f84	0.30956662
184	0xbd8f7967	-0.070055775
185	0xbd3e04e6	-0.04639139
186	0xbc6ab16c	-0.014324527
187	0x3d251b51	0.040309254
188	0xbdb9d211	-0.0907327
189	0x3dd2694b	0.10273989
190	0xbdf3b568	-0.11899835
191	0xbe259dad	-0.1617343
192	0xbd2b383b	-0.041801672
193	0xbe2fdf4d	-0.17175026
194	0xbe134e14	-0.14385253
195	0x3e528d58	0.20561731
196	0x3e4e8e5a	0.2017149
197	0x3e1c4ba0	0.15263224
198	0x3e06e28a	0.13172355
199	0x3d7aefef	0.061263975
200	0x3e5459fe	0.20737454
201	0xbe7f80d7	-0.24951492
202	0xbe263799	-0.16232146
203	0x3e645199	0.22296752
204	0xbe777f8c	-0.24169749
205	0x3d8fe68b	0.070263945
206	0xbe54ba3d	-0.2077417
207	0xbe266d21	-0.16252567
208	0xbd9cde16	-0.07659547
209	0x3e27c065	0.16381986
210	0xbdce40d8	-0.10070962
211	0xbe25a46e	-0.16176006
212	0x3d8275c4	0.06370118
213	0xbe1cde48	-0.15319169
214	0xbec0c746	-0.37652034
215	0x3e228a00	0.15872955
216	0x3e66c95f	0.22537754
217	0x3e32b324	0.17451149
218	0x3e1493e2	0.14509538
219	0x3e7ab3f8	0.24482715
220	0x3e555303	0.20832448
221	0xbe0df03e	-0.13861176
222	0xbdcdd20e	-0.100498304
223	0x3ea7e18b	0.32789263
224	0xbe2ce7dc	-0.16885322
225	0xbd5d7ce4	-0.054074183
226	0xbe4d08ea	-0.20022932
227	0xbe04d503	-0.12971883
228	0xbe106241	-0.14099981
229	0x3e52c652	0.20583466
230	0xbdd3733e	-0.10324715
231	0xbe7f30dd	-0.24920984
232	0x3e0b23f1	0.1358793
233	0xbe97581f	-0.2955942
234	0xbe8b6505	-0.2722551
235	0x3e5bc16b	0.21460502
236	0x3df1d803	0.11808779
237	0x3e45dc3d	0.19322295
238	0x3e2e0120	0.16992617
239	0x3e61aeda	0.22039357
240	0x3d97a9d6	0.074054405
241	0x3d39e8bf	0.04538798
242	0xbe774acf	-0.24149631
243	0x3e25bb28	0.16184676
244	0xbe8766ae	-0.26445526
245	0xbd0a50c9	-0.03376845
246	0xbea11c48	-0.3146689
247	0xbd6edba4	-0.058314934
248	0x3e04c96e	0.12967464
249	0x3e31fdfe	0.17382047
250	0xbe0ee61f	-0.13954972
251	0xbd8a5dd7	-0.0675618
252	0x3d25808c	0.040405795
253	0xbd15d5ca	-0.03658084
254	0xbe0e40e6	-0.13891944
255	0x3c72ea6d	0.014826399

lstm.weight_hh_l1 f4 [80, 20]
0	0x3cad1bbb	0.021131387
1	0x3dcc3c74	0.09972468
2	0x3b285953	0.0025688007
3	0xbc9a3950	-0.018826157
4	0xbd5a2c5b	-0.053264957
5	0x3db59d93	0.088679455
6	0x3bd579e3	0.006514774
7	0x3d062e62	0.032759078
8	0xbe1a1078	-0.15045345
9	0x3d738a7b	0.059458237
10	0x3d06abde	0.03287875
11	0x3d96db3d	0.07366035
12	0x3e01874d	0.1264927
13	0x3cdf3cdb	0.027250698
14	0xbd3b81d8	-0.045778126
15	0xbb14d7bc	-0.0022711596
16	0x3cd9e82b	0.026599964
17	0xbbf7afbc	-0.007558791
18	0x3dcda644	0.10041478
19	0x3cac7b06	0.021054756
20	0xbc026861	-0.007959456
21	0x3d9eabdc	0.07747623
22	0x3d4827f7	0.04886624
23	0xbc82e910	-0.015980273
24	0xbda635d0	-0.08115733
25	0x3e677c30	0.22605968
26	0xbe0df8bf	-0.1386442
27	0x3bbb6d24	0.0057197977
28	0xbb6c450b	-0.0036051895
29	0xbd3fe6e9	-0.046851072
30	0x3e200ee3	0.15630679
31	0x3dc46c63	0.095909856
32	0x3e59a478	0.21254146
33	0x3d0806c6	0.033209585
34	0xbdb7d124	-0.08975437
35	0xbd3b4147	-0.04571655
36	0xbd4af49e	-0.04954969
37	0x3dbd937e	0.092566475
38	0xbd7ff4f1	-0.062489454
39	0x3e0d9592	0.13826588
40	0x3da66cde	0.081262335
41	0x3e1e5b2c	0.15464467
42	0x3d5bfde6	0.053708933
43	0x3d0dadaa	0.034589447
44	0xbe123e28	-0.14281523
45	0x3d2a9ffe	0.041656487
46	0xbbcd853c	-0.0062719863
47	0x3d095b10	0.03353411
48	0xbe39506b	-0.18097083
49	0xbcd6cdd3	-0.026221192
50	0x3dce8419	0.100837894
51	0x3df21042	0.11819507
52	0x3e398c2f	0.18119882
53	0x3d1066f7	0.035254445
54	0xbd01eccb	-0.031719964
55	0xbd9dc3f9	-0.077033944
56	0x3dddde9c	0.10833475
57	0x3b1c26ec	0.002382691
58	0x3ded1a91	0.11577333
59	0x3dbba95e	0.091631636
60	0x3cff4657	0.03116147
61	0x3dbc2661	0.09187008
62	0x3d882854	0.06648317
63	0xbddc0ba0	-0.10744405
64	0xbd89d026	-0.06729154
65	0x3db30b49	0.08742387
66	0x3dd1a0ca	0.10235746
67	0xbb89f3fb	-0.004209993
68	0xbe227bfe	-0.15867612
69	0x3d127c6c	0.03576319
70	0x3ce78afc	0.028264515
71	0x3df1e150	0.11810553
72	0x3de6e6b4	0.11274472
73	0x3de55137	0.11197131
74	0xbdad2065	-0.084534444
75	0x3c8b5b84	0.017011411
76	0x3d6e2012	0.058136053
77	0xbdb68262	-0.08911587
78	0x3dcb533a	0.099279836
79	0x3ceb49d6	0.028721731
80	0x3d6f14b9	0.058369372
81	0xbe163d56	-0.14671835
82	0x3d81e6cc	0.06342849
83	0xbddbf24a	-0.10739572
84	0x3e06e6f1	0.13174035
85	0x3cec927d	0.028878445
86	0x3de2c011	0.1107179
87	0x3cd8fb87	0.026487125
88	0xbdc633ae	-0.09677826
89	0xbd7f15b4	-0.062276557
90	0x3d885404	0.0665665
91	0x3e05d3d3	0.13069086
92	0x3dfc62f0	0.12323558
93	0x3e5ba5e1	0.21449997
94	0xbe458058	-0.1928724
95	0xbc709743	-0.014684501
96	0xbdf0da74	-0.117604166
97	0xbdba1c10	-0.09087384
98	0x3e58854d	0.211446
99	0x3dda2e45	0.106533565
100	0x3c34abc1	0.011027277
101	0x3dd3a039	0.103332944
102	0x3d15b9b3	0.03655405
103	0xbda04105	-0.078249015
104	0xbc2c2f55	-0.010509332
105	0x3e2de565	0.16982038
106	0x3db7990d	0.08964739
107	0x3bef9ea6	0.0073126135
108	0xbd15b130	-0.036545932
109	0x3c822a2c	0.01588925
110	0x3b9a1cd2	0.0047031427
111	0x3df6656b	0.12031063
112	0x3e417af1	0.18894555
113	0x3db6d169	0.089266606
114	0xbd765c4c	-0.060146615
115	0x3d231373	0.03981347
116	0x3d08df84	0.033416286
117	0x3d16daa1	0.036829595
118	0x3e00735f	0.1254401
119	0x3d915ad2	0.07097401
120	0x3c8bfd02	0.017088417
121	0x3dc0a7d6	0.09407012
122	0x3d1419c3	0.03615738
123	0xbda0089e	-0.078141436
124	0xbe0371d5	-0.12836392
125	0x3d6ec6b4	0.058294967
126	0x3b8b4771	0.00425046
127	0x3d55994f	0.05214816
128	0xbe29b0a8	-0.16571295
129	0x3cb24041	0.021759154
130	0x3d5deb79	0.054179642
131	0x3dc8a335	0.09796754
132	0x3da09887	0.07841592
133	0xbc998df6	-0.01874445
134	0xbddad71a	-0.106855586
135	0xbd94f0be	-0.072724804
136	0x3cb8eb74	0.02257321
137	0x3ddbc805	0.1073151
138	0x3d814b7c	0.063132256
139	0xbc9baa79	-0.019002186
140	0x3c41386b	0.011793236
141	0x3e14f5e0	0.14546919
142	0x3de3f3ec	0.11130509
143	0xbd9b8bca	-0.07595022
144	0xbd9da7d8	-0.07698029
145	0x3d996e0c	0.07491693
146	0xbd52fdc0	-0.051511526
147	0x3dd7c2f6	0.10535233
148	0xbe695efe	-0.22790143
149	0xbcf1da29	-0.029522972
150	0x3bfa7e5b	0.0076444573
151	0x3dfdd779	0.12394614
152	0x3e05e6c5	0.13076313
153	0x3d51ca28	0.05121818
154	0xbde305d3	-0.11085095
155	0xbd99e017	-0.07513445
156	0xbccc1ba2	-0.02491552
157	0x3dc26161	0.0949123
158	0x3d793a17	0.060846414
159	0x3d7a4c8f	0.06110817
160	0xbdcdf04a	-0.10055597
161	0x3d71032f	0.058840927
162	0x3db6aaed	0.0891932
163	0x3d213215	0.039354403
164	0xbe918f84	-0.28429806
165	0x3e34de55	0.17662938
166	0xbde45a61	-0.11150051
167	0xbbb9be03	-0.005668403
168	0x3d807ba7	0.06273585
169	0x3d5eb092	0.05436761
170	0x3dbf0155	0.09326426
171	0x3dd75e42	0.10516025
172	0x3eb959f0	0.3620143
173	0x3d7e4e20	0.062086225
174	0x3bf7bfd2	0.0075607086
175	0xbb7fb337	-0.0039016732
176	0xbc964648	-0.01834406
177	0x3e18f608	0.14937603
178	0x3d3fa9b4	0.0467927
179	0xbc6e951a	-0.014561916
180	0x3dac1dae	0.084040985
181	0xbc09ab8e	-0.008402718
182	0x3ebefe7b	0.37303528
183	0xbe39afd8	-0.18133485
184	0xbc1ae57c	-0.009454127
185	0x3e8f9c93	0.28049144
186	0xbd9399ed	-0.072070934
187	0xbdcfc95c	-0.10145828
188	0xbd656364	-0.05600299
189	0x3c8ed593	0.017435824
190	0xbd9943c7	-0.074836306
191	0x3dd945c7	0.10609012
192	0x3dea63c7	0.11444812
193	0x3e47cc30	0.19511485
194	0xbe5fc077	-0.21850763
195	0x3e2a241a	0.16615334
196	0x3d21bb0f	0.039485034
197	0x3ce582f6	0.028016549
198	0x3e437bd1	0.19090201
199	0x3da9dc72	0.08294
200	0x3d276eeb	0.040877264
201	0x3d43defa	0.04782007
202	0x3dd38eec	0.103299946
203	0xbd11c6f7	-0.03559014
204	0xbe08bf9b	-0.13354342
205	0x3d680982	0.056649692
206	0xbb2f965c	-0.0026792502
207	0x3cba0c8c	0.022711061
208	0xbdf74f8c	-0.12075719
209	0xbd785494	-0.060627535
210	0xba804cc3	-0.0009788502
211	0x3dc6e48c	0.097115606
212	0x3e4b7f37	0.19872747
213	0x3d35f571	0.044423524
214	0xbd16bd96	-0.036801897
215	0xbd9a7135	-0.07541124
216	0x394daa04	0.00019613659
217	0x3d19aa0a	0.037515678
218	0x3d4eeffb	0.050521832
219	0x3d4c4976	0.049874745
220	0x3d06486e	0.032783918
221	0x3e7a67a5	0.244536
222	0xbd5a3016	-0.053268515
223	0xbdc31ba9	-0.0952676
224	0xbe654ef6	-0.22393402
225	0x3e2189cf	0.15775226
226	0xbdb009a2	-0.08595587
227	0x3d88321e	0.06650184
228	0xbdb057a2	-0.08610465
229	0xbb71dc5e	-0.003690503
230	0x3e1991f4	0.14997083
231	0x3e3d60a6	0.184939
232	0x3e2aa590	0.1666472
233	0x3ca3a103	0.019974237
234	0xbe572c33	-0.21012954
235	0xbdfa0459	-0.122078605
236	0xbc5e3318	-0.013561986
237	0xbcf50779	-0.02991079
238	0x3dcd75be	0.10032223
239	0x3e3bda8c	0.18345088
240	0x3d1458d4	0.036217526
241	0x3e3815c8	0.17977059
242	0xbd49b199	-0.049241636
243	0xbe0dc77e	-0.13845631
244	0xbe244afe	-0.16044232
245	0xbd4f58a3	-0.05062164
246	0x3e5a64ff	0.2132759
247	0xbbf78be2	-0.007554517
248	0xbda6e772	-0.081496134
249	0xbe4b90bd	-0.19879432
250	0xbcfb3d02	-0.03066874
251	0x3e79d7a7	0.24398671
252	0xbccf35b8	-0.02529417
253	0x3ba53b32	0.005042457
254	0xbca58e5f	-0.02020949
255	0xbdb3afec	-0.08773789

lstm.bias_ih_l1 f4 [80]
0	0x3ef0e1de	0.47047323
1	0x3e0fc02d	0.14038153
2	0x3ea6b524	0.32560074
3	0x3e8cf090	0.27527285
4	0x3e543775	0.2072428
5	0x3e784a7f	0.24247168
6	0x3deedf23	0.11663654
7	0x3e9a8788	0.30181527
8	0x3e056020	0.1302495
9	0x3e61f3cb	0.22065656
10	0x3ec9f7b4	0.39446795
11	0x3e07bc45	0.13255413
12	0x3e5a0890	0.21292329
13	0x3ed0bb92	0.40768105
14	0x3e929b24	0.28633988
15	0x3e9b1137	0.3028657
16	0x3eebbc48	0.46042085
17	0x3e4af2f2	0.19819239
18	0x3e8653d0	0.2623582
19	0x3f00c48b	0.502999
20	0x3ebcebd5	0.36898676
21	0x3da08eea	0.07839759
22	0x3e1fc7a3	0.15603499
23	0x3ce2adbf	0.02767074
24	0x3e73c364	0.23805004
25	0x3e1f391c	0.15549129
26	0x3df21e0d	0.11822138
27	0x3e97c2bb	0.29640755
28	0xbd828559	-0.0637309
29	0x3e701f08	0.23449337
30	0x3e80eba9	0.25179794
31	0x3e7332d8	0.23749864
32	0x3e2e9ba1	0.17051555
33	0x3e6c4808	0.23074353
34	0x3ea84bd6	0.32870358
35	0x3e396bb1	0.18107487
36	0x3eb430ac	0.35193384
37	0x3e710f79	0.23541059
38	0xbd410afd	-0.04712962
39	0x3de209a9	0.11036999
40	0xbc878bb7	-0.016546113
41	0xbd1af516	-0.03783139
42	0x3e41c06b	0.18921058
43	0xbba4b915	-0.0050269463
44	0x3e0ffeda	0.14062062
45	0x3e01ef63	0.12688975
46	0x3d1984ce	0.037480168
47	0xbdcd500a	-0.10025032
48	0x3d011d66	0.031522177
49	0xbc8ab64d	-0.01693263
50	0x3dbea047	0.09307914
51	0x3d66080f	0.05616003
52	0x3e799a86	0.24375352
53	0x3e74ca71	0.2390535
54	0x3b8749b4	0.004128659
55	0xbb0dda42	-0.0021644984
56	0x3db81f87	0.08990388
57	0x3e1418f2	0.14462641
58	0x3e3791cf	0.17926715
59	0x3e0adc61	0.1356063
60	0x3f02f1a3	0.5114996
61	0x3ea8174f	0.32830283
62	0x3eb2ca4f	0.34919974
63	0x3ecc3bef	0.39889476
64	0x3e542a84	0.20719343
65	0x3e842de3	0.2581626
66	0x3ebe78b6	0.3720147
67	0x3efa2b0e	0.48860973
68	0x3ec7990b	0.3898395
69	0x3e971dd5	0.29514948
70	0x3eb3753c	0.3505038
71	0x3e9a4cd9	0.30136755
72	0x3e5075d1	0.20357443
73	0x3f05bbf5	0.52239925
74	0x3f012e57	0.50461334
75	0x3ec38324	0.3818599
76	0x3ea70740	0.3262272
77	0x3ed0275a	0.40655023
78	0x3ec92686	0.39287204
79	0x3ef543ae	0.47903198

lstm.bias_hh_l1 f4 [80]
0	0x3ef23f8a	0.473141
1	0x3edb80dd	0.42871752
2	0x3e131048	0.1436168
3	0x3e924e2e	0.2857527
4	0x3e32223e	0.17395875
5	0x3e02c32a	0.12769762
6	0x3e78ff64	0.24316174
7	0x3eb2bfa8	0.34911847
8	0x3e95312d	0.2913908
9	0x3ea508d6	0.32233304
10	0x3ea75d6a	0.32688457
11	0x3eba3b2c	0.3637327
12	0x3e99535f	0.2994642
13	0x3eb90aec	0.36141145
14	0x3e7f3750	0.24923444
15	0x3ea13b6c	0.31490648
16	0x3ead845e	0.3389005
17	0x3d3efef0	0.046629846
18	0x3eb550ae	0.35413116
19	0x3e932e11	0.28746083
20	0x3e95e7d3	0.2927843
21	0x3e9db7a4	0.3080417
22	0x3cf57472	0.029962752
23	0x3e74e180	0.23914146
24	0xbbb05fa3	-0.0053824945
25	0x3dc0394b	0.09385928
26	0x3e73c05a	0.23803845
27	0x3e642fd5	0.22283871
28	0xbc8299db	-0.015942505
29	0x3e83bf53	0.25731906
30	0x3d5cf46e	0.053944044
31	0x3e12e75a	0.14346066
32	0x3ddae430	0.106880546
33	0x3e684f6e	0.2268655
34	0x3dcf887c	0.10133454
35	0x3d51764a	0.0511382
36	0x3d9cc9af	0.076556556
37	0x3e443c7b	0.19163696
38	0x3e3f9237	0.1870812
39	0x3e000110	0.12500405
40	0xbd899d16	-0.06719415
41	0x3e1a4796	0.1506637
42	0xbd09b1e9	-0.033616934
43	0xbd0e0e1d	-0.03468143
44	0xbe4c9392	-0.19978169
45	0x3d205d01	0.039151195
46	0xbdee4528	-0.11634284
47	0xbc82d3aa	-0.01597007
48	0xbdf4f78c	-0.11961278
49	0xbd958623	-0.07300975
50	0x3e094c34	0.13407975
51	0x3e819132	0.25306088
52	0xbb9e3662	-0.0048282603
53	0x3e0ac06f	0.1354997
54	0xbcd9d0c4	-0.026588805
55	0x3d81bd9d	0.06334994
56	0x3d0f219b	0.034944158
57	0xbcbc35b5	-0.022974828
58	0x3dfcc783	0.12342741
59	0xbdba5ebc	-0.091001004
60	0x3e887f1f	0.26659486
61	0x3f069f78	0.5258708
62	0x3e982430	0.2971511
63	0x3ede660e	0.43437237
64	0x3efa477b	0.4888266
65	0x3ed58e06	0.41709918
66	0x3edfc210	0.43702745
67	0x3ecaf3b7	0.39639065
68	0x3e79f301	0.24409105
69	0x3e5376b7	0.20650755
70	0x3eee47a2	0.46539026
71	0x3e9b8c6d	0.30380574
72	0x3e8db838	0.2767961
73	0x3ebfbcda	0.3744877
74	0x3ee1e75d	0.4412183
75	0x3e82b48a	0.25528365
76	0x3e909cff	0.2824478
77	0x3ee38c00	0.4444275
78	0x3ec28ad2	0.37996536
79	0x3eb48ae4	0.35262215

linear1.weight f4 [6, 20]
0	0x3f0efb4e	0.5585221
1	0x3f003712	0.5008403
2	0xbf34be94	-0.706033
3	0xbf1b3d6b	-0.6064059
4	0x3ed4e15a	0.4157818
5	0xbf5f232f	-0.8716306
6	0x3d8a6c99	0.067589946
7	0x3f265edd	0.649885
8	0xbf523fd8	-0.8212867
9	0x3e5310f5	0.20611937
10	0xbf2ce075	-0.67529994
11	0x3e98d7ca	0.29852134
12	0xbc50e9a7	-0.01275102
13	0xbf5de9c1	-0.86684805
14	0x3edb165d	0.427905
15	0xbf1283d7	-0.5723242
16	0x3f28da74	0.65958333
17	0x3ecdd977	0.40204975
18	0x3e4d00ce	0.20019838
19	0xbf17a999	-0.5924316
20	0x3fbf8b59	1.49644
21	0xbea2f7f6	-0.31829804
22	0x3e7856bb	0.24251835
23	0x3ec216e1	0.3790808
24	0xbeecb6cb	-0.4623321
25	0xbf04c5f8	-0.51864576
26	0xbeb58e26	-0.35460013
27	0x3f8a7704	1.0817571
28	0xbe3ac3cc	-0.18238753
29	0xbf13efe3	-0.57787913
30	0x3f8be3f1	1.0928937
31	0xbedd2b57	-0.43197128
32	0x3e92ef9c	0.28698432
33	0x3f6dcbcf	0.9288911
34	0xbf4d47ab	-0.8018748
35	0xbf2d64d9	-0.67732006
36	0x3f96bc85	1.1776282
37	0x3ecd685b	0.4011868
38	0xbf850e09	-1.0394908
39	0x3ec5dcb2	0.3864494
40	0xbf2a712f	-0.66578954
41	0x3e3df8fe	0.18552014
42	0xbf3539d6	-0.70791376
43	0x3f2fe05c	0.6870172
44	0x3e0828ac	0.13296765
45	0xbf19bfeb	-0.6005847
46	0xbdacd922	-0.08439852
47	0x3d22a916	0.039712034
48	0xbf1b0a3a	-0.6056248
49	0x3f202c61	0.62567717
50	0x3d41ce40	0.047315836
51	0x3f516b38	0.8180423
52	0xbecc7e35	-0.39940038
53	0x3f51ebe2	0.82000554
54	0xbeac1dc7	-0.33616468
55	0x3f3cf83b	0.7381627
56	0x3f8cb0d2	1.0991461
57	0xbf12e20d	-0.57376176
58	0x3d88b55e	0.06675218
59	0x3f02db5b	0.5111596
60	0x3f19bed3	0.600568
61	0xbf20f670	-0.62876034
62	0x3f0547af	0.52062505
63	0xbf2432d5	-0.64140064
64	0x3e5b857d	0.2143764
65	0xbf14112e	-0.57838714
66	0x3ef520db	0.4787663
67	0xbe8b9553	-0.27262363
68	0xbec50faf	-0.38488528
69	0xbf238316	-0.63871896
70	0x3e440c53	0.19145326
71	0x3efbac14	0.49154723
72	0xbef212be	-0.47279924
73	0x3ed0e3d7	0.40798828
74	0xbec2aa86	-0.38020724
75	0x3ecfd859	0.40594748
76	0xbeb1655d	-0.34647647
77	0xbf095b7e	-0.5365523
78	0x3f046e86	0.51731145
79	0xbed64565	-0.4184982
80	0x3f28819c	0.6582277
81	0xbf5b8b93	-0.8575985
82	0xbdcc1723	-0.099653505
83	0xbeb82512	-0.35965782
84	0x3f29587c	0.6615064
85	0x3f1ac37a	0.60454524
86	0xbf697a4a	-0.91202223
87	0xbefe8273	-0.497089
88	0x3e34bd69	0.17650379
89	0x3f095c8f	0.5365686
90	0xbf10abf8	-0.56512403
91	0x3cc45061	0.023964109
92	0xbe99dbc5	-0.30050483
93	0xbf3da9ea	-0.74087393
94	0xbf65403b	-0.8955113
95	0xbeebb15f	-0.4603376
96	0x3ec332bd	0.38124648
97	0xbf363f5d	-0.71190435
98	0x3e5bfa6f	0.21482252
99	0x3f6c9a86	0.92423284
100	0x3e02d99a	0.12778321
101	0x3e6744ba	0.22584811
102	0xbf2fe988	-0.68715715
103	0xbde2d60e	-0.11075984
104	0xbf3a9b69	-0.7289339
105	0xbcf98973	-0.030461049
106	0x3f154e8c	0.5832298
107	0x3f0f35d9	0.5594154
108	0xbe404c81	-0.18779184
109	0x3ebf463d	0.37358275
110	0x3f0b08bf	0.5431022
111	0xbeefde9f	-0.46849534
112	0xbf35e4b4	-0.710521
113	0xbec3d40e	-0.38247722
114	0xbef2c8c5	-0.474188
115	0xbed81168	-0.4220078
116	0xbf3930af	-0.7233991
117	0xbf0d4d9b	-0.5519654
118	0x3e9ca83c	0.30597103
119	0x3f020075	0.5078195

linear1.bias f4 [6]
0	0xbde16acd	-0.11006699
1	0xbdd211ab	-0.10257276
2	0xbe6c21f9	-0.23059835
3	0x3bfe7c9c	0.0077663194
4	0x3dacc608	0.08436209
5	0xbdf0589d	-0.11735652
