LSTM_torch/models/vanilla/model_sl_5_bs_64_hs_5_ep_100_tol_1e-05_r_tensor([4., 4.])_thd_tensor([10., 10.]).pth (torch, 2339 bytes, 5 tensors)

lstm.weight_ih_l0 f4 [20, 2]
0.45295182 0.13723728 0.36823615 0.11958725 0.17789993 0.13927884 0.3783691 0.13915867
-0.1304735 0.18407986 0.00053221534 -0.00034259286 0.0017159553 0.0002786725 -0.0019789143 -0.0017462685
-0.0022946668 -0.0023602142 -0.0017512891 -2.171488e-05 -0.29175645 -0.065083764 0.15584588 0.056194812
-0.36853674 -0.06547625 0.30230933 0.06297838 -0.029355621 -0.12225081 0.20210278 0.18016711
0.19887975 0.17432755 0.20075086 0.20078331 0.20023315 0.17898326 0.19773363 0.18183093
00000000: 4de9 e73e ee87 0c3e 7389 bc3e 29ea f43d
00000010: 662b 363e 1d9f 0e3e 98b9 c13e 9c7f 0e3e
00000020: d89a 05be 6e7f 3c3e 5e84 0b3a 099e b3b9
00000030: e8e9 e03a ca1a 9239 acb0 01bb 0ce3 e4ba
00000040: 1f62 16bb d3ad 1abb 838b e5ba 5a28 b6b7
00000050: 1a61 95be a34a 85bd 1096 1f3e 882c 663d
00000060: d9b0 bcbe 6a18 86bd 4ac8 9a3e cffa 803d
00000070: 337b f0bc a25e fabd 08f4 4e3e ba7d 383e
00000080: 22a7 4b3e ec82 323e a291 4d3e 249a 4d3e
00000090: eb09 4d3e 6347 373e af7a 4a3e e331 3a3e

lstm.weight_hh_l0 f4 [20, 5]
-0.5377821 0.77795005 -0.780341 0.779993 -0.7801354 -0.46519297 0.7813551 -0.6206683
0.46978596 0.22361137 -0.42545167 0.7821393 -0.61598974 0.78242433 0.33420417 -0.37760794
0.12920187 -0.7816354 0.78084815 -0.7795056 -0.78245765 0.779427 -0.78232586 0.78227663
0.4536097 0.00136826 0.0022896426 0.0018197199 0.0013317 0.0011376633 0.0011707188 -0.0013156285
-0.0013795991 -0.00010885859 0.00092783745 7.3266034e-05 -0.0009979622 0.0012067729 -0.002004862 -0.001061808
0.0014933355 -0.0011477899 -0.00045125006 0.00083641516 0.0005391396 0.0018310442 -0.0011106622 0.0013584482
0.00028335987 -0.0005666357 -0.00010138835 -0.00029464395 -3.5533096e-05 -0.00013038472 -3.8020404e-05 2.9354573e-05
-0.00010170627 6.9935144e-05 -0.0002036156 3.887002e-05 -0.00010983714 -5.045635e-05 0.00010994613 -1.7011456e-05
0.0002549454 -0.00018212665 -0.00020551417 -1.3221327e-05 -0.000118837015 1.3536641e-06 0.00040562285 0.00012705753
0.00017510288 -0.00011531021 6.6214925e-06 -0.20204471 0.20192653 -0.20105058 0.20098211 -0.19530039
-0.20140465 0.20101891 -0.20142695 0.20123705 -0.20270753 -0.20144494 0.20088752 -0.20033494
0.20196061 -0.058265343 -0.20103988 0.20177382 -0.20152164 0.20161021 -0.19442019 -0.20113179
0.20132367 -0.20058541 0.20139244 -0.19617455
00000000: 16ac 09bf bc27 473f 6ec4 47bf 9fad 473f
00000010: f4b6 47bf c62d eebe e306 483f 1ee4 1ebf
00000020: c987 f03e 61fa 643e cdd4 d9be 483a 483f
00000030: 81b1 1dbf f64c 483f cf1c ab3e d455 c1be
00000040: 7f4d 043e 4219 48bf aae5 473f ae8d 47bf
00000050: 254f 48bf 8788 473f 8246 48bf 4843 483f
00000060: 883f e83e 3057 b33a d40d 163b ab83 ee3a
00000070: 708c ae3a a51d 953a ce72 993a 2b71 acba
00000080: aad3 b4ba 034b e4b8 1e3a 733a 67a6 9938
00000090: 0ece 82ba 942c 9e3a 0164 03bb 5d2c 8bba
000000a0: 06bc c33a 7071 96ba c295 ecb9 df42 5b3a
000000b0: 0c55 0d3a a6ff ef3a a493 91ba f50d b23a
000000c0: eb8f 9439 478a 14ba 75a0 d4b8 717a 9ab9
000000d0: 5f09 15b8 e2b7 08b9 1978 1fb8 773e f637
000000e0: 234b d5b8 25aa 9238 a581 55b9 5e08 2338
000000f0: 5e58 e6b8 18a1 53b8 e192 e638 d3b3 8eb7
00000100: 31aa 8539 40f9 3eb9 4a7f 57b9 2bd1 5db7
00000110: 2338 f9b8 8baf b535 c7a9 d439 bf3a 0539
00000120: d29b 3739 b3d2 f1b8 302e de36 cfe4 4ebe
00000130: d4c5 4e3e 34e0 4dbe 41ce 4d3e d3fc 47be
00000140: 053d 4ebe e7d7 4d3e de42 4ebe 1611 4e3e
00000150: 9092 4fbe 9547 4ebe 75b5 4d3e 9a24 4dbe
00000160: c3ce 4e3e a4a7 6ebd 66dd 4dbe cc9d 4e3e
00000170: b05b 4ebe e872 4e3e 1616 47be 7ef5 4dbe
00000180: cb27 4e3e 4366 4dbe d239 4e3e fbe1 48be

lstm.bias_ih_l0 f4 [20]
0.49847656 0.60147864 0.084575064 0.21359885 0.4037995 0.1602559 0.23172589 -0.024093885
-0.39698517 -0.22885768 -1.029946 0.8406548 -0.7720899 0.86634904 -1.1013024 0.38115314
0.038575314 -0.09155934 0.08290227 0.07342133
00000000: 5238 ff3e 81fa 193f b135 ad3d a8b9 5a3e
00000010: cfbe ce3e 1f1a 243e 8d49 6d3e 8a60 c5bc
00000020: a441 cbbe ab59 6abe 45d5 83bf 2735 573f
00000030: afa7 45bf 0dc9 5d3f 7af7 8cbf 8126 c33e
00000040: 2601 1e3d 7783 bbbd aac8 a93d ec5d 963d

lstm.bias_hh_l0 f4 [20]
-0.07003762 0.18072407 0.4140862 0.34457654 0.37857312 -0.16073619 -0.23225957 0.0224895
0.3970824 0.22699234 -0.8431954 0.3207481 -0.8113643 0.8697353 -1.4221709 -0.18389848
0.15994067 0.29382622 0.11859635 0.12562235
00000000: e26f 8fbd bb0f 393e 1b03 d43e 566c b03e
00000010: 56d4 c13e 0798 24be 74d5 6dbe e63b b83c
00000020: 624e cb3e ae70 683e a7db 57bf 1839 a43e
00000030: 92b5 4fbf f9a6 5e3f b209 b6bf e24f 3cbe
00000040: 7dc7 233e 6470 963e a5e2 f23d 25a3 003e

linear1.weight f4 [1, 5]
-1.5063151 1.9201941 -1.635672 1.6917737 -1.9060822
00000000: efce c0bf ecc8 f53f b35d d1bf 0a8c d83f
00000010: 80fa f3bf
