LSTM_torch/models/pHdata/curriculum_None/relu/model_sl_10_bs_64_hs_5_ep_100_tol_-0.001_gm_[4,4]_thd_[4,4].pth (torch, 2855 bytes, 5 tensors)

lstm.weight_ih_l0 f4 [20, 2]
0.20067732 0.0014293314 0.27932695 -0.27968702 0.17440394 -0.020318042 0.26580998 -0.27970436
0.19766322 0.015580097 -0.0005984274 -0.0015139261 -0.00056284317 0.0012417623 -0.0016608854 0.00078507443
-0.0014694816 0.0017005065 0.0015731701 0.001381606 -0.47064647 -0.03811541 -0.33778563 -0.1931814
-0.39274585 -0.053278558 0.46529582 0.25908592 -0.438718 -0.038892917 0.0013174261 0.00046427536
0.0008324184 -0.0008561144 -0.0015517642 -0.0016444538 -0.0008818686 7.8541874e-05 -0.00075688015 -0.00014773282
00000000: 5b7e 4d3e 6758 bb3a f103 8f3e 2333 8fbe
00000010: f296 323e 0672 a6bc 3f18 883e 6935 8fbe
00000020: 3a68 4a3e aa43 7f3c c8df 1cba ee6e c6ba
00000030: c48b 13ba a1c2 a23a 11b2 d9ba 74cd 4d3a
00000040: 9f9b c0ba 88e3 de3a d432 ce3a 0117 b53a
00000050: 93f8 f0be e71e 1cbd 3df2 acbe 58d1 45be
00000060: fc15 c9be 9e3a 5abd 413b ee3e e9a6 843e
00000070: a59f e0be 2e4e 1fbd 7cad ac3a fc69 f339
00000080: a736 5a3a dd6c 60ba 9164 cbba b78a d7ba
00000090: 332d 67ba d9b6 a438 5e69 46ba bae8 1ab9

lstm.weight_hh_l0 f4 [20, 5]
-0.0280809 -0.008483723 -0.020781238 -0.020586288 -0.2583503 -0.03631333 -0.003430903 -0.017703021
-0.020079242 -0.09049716 -0.031784423 -0.0006394364 -0.01727147 -0.030438386 -0.027077025 0.010258861
0.019068183 0.021323659 -0.027053444 0.014757492 -0.030085718 -0.008383509 -0.021259258 -0.017680619
-0.02738051 -0.00126637 -0.0012196203 -0.00012321463 0.0012043572 -0.001060023 -0.0012219538 -0.0008852396
0.001440825 0.0006956198 -0.0012640859 -0.0010748665 -0.0003019263 -0.00077807653 -0.000530303 -0.0010823376
-0.0006146637 0.0012818831 -0.00092298345 -0.00053532794 0.0010430973 -0.0012330876 -0.0011399633 -0.00074491155
-0.0007851969 -0.0013285268 8.1062026e-05 -1.2272167e-05 3.3700955e-05 0.00013639493 1.519057e-06 -4.0539704e-05
2.4616209e-05 -2.5458497e-05 -0.00013262476 4.422789e-06 0.0002972726 -0.00023120047 4.1979576e-05 -0.0002519676
-6.9824578e-06 0.0002649971 -0.0002038168 -0.00022006173 -0.00015693753 0.00013045613 0.00011560245 -1.4576358e-05
-5.5908025e-05 8.663776e-05 0.00017057125 0.0007599356 -0.00034646224 -0.00051637145 5.5169596e-05 0.0013971588
-0.0017618202 -0.0013762891 -0.0010533939 -0.00019635307 -0.00057909003 0.00063149753 -0.0016928295 -0.000119192424
0.0015095673 0.00021626681 -0.0015934076 -0.0016731017 -0.00018224285 0.0015164485 0.00052144146 -0.00096274883
0.0003781469 -0.0008943174 0.00077635545 0.0014775767
00000000: ea09 e6bc 50ff 0abc 6a3d aabc 93a4 a8bc
00000010: 7e46 84be 49bd 14bd 00d9 60bb ed05 91bc
00000020: 397d a4bc 9356 b9bd 6230 02bd da9f 27ba
00000030: e67c 8dbc ec59 f9bc a3d0 ddbc c814 283c
00000040: e134 9c3c f4ae ae3c 2f9f ddbc 68c9 713c
00000050: 5376 f6bc fc5a 09bc e527 aebc f2d6 90bc
00000060: 174d e0bc 53fc a5ba abdb 9fba 2d33 01b9
00000070: 86db 9d3a 78f0 8aba f729 a0ba 6d0f 68ba
00000080: 11da bc3a 415a 363a afaf a5ba 89e2 8cba
00000090: dd4b 9eb9 d5f7 4bba 0804 0bba 39dd 8dba
000000a0: 6221 21ba dc04 a83a 5ff4 71ba 4055 0cba
000000b0: 8ab8 883a 8e9f a1ba d26a 95ba 2b46 43ba
000000c0: acd5 4dba f621 aeba d8ff a938 8ee4 4db7
000000d0: 205a 0d38 3c05 0f39 67e2 cb35 2d09 2ab8
000000e0: e87e ce37 b58f d5b7 3011 0bb9 7867 9436
000000f0: 41db 9b39 676e 72b9 3a13 3038 851a 84b9
00000100: db4a eab6 4fef 8a39 a8b7 55b9 5fc0 66b9
00000110: 998f 24b9 0dcb 0839 986f f238 fb8c 74b7
00000120: c97e 6ab8 4bb1 b538 5fdb 3239 6a36 473a
00000130: 60a5 b5b9 1a5d 07ba e765 6738 df20 b73a
00000140: e0ec e6ba 9964 b4ba 0912 8aba 20e4 4db9
00000150: 13ce 17ba 158b 253a efe1 ddba f2f6 f9b8
00000160: acdc c53a aec5 6239 e3d9 d0ba fa4b dbba
00000170: 7118 3fb9 91c3 c63a 58b1 083a fb60 7cba
00000180: 0542 c639 a070 6aba 5584 4b3a 3fab c13a

lstm.bias_ih_l0 f4 [20]
-0.118000485 -0.18283135 0.04253516 0.3169643 0.44243887 -0.22016157 0.16816513 0.07300998
-0.10476026 -0.13825923 0.32358158 -0.0077547994 0.18170896 0.21809599 0.27152497 0.05927213
-0.007243318 -0.118617795 -0.21031173 0.19052216
00000000: 3daa f1bd 2438 3bbe 5939 2e3d 2549 a23e
00000010: 5987 e23e 0972 61be 7b33 2c3e 4286 953d
00000020: 8c8c d6bd d493 0dbe 7cac a53e f91b febb
00000030: ea11 3a3e 8e54 5f3e 5205 8b3e 55c7 723d
00000040: 5b59 edbb e3ed f2bd f55b 57be 3e18 433e

lstm.bias_hh_l0 f4 [20]
0.39755002 -0.09684173 0.23713161 -0.03734214 -0.16297685 0.22019878 -0.16599566 -0.07228025
0.10506261 0.1393635 0.32387963 -0.0077486834 0.18141149 0.21817817 0.27235955 -0.06047958
0.005582819 0.116702266 0.21114881 -0.1895148
00000000: ad8b cb3e f554 c6bd a1d2 723e 12f4 18bd
00000010: 67e3 26be ca7b 613e c4fa 29be ab07 94bd
00000020: 112b d73d 4eb5 0e3e 8dd3 a53e abe8 fdbb
00000030: efc3 393e 196a 5f3e b672 8b3e 70b9 77bd
00000040: 15f0 b63b 9901 ef3d 6537 583e 2b10 42be

linear1.weight f4 [1, 5]
-1.1917056 -0.96163195 -1.1077384 1.1878071 -1.0669286
00000000: cf89 98bf 832d 76bf 5fca 8dbf 100a 983f
00000010: 1e91 88bf
