LSTM_torch/models/pHdata/curriculum_None/relu/model_sl_10_bs_64_hs_5_ep_100_tol_-0.001_gm_[3,3]_thd_[6,6].pth (torch, 2855 bytes, 5 tensors)

lstm.weight_ih_l0 f4 [20, 2]
0.14057028 0.26266557 0.14126961 0.2888109 0.15844728 -0.18032716 0.12745802 -0.06672408
0.15052855 -0.060758103 -0.0006514497 -0.0013458326 0.0004366684 0.00018862978 0.00020540405 -0.001262636
0.0006313766 0.0008377872 0.00027221386 0.00090981903 -0.5590779 -0.009616798 0.3913334 0.067351334
-0.4060416 -0.34229812 -0.3484007 -0.13566169 0.3879715 0.072776906 0.0011953773 0.0021104258
-0.00146516 -0.000103731276 0.0010795895 -0.0002277554 -0.0009934832 0.0016934569 0.0017554025 -0.00060819817
00000000: a8f1 0f3e 1a7c 863e fba8 103e 06df 933e
00000010: 0140 223e afa7 38be 5b84 023e a2a6 88bd
00000020: 2824 1a3e 7ddd 78bd 0dc6 2aba a666 b0ba
00000030: a4f0 e439 ecca 4539 bb61 5739 097f a5ba
00000040: f782 253a f39e 5b3a edb7 8e39 ec80 6e3a
00000050: bb1f 0fbf c68f 1dbc da5c c83e 7fef 893d
00000060: afe4 cfbe b341 afbe 9461 b2be e6ea 0abe
00000070: 33a4 c63e 0f0c 953d 35ae 9c3a 124f 0a3b
00000080: 9d0a c0ba 4e8a d9b8 0381 8d3a a0d1 6eb9
00000090: c437 82ba fcf6 dd3a 8915 e63a 7d6f 1fba

lstm.weight_hh_l0 f4 [20, 5]
-0.014361414 0.037813827 0.029298015 -0.0009404914 0.003170658 -0.037489418 0.031109754 0.034323078
0.0059928373 0.005124045 -0.017691443 0.019508557 0.026660237 0.02028881 -0.014895483 -0.036059693
0.025077552 0.02862729 0.0072102244 0.003450353 -0.30335185 0.03474954 0.034983598 0.0035215039
0.009366415 -0.0010517999 0.001128086 -0.0009727827 -0.0010704366 0.0012685877 0.00071892317 -0.0011240629
-0.0003330277 -0.0011621136 0.00058998045 -0.00029438557 0.0012260902 -0.0002828332 0.00023978305 -0.0009985545
-0.0011050206 0.0010003843 -0.00067663164 -0.0008131838 0.0010515265 -0.0010678518 -0.00047231113 0.00025122397
-0.00024148072 0.001000548 -7.611444e-06 -1.6374039e-05 0.00035929278 4.846866e-05 -0.00028942776 -8.6227294e-05
-0.00016045876 3.6393314e-05 2.902559e-05 0.0001382542 0.00024433603 0.000100910205 0.00019284729 -6.2766165e-05
-2.448438e-05 8.1775615e-05 0.00022125091 1.1773096e-05 -8.7424916e-05 -6.948955e-05 -3.846887e-06 4.6327546e-06
3.742438e-05 0.00010478064 -0.00017248541 -0.0001082003 0.00040401932 -0.00012417382 -0.00048667137 -0.0020377545
0.0004165747 0.0017276356 0.001687018 0.0014838318 0.0013997564 -0.001781605 -0.0007128553 -0.000139334
-0.0016092883 0.001238708 -0.0018595584 0.00085540046 0.0010989523 -0.0017913476 -0.00061770075 -0.0013627115
-0.0006506841 -0.0017522232 0.0003348293 0.0016664075
00000000: 234c 6bbc ace2 1a3d 6402 f03c 4f8b 76ba
00000010: d0ca 4f3b 818e 19bd e2d9 fe3c 5b96 0c3d
00000020: 905f c43b 9be7 a73b a5ed 90bc 69d0 9f3c
00000030: 9266 da3c b834 a63c 2f0c 74bc 54b3 13bd
00000040: 706f cd3c c783 ea3c bf43 ec3b 511f 623b
00000050: ef50 9bbe 8955 0e3d f64a 0f3d 08c9 663b
00000060: 9875 193c 8cdc 89ba 49dc 933a 5802 7fba
00000070: e44d 8cba bd46 a63a 1e76 3c3a 4b55 93ba
00000080: 399a aeb9 1052 98ba eba8 1a3a c357 9ab9
00000090: c3b4 a03a 3b49 94b9 466e 7b39 eee1 82ba
000000a0: 57d6 90ba 541f 833a fb5f 31ba d72b 55ba
000000b0: 60d3 893a 29f7 8bba 87a0 f7b9 b6b6 8339
000000c0: fd35 7db9 d224 833a ce65 ffb6 fb5a 89b7
000000d0: 765f bc39 d44a 4b38 56be 97b9 edd4 b4b8
000000e0: d240 28b9 06a5 1838 fb7b f337 54f8 1039
000000f0: 3a1a 8039 c19f d338 0d37 4a39 54a1 83b8
00000100: ce63 cdb7 f37e ab38 97ff 6739 1085 4537
00000110: e557 b7b8 ebba 91b8 8214 81b6 0f73 9b36
00000120: 1ff8 1c38 aebd db38 33dd 34b9 98e9 e2b8
00000130: 8ed2 d339 a834 02b9 ed27 ffb9 d98b 05bb
00000140: b667 da39 d571 e23a ee1e dd3a 227d c23a
00000150: 0878 b73a be84 e9ba e9de 3aba 301a 12b9
00000160: c1ee d2ba 255c a23a 6dbc f3ba f43c 603a
00000170: b80a 903a a7cb eaba 32ed 21ba 039d b2ba
00000180: ac92 2aba dbaa e5ba 078c af39 5b6b da3a

lstm.bias_ih_l0 f4 [20]
0.2264644 -0.11813586 0.15097354 0.07803971 -0.07764805 -0.019441461 -0.03259481 -0.10038335
0.04722758 0.11015953 0.4117558 -0.14585973 -0.24452879 0.02016566 -0.14854343 -0.097600885
-0.08638946 -0.08679799 0.030947916 -0.065445006
00000000: 49e6 673e 37f1 f1bd cf98 1a3e 49d3 9f3d
00000010: f105 9fbd b343 9fbc 2382 05bd c995 cdbd
00000020: b571 413d 529b e13d a8d1 d23e 415c 15be
00000030: c165 7abe 7432 a53c c51b 18be f9e2 c7bd
00000040: f5ec b0bd 25c3 b1bd 7c86 fd3c 0808 86bd

lstm.bias_hh_l0 f4 [20]
0.07681082 -0.18530093 0.15097378 0.22537152 0.38098818 0.019522216 0.03401429 0.10085848
-0.04758613 -0.11050451 0.41640666 -0.14615186 -0.24752603 0.021106176 -0.14621803 0.095873244
0.08542163 0.08703937 -0.032993767 0.06654218
00000000: fe4e 9d3d 87bf 3dbe df98 1a3e cbc7 663e
00000010: e210 c33e 0eed 9f3c 9152 0b3d e48e ce3d
00000020: ade9 42bd 3050 e2bd 4133 d53e d5a8 15be
00000030: 7777 7dbe dce6 ac3c 2eba 15be 3159 c43d
00000040: 89f1 ae3d b241 b23d 7924 07bd 4447 883d

linear1.weight f4 [1, 5]
-1.3420535 0.9683902 -1.2505018 -0.92420954 1.1191889
00000000: 69c8 abbf 6ce8 773f 7110 a0bf ff98 6cbf
00000010: 9541 8f3f
