LSTM_torch/models/pHdata/curriculum_None/relu/model_sl_10_bs_64_hs_10_ep_100_tol_-0.001_gm_[8,8]_thd_[5,5].pth (torch, 4332 bytes, 5 tensors)

lstm.weight_ih_l0 f4 [40, 2]
00000000: 9e16 3a3e b37d b93c a37a 013e 9717 3abe
00000010: a85a f63d 83fd 7abc 2c12 2d3e 095c ad3d
00000020: 85bf df3d 3e0e 3a3e 144b 113e fe8a 343c
00000030: 23c5 153e d60e 5c3c cff8 b43d 1e18 82bd
00000040: eadc 013e 34c3 a0bb 827b f73d 46c5 0bbc
00000050: 5161 8fba 0769 973a 0aee 823a f1e5 a2b9
00000060: 28e8 16ba 1578 4d3a 7e6a 5a3a 1566 123a
00000070: faca 523a d434 503a d715 98ba 0aa9 073a
00000080: 8383 383a 823f 953a 4a88 943a 1e5a 81b9
00000090: 253f 993a 5a52 8c3a bfe1 993a ba2e 363a
000000a0: b297 a63e 04c6 053c 7e39 75be 97d4 8fbe
000000b0: dd8d 843e 0fd9 a93d 5895 da3e 881d 20bd
000000c0: 46b5 97be 30d8 8cbc dd6c 933e 5746 283d
000000d0: 9bb8 93be e0ea 20bd df03 683e 042d 423e
000000e0: add4 863e eb9b 8e3d 9011 83be c74d a0bd
000000f0: 683c f83a 720f 06bb cc62 b93a ddba c6b9
00000100: 2079 0c3b e7b0 ca3a 5fa2 bcba 2059 0c3b
00000110: e125 073b 8341 0f3b 4097 b1ba 4c1d c23a
00000120: a23f 913a 51ff 093b ddc1 b03a 8310 d73a
00000130: fd35 11bb 5611 a6ba 7558 193b a97b 1c3a
0.1817269 0.022642946 0.12644438 -0.18173061 0.1202901 -0.015319231 0.16901463 0.0846482
0.10925201 0.18169495 0.14188796 0.011019466 0.14625983 0.013431272 0.08836519 -0.06352256
0.12681928 -0.0049060825 0.12084104 -0.00853092 -0.0010939037 0.0011551686 0.0009989154 -0.00031070368
-0.000575664 0.0007838023 0.00083319086 0.00055846694 0.000804111 0.00079424423 -0.0011603188 0.000517503
0.000703864 0.0011386725 0.0011332121 -0.0002467194 0.0011691792 0.0010705695 0.0011740251 0.0006949712
0.3253761 0.008164886 -0.23947713 -0.2809188 0.25889483 0.08293354 0.42692065 -0.039090663
-0.29630488 -0.01719293 0.28793994 0.041082706 -0.2885178 -0.039286494 0.22657727 0.18962485
0.26334134 0.06963333 -0.25599337 -0.07827335 0.0018938901 -0.0020455983 0.0014143824 -0.00037904727
0.00214345 0.0015464098 -0.0014391652 0.0021415427 0.0020621943 0.0021859116 -0.0013549104 0.0014809757
0.0011081586 0.0021056721 0.001348551 0.0016408119 -0.0022157424 -0.0012669961 0.0023398672 0.00059693545

lstm.weight_hh_l0 f4 [40, 10]
00000000: fa77 c93c 13e9 db39 5997 8c3c 2f26 f43c
00000010: 9943 d2bc ec3c a83c a40f a7bc 308b 193c
00000020: e180 963c a47b 92bc 1a53 493c 05d8 213c
00000030: 7550 443b e3fa ad3c 8885 54bc a013 e73b
00000040: 1478 d7bb e2e0 39be 3b10 883b 8a5d 60bb
00000050: d78e 393e c316 3a3e 206c 253c 22e8 e93c
00000060: 0c10 a3bc 9deb 6e3c aeae 6bbc c29e 073a
00000070: 83a8 393c c3b9 2dbc 23a6 0b3d 2612 5fbc
00000080: ac10 f93c 8a19 103d 3c8d 18bd 4e2c 033d
00000090: b1c4 02bd 6860 39be 13fd ff3c b239 00bd
000000a0: 46bc 9a3c d1b9 a63b ee4e 3b3c c71f c83c
000000b0: 9f03 a1bc fb99 723c 640c 70bc 73c2 6d3b
000000c0: 55cb 4c3c 4369 44bc 2d2f be3c e488 583b
000000d0: d847 6c3c 1d2d f93c 1a62 c0bc 8a1f 3a3e
000000e0: b615 95bc 212d 3abe 7afb 7e3c dd7f 74bc
000000f0: 7558 c23c abec 393b d02a 3abe 3a39 fc3c
00000100: 5927 c4bc a5a3 9a3c 30af 98bc 524d ca3b
00000110: f5f9 833c 5d3f 7dbc 0afa 483c f1ea 503c
00000120: 977a 283b e4de ab3c 0d5a 4bbc a570 e13b
00000130: 40bd d6bb 2cde cabb 5ed2 783b ce1e 40bb
00000140: 31f8 a93c a12e bd3b 4b9d 3b3c c9e6 e93c
00000150: 93c4 a9bc fe9c 7f3c b9f2 7bbc 6243 253b
00000160: a5fa 4e3c 23fe 42bc 2021 a53c 55c4 c53b
00000170: dd05 323c 272a e73c fc81 a3bc cad2 753c
00000180: 0ac9 72bc 35d2 fb3a 74e0 443c 41ae 38bc
00000190: f199 613a 0d18 5839 4e28 b939 1a3f a439
000001a0: 94b3 07ba 973f 10b9 15a0 5d39 dc47 383a
000001b0: 8dc3 82b9 2d83 173a 1f50 7b3a 60e6 10ba
000001c0: 915b a2ba 00bd f4b7 0b59 d839 6fbe 413a
000001d0: 208f 043a 6c91 a439 62b7 563a d430 c8b9
000001e0: c206 f1b9 87ff 363a 5945 40ba 4918 043a
000001f0: c0c5 4339 54d1 3dba 1789 86ba 25ba 6bb9
00000200: 9a81 973a ffa9 ca39 af2a 94ba f0ab a2ba
00000210: 7f23 3d3a 64ab 413a 0cc7 38ba 5ab0 2d3a
00000220: ec78 39ba fd60 833a 3412 313a bded 7dba
00000230: 3f28 52ba 4ae3 5038 db4a 4eb9 4949 a43a
00000240: 6aef 75ba 64c6 1a3a 1f31 bdb9 1273 433a
00000250: 2f0e ba39 1149 8eb9 c1e9 5a3a 6324 92ba
00000260: 4777 55ba 0d38 4d3a 9680 e239 01fc 593a
00000270: e0f4 98ba 90fa 33b7 2491 db39 4f48 1ab8
00000280: 04e7 2039 2db0 9fba 6d6b 693a 008a 413a
00000290: 90b5 7839 d3f2 dc39 22a6 06ba 5a0b d7b9
000002a0: d2dd 983a ff4c 4aba 3083 af39 7afd 90ba
000002b0: 98ea 9b3a 79dd 513a a0b2 223b 102f 0f3a
000002c0: b633 53b9 2bbe 683a 3066 a3ba 2654 99ba
000002d0: c0df 2839 4025 fc39 f5e2 a339 1a71 163a
000002e0: e39b d6b9 b538 703a 9396 e2b9 9b19 0b3a
000002f0: 5f49 0538 e22c 5439 8361 2e39 ad96 88bb
00000300: 4275 f8b9 e86a 6d3a aa99 97ba 1ef7 1e3a
00000310: e331 b436 2df3 63ba 59fa 3e3a fb6e 55ba
00000320: 6da5 87b8 d91e 8b39 b122 1239 3b4c 94b9
00000330: e2ee 78b8 a8dc c3b8 3f2d 1bb9 9a79 e039
00000340: d11e 2e36 24fb ceb8 2e0b 2838 a5a6 db37
00000350: 7a3c b5b8 dae8 7439 7a27 6d38 737c 9037
00000360: 9817 1cb8 11a6 d937 1281 5038 b174 ebb7
00000370: bd96 a439 f566 6bb6 09df 46b7 e665 35b9
00000380: 8ad9 e1b9 54c1 0fb9 496b 1439 2ba5 2a39
00000390: 9b32 c2b6 6040 15b9 e266 d9b9 f516 02b7
000003a0: 93c9 dcb9 2eb0 d337 2f3a 30b9 6a8f 54b8
000003b0: 1535 df39 c1cf 3cb8 112f 3eb9 c3e5 57b7
000003c0: 6b1c 8738 ce69 dcb9 b4cc b4b4 b7bc 08b9
000003d0: de2d c4b8 3ece 32b9 87f7 bd37 5fa1 0637
000003e0: 1314 7039 d44a bf39 87c0 2d38 6c5d 41b9
000003f0: e0cb 1c39 8f5c db38 64e5 6038 0e85 2537
0.024593342 0.0004194459 0.017162012 0.029803364 -0.025666999 0.020536862 -0.0203932 0.009371564
0.018372001 -0.017881222 0.012287879 0.009878163 0.0029955183 0.021237796 -0.012971289 0.0070519
-0.0065755937 -0.18152192 0.0041523254 -0.003423544 0.18120895 0.18172745 0.01009658 0.028553072
-0.019905113 0.014582542 -0.014384909 0.0005173498 0.01133168 -0.010603371 0.034093987 -0.013615167
0.030403458 0.035180606 -0.037244067 0.032024674 -0.03192586 -0.18103182 0.031248605 -0.031305023
0.018888604 0.005088069 0.0114323925 0.024429215 -0.019655047 0.01480722 -0.014651392 0.003627923
0.01249965 -0.011987987 0.023215855 0.0033040578 0.014421426 0.03041702 -0.023484278 0.18176094
-0.01819883 -0.18181278 0.015562886 -0.014923063 0.02372382 0.0028369825 -0.18180394 0.030789007
-0.023944544 0.01887686 -0.018638223 0.006173768 0.0161104 -0.0154570015 0.012266645 0.012751327
0.0025707835 0.020980306 -0.0124116065 0.0068798834 -0.006553322 -0.0061910357 0.0037967185 -0.0029315236
0.02074823 0.005773381 0.011451076 0.02855243 -0.020723617 0.015601395 -0.015377694 0.0025217165
0.0126330005 -0.011901411 0.020157397 0.0060353675 0.010865656 0.028218342 -0.019959442 0.015003869
-0.014818439 0.0019212427 0.012016404 -0.011272014 0.0008606008 0.00020608325 0.0003531598 0.00031327532
-0.00051766005 -0.00013756599 0.00021135838 0.0007029751 -0.0002494123 0.00057797396 0.0009586829 -0.00055274926
-0.0012386908 -2.9175077e-05 0.00041265073 0.00073907425 0.00050567277 0.00031388865 0.00081907783 -0.00038183352
-0.00045972137 0.00069808256 -0.00073345524 0.0005039019 0.00018670317 -0.000724097 -0.0010264245 -0.0002248069
0.001155901 0.000386551 -0.0011304225 -0.001241086 0.0007215067 0.0007387905 -0.0007048703 0.00066257047
-0.00070752087 0.0010023412 0.00067547266 -0.000968661 -0.00080168614 4.9802744e-05 -0.00019673577 0.0012534048
-0.0009381684 0.00059041963 -0.00036085487 0.00074558065 0.00035487252 -0.0002713879 0.0008350872 -0.001114976
-0.0008143079 0.00078284816 0.00043201883 0.00083154446 -0.0011669658 -1.072757e-05 0.00041879073 -3.6783804e-05
0.00015344849 -0.0012183242 0.00089042523 0.00073829293 0.0002371876 0.00042142588 -0.000513645 -0.00041016453
0.0011662787 -0.0007717162 0.00033476343 -0.001106187 0.0011895476 0.0008005719 0.0024825707 0.000546203
-0.00020141792 0.0008878435 -0.0012466367 -0.0011698052 0.00016105082 0.0004809294 0.0003125888 0.00057388993
-0.00040933405 0.00091637234 -0.00043218266 0.0005306245 3.1778003e-05 0.00020234616 0.00016630259 -0.0041683526
-0.0004738961 0.0009056763 -0.0011566181 0.0006064045 5.3702256e-06 -0.0008695599 0.00072852295 -0.00081418426
-6.4681146e-05 0.0002653513 0.00013936569 -0.00028285556 -5.9350285e-05 -9.339425e-05 -0.00014798807 0.0004281521
2.5945958e-06 -9.869624e-05 4.0064733e-05 2.6184434e-05 -8.642017e-05 0.00023356397 5.654197e-05 1.7224089e-05
-3.721527e-05 2.5945747e-05 4.971127e-05 -2.8068522e-05 0.00031392826 -3.5077658e-06 -1.1853649e-05 -0.00017299465
-0.00043077423 -0.00013709563 0.00014154347 0.00016273993 -5.787542e-06 -0.00014233729 -0.0004146612 -7.753949e-06
-0.00042111854 2.52352e-05 -0.00016806343 -5.0678304e-05 0.00042573424 -4.501618e-05 -0.00018137346 -1.2868494e-05
6.442595e-05 -0.000420405 -3.3676554e-07 -0.00013040272 -9.354552e-05 -0.00017052234 2.264582e-05 8.0245945e-06
0.00022895662 0.0003648611 4.142572e-05 -0.00018440717 0.00014953269 0.00010459974 5.36194e-05 9.865746e-06

lstm.bias_ih_l0 f4 [40]
00000000: 4d52 bf3d d898 d8bd 3338 713d 3da9 b8bd
00000010: 6226 a93d 5843 553e d8c4 10be c41b b73d
00000020: 74ad a13d d3e3 d03d 4b4d aabd 0fe4 183c
00000030: ec36 83be 22d1 273c 1a55 17bc d5f6 ba3c
00000040: 0170 e0bd 3f17 ba3c c8c3 543b e156 88bd
00000050: 9ed3 24be 3c00 08be 9a9f 57bd b5b1 8ebe
00000060: 5599 f73d 5c5a d1bd 52e0 cc3d 20a0 5b3d
00000070: b89d 81bd cf68 513d 126e f639 8842 c63a
00000080: 0e52 8e3d 31d4 05be 124c afbc b6ef c73b
00000090: 024b 623d 4ede 8dbc 203c 04bb 2d4e 613e
0.093418695 -0.10576028 0.058891486 -0.09016655 0.08259274 0.20826471 -0.1413759 0.08940843
0.07894412 0.10199704 -0.08315524 0.009331717 -0.2562784 0.010242732 -0.009236598 0.022822777
-0.10958863 0.022716163 0.0032465328 -0.06657196 -0.1609635 -0.1328134 -0.052642442 -0.27869955
0.12089793 -0.10222313 0.10003723 0.053619504 -0.063289106 0.051125344 0.00047002785 0.0015126029
0.069492444 -0.13069226 -0.021398578 0.006101574 0.055247314 -0.017317917 -0.002017744 0.22002478

lstm.bias_hh_l0 f4 [40]
00000000: 66e5 b43d 8a04 933e bd56 fb3d 84d4 8a3e
00000010: 1a25 a93d 0133 dabc 77b1 a33e df1b b73d
00000020: d3ae a13d 29f3 a23d 4eb8 ac3d 4c98 07bc
00000030: 6ac1 833e ffc4 43bc 1ecc 183c 0aaa c3bc
00000040: f0f0 e23d f691 b5bc 6e60 03bb a768 8a3d
00000050: 5313 25be a7ff 07be e28f 57bd a310 8fbe
00000060: 4c9a f73d df79 d1bd 31ff cc3d ee9f 5b3d
00000070: ce9d 81bd 7d6a 513d 4996 b337 c945 20bb
00000080: 7bb8 91bd 1771 043e 92e1 aa3c d473 9abb
00000090: 0ec5 59bd e14d 9e3c d3c7 9c3a afea 61be
0.08832817 0.287144 0.122724034 0.27115262 0.0825903 -0.026635649 0.31971332 0.08940863
0.07894673 0.07956535 0.08433591 -0.0082760565 0.257335 -0.011948823 0.009326009 -0.023884792
0.110811114 -0.022164326 -0.002004649 0.06758242 -0.16120653 -0.13281117 -0.05262745 -0.2794238
0.12089977 -0.10228323 0.100096114 0.053619318 -0.06328927 0.051126946 2.1408445e-05 -0.0024455658
-0.07115265 0.12933765 0.020859513 -0.004713515 -0.05316644 0.019324245 0.0011961408 -0.22062181

linear1.weight f4 [1, 10]
00000000: 8c1f 2f3f 1cd5 2fbf a0d6 1e3f 2f66 533f
00000010: aa6f 1ebf 7318 233f 0ac9 22bf ac83 1c3f
00000020: 020a 1b3f 26ef 18bf
0.6840751 -0.68684554 0.6204624 0.82577795 -0.61889136 0.6370918 -0.6358801 0.61138415
0.60562146 -0.5973991
