LSTM_torch/models/pHdata/curriculum_None/relu/model_sl_40_bs_128_hs_5_ep_50_tim_0.470_gm_[2,2]_thd_[0.222,0.222].pth (torch, 2890 bytes, 5 tensors)

lstm.weight_ih_l0 f4 [20, 2]
-0.34241754 -0.09445884 0.28801796 -0.061795324 0.31826764 0.13375539 0.19627666 0.051834647
0.21555695 -0.13912228 -0.0012319576 -0.0009584512 0.0032978281 -0.0038840263 0.0034556843 0.002516077
-0.0027708565 0.0025658 0.0018372369 -0.0009127918 0.37897104 0.06775368 -0.38625124 -0.2531828
-0.45750898 -0.0545552 -0.3571805 -0.21369496 0.3452795 0.33996347 -0.21272527 -0.21181992
0.2121701 0.12539786 0.21235764 0.20991778 0.21228433 0.21292204 0.20925976 -0.057201423
00000000: 5a51 afbe a373 c1bd 1777 933e 181d 7dbd
00000010: faf3 a23e 2cf7 083e c0fc 483e 9150 543d
00000020: f6ba 5c3e 1276 0ebe a379 a1ba 9240 7bba
00000030: 6020 583b 268b 7ebb c378 623b c4e4 243b
00000040: 4297 35bb fb26 283b 71cf f03a 6c48 6fba
00000050: 7e08 c23e 71c2 8a3d b9c2 c5be 2da1 81be
00000060: 9e3e eabe 4675 5fbd 5de0 b6be dad2 5abe
00000070: 7ac8 b03e b10f ae3e a7d4 59be 52e7 58be
00000080: 1e43 593e 4c68 003e 4874 593e b0f4 563e
00000090: 1061 593e 3c08 5a3e 3148 563e 0a4c 6abd

lstm.weight_hh_l0 f4 [20, 5]
-0.087428674 0.34235913 -0.13646848 -0.09977643 0.0347994 -0.089375824 -0.059053548 -0.20300533
-0.1409302 -0.33889887 -0.061558366 -0.104468435 -0.14071144 -0.13744478 0.07462184 -0.046074793
-0.3411989 -0.13840914 -0.10419246 0.050161805 -0.1034455 -0.07187144 -0.13088438 -0.094215296
0.041983962 -0.00034779246 0.00060028356 0.0045862743 0.0049682264 0.0027109785 0.0007973509 -0.003581657
-0.00018961696 -0.0006105267 -0.0018752957 0.002276738 -0.0034558417 -0.00094105164 0.0007581068 0.0027658995
-0.0028122207 0.0011796416 -0.0029167365 -0.0038674793 -0.0006862784 -0.0012546992 -0.002657321 -0.003471171
-0.0011195068 -0.0023135997 -1.7061171e-05 -0.0991667 -0.00041977028 0.00015877117 0.10111662 -0.00078811566
0.045395978 0.0006670317 -0.0014837837 -0.0008530755 -0.11421553 0.050551556 0.029931933 -0.12256651
0.00046081853 -0.0011119718 -0.0005124259 -0.0011166793 -0.006013792 0.06095776 0.00051713537 -0.12701184
0.001610916 0.0001722113 0.002057133 -0.20444945 -0.015144228 -0.074653216 -0.051292293 -0.21255492
-0.21222854 -0.21154131 -0.20701888 -0.15828632 0.15950778 -0.07102222 -0.21280788 -0.2123774
-0.20947093 0.19636057 -0.08750105 -0.18303554 -0.20593075 -0.21241006 0.1336041 -0.21259579
-0.21190324 -0.21177474 -0.21243808 0.17531072
00000000: ce0d b3bd b249 af3e 65be 0bbe 9657 ccbd
00000010: d189 0e3d ac0a b7bd 22e2 71bd a1e0 4fbe
00000020: 0250 10be 2784 adbe a024 7cbd 8cf3 d5bd
00000030: a916 10be 53be 0cbe 56d3 983d ecb8 3cbd
00000040: 9fb1 aebe 20bb 0dbe db62 d5bd 7776 4d3d
00000050: 3cdb d3bd 5531 93bd 8e06 06be f3f3 c0bd
00000060: 60f7 2b3d ea57 b6b9 595c 1d3a 7548 963b
00000070: 81cc a23b acaa 313b 5005 513a 3cba 6abb
00000080: ead3 46b9 c10b 20ba 7bcc f5ba 5335 153b
00000090: 677b 62bb e8b0 76ba b0bb 463a 1844 353b
000000a0: 3c4d 38bb 349e 9a3a b826 3fbb 8975 7dbb
000000b0: 5de7 33ba b874 a4ba 7326 2ebb 967c 63bb
000000c0: 6abc 92ba c39f 17bb 961e 8fb7 e917 cbbd
000000d0: 9d14 dcb9 d07b 2639 3b16 cf3d 8c99 4eba
000000e0: 22f1 393d bddb 2e3a 857b c2ba eda0 5fba
000000f0: d5e9 e9bd 260f 4f3d d033 f53c 2704 fbbd
00000100: 049a f139 95bf 91ba 5254 06ba 8a5d 92ba
00000110: 580f c5bb d8ae 793d 5e90 073a 640f 02be
00000120: 5f25 d33a 9e93 3439 f7d0 063b 325b 51be
00000130: 7f1f 78bc c9e3 98bd de17 52bd ffa7 59be
00000140: 7052 59be 499e 58be c2fc 53be cf15 22be
00000150: 0256 233e 1974 91bd 4fea 59be 7679 59be
00000160: 8c7f 56be bf12 493e c033 b3bd ab6d 3bbe
00000170: 83df 52be 0682 59be 83cf 083e b6b2 59be
00000180: 2afd 58be 7adb 58be 5e89 59be a784 333e

lstm.bias_ih_l0 f4 [20]
0.08467011 0.1721186 0.32333943 0.23063459 0.3088697 0.11315803 0.076660745 -0.13069773
0.12930392 -0.0017993161 -0.080642276 -0.16344354 0.37632552 0.22182238 0.26603138 -0.14991659
0.20535536 0.08468109 -0.07557587 -0.030072294
00000000: 8667 ad3d dc3f 303e bf8c a53e 792b 6c3e
00000010: 2b24 9e3e 66bf e73d 4f00 9d3d a0d5 05be
00000020: 3f68 043e 08d7 ebba c727 a5bd be5d 27be
00000030: bdad c03e 6825 633e 4435 883e bc83 19be
00000040: ad48 523e 486d ad3d 86c7 9abd 2c5a f6bc

lstm.bias_hh_l0 f4 [20]
0.23463093 -0.023298616 0.020968957 0.11161858 0.03365062 -0.11367829 -0.07565996 0.12965971
-0.13351285 0.0042565176 -0.051389832 -0.16323884 0.1451682 0.07356537 0.15447143 -0.0621715
0.0042670476 0.12725256 0.28704855 0.2430162
00000000: 1743 703e bddc bebc 17c7 ab3c 4898 e43d
00000010: 3cd5 093d 2ad0 e8bd 9cf3 9abd 84c5 043e
00000020: 98b7 08be 427a 8b3b 257e 52bd 1528 27be
00000030: f9a6 143e 71a9 963d c22d 1e3e 8ba7 7ebd
00000040: 97d2 8b3b 7f4e 023e 07f8 923e 3dd9 783e

linear1.weight f4 [1, 5]
0.9484062 -0.8594795 -0.85759085 -0.6994965 0.7898911
00000000: c0ca 723f d906 5cbf 138b 5bbf 3412 33bf
00000010: 4e36 4a3f
