LSTM_torch/models/pHdata/curriculum_None/relu/model_sl_10_bs_64_hs_5_ep_80_tim_0.657_gm_[1.11,1.11]_thd_[0,0].pth (torch, 2875 bytes, 5 tensors)

lstm.weight_ih_l0 f4 [20, 2]
000000 d0 2b 15 bc c9 51 90 3e d5 fd 78 3e a7 15 8a 3e
       -0.009104684 0.28187397 0.24315579 0.26969644
000010 2a 4c 86 be 35 11 81 bd d1 03 56 3d 5e 21 45 bd
       -0.26229984 -0.0630211 0.052249733 -0.048127525
000020 4d 9d 22 3e b0 ff 7a be a1 f5 ba 3d 47 49 44 3c
       0.15880318 -0.245116 0.09128881 0.011980361
000030 5b 6d 77 3e cd 92 19 3e 66 82 57 be 75 df 82 be
       0.2416281 0.14997406 -0.21045837 -0.2556111
000040 55 c9 11 3d 8a 04 b8 bd 35 85 22 3e 1e 35 33 3d
       0.035592396 -0.08985241 0.15871127 0.04375183
000050 f2 fa 84 3e 3f d9 1d 3e f3 76 a2 be 5b e7 09 bc
       0.25972706 0.15414904 -0.31731376 -0.008416976
000060 54 a3 a0 be c7 9a 17 be df 04 bb 3e ca d6 dd 3d
       -0.3137461 -0.14805137 0.36527154 0.108319834
000070 da 08 9b 3e 9a 7a 39 3e 67 6f 49 3e 2b 42 24 3d
       0.3028019 0.18113175 0.19671403 0.040102165
000080 4e 75 bd 3e 84 2c 30 3e 0a b3 88 bd 52 56 ba be
       0.3700356 0.17204481 -0.06674774 -0.36393982
000090 c0 a8 32 3e 4e 72 6d bd d4 82 3f 3e 7b 9c c8 3c
       0.17447186 -0.057970338 0.1870225 0.024488678

lstm.weight_hh_l0 f4 [20, 5]
000000 6c b2 88 3b 8b 62 83 be 12 94 82 3e 92 2d 54 be
       0.00417166 -0.2566112 0.25503594 -0.20720509
000010 18 99 f6 3a 26 ad 83 3e 5e 39 f4 bc 95 c5 e9 3c
       0.0018813936 0.2571804 -0.029812511 0.028536597
000020 25 1a 9a bb e6 a1 25 3c c8 10 b0 3b b1 59 fe bc
       -0.0047028237 0.0101094 0.005373094 -0.031048628
000030 bc 9e 36 3d b2 b7 4a bc 04 40 99 3b b0 bc 69 be
       0.044584975 -0.012372898 0.0046768207 -0.22825885
000040 54 9f 81 be b8 c4 88 3d ea b9 55 bc df 6b 2f 3c
       -0.2531687 0.06678146 -0.013044814 0.010706871
000050 e6 e0 15 3d 30 2e 9c bd e9 55 4d 3d 52 e7 39 3c
       0.036591433 -0.07625997 0.05013076 0.011346655
000060 21 ce 04 3d 6f 5f d9 3c 31 74 9f bd 5e dc 8e 3d
       0.032423142 0.026534764 -0.077858336 0.069756255
000070 19 46 3f bc 6c 76 ad 3c 5c 5a 77 3d ee d1 bc bd
       -0.011674427 0.021174632 0.060388908 -0.092197284
000080 1f c0 06 3c 8d 58 0b 3d be 1b 53 3d 07 27 39 bd
       0.008224516 0.034019995 0.05154013 -0.045203235
000090 f2 67 04 3b 49 6f cc 3d da 53 8b bd 1c f3 26 bd
       0.0020203558 0.099821635 -0.06803103 -0.04075919
0000a0 c7 4a 94 3b 14 a1 9b bd b8 45 e2 3d c6 0c 09 bd
       0.0045255157 -0.075990826 0.11048454 -0.033459447
0000b0 d9 c6 7d 3b e0 f7 20 3d 14 90 af bd d8 74 59 3d
       0.0038723259 0.039298892 -0.085724026 0.053089947
0000c0 94 01 1c 3c 0e 0a 0d 3d 70 d2 81 bb a8 c0 9c bd
       0.009521861 0.034433417 -0.0039618537 -0.07653934
0000d0 89 e5 00 bd e4 61 29 3d 68 7c 74 bd 93 40 32 3b
       -0.0314689 0.04135312 -0.059688956 0.0027199134
0000e0 b1 dc 85 37 75 e6 d2 bd 8d 84 49 3d c4 2e de 39
       1.5957603e-05 -0.102978624 0.049198676 0.00042377983
0000f0 31 e0 09 3b 32 52 55 3d 2e f2 39 3b 4c b5 85 bd
       0.002103817 0.05208034 0.002837311 -0.0652872
000100 67 15 46 bb 8f f7 c4 3d 65 55 27 bc e3 da 55 bd
       -0.003022516 0.096175306 -0.010213231 -0.0522107
000110 92 44 3f 3a 3a f7 0f 3a ea 27 cc 3b fe bf e3 bd
       0.00072962896 0.0005491857 0.006230344 -0.11120604
000120 bb d6 cf ba 77 fd e0 3a f5 7a 35 be 55 6f 4a 3d
       -0.0015856841 0.0017165382 -0.17722686 0.04942258
000130 c7 7f df bd 7e c1 a2 3d d5 7e 6e 3c 3f db e6 bd
       -0.109130435 0.07947062 0.014556606 -0.112722866
000140 89 0a 86 3d ff df 08 be 4b c6 87 3c 98 25 42 3d
       0.06544978 -0.13366698 0.016574046 0.047399133
000150 15 21 82 3d 6f c0 77 bc ca 8b df bc ae 1b a3 3d
       0.06353966 -0.015121563 -0.027288336 0.07964264
000160 ba 6b 14 bd 48 55 44 bc 76 da fc 3c b0 46 ec bd
       -0.03623555 -0.011983223 0.030865889 -0.1153692
000170 fa 65 f2 3d ce bc 0c bc 37 e6 fc 3c ce 6d 38 3d
       0.11835857 -0.008589936 0.030871494 0.045026593
000180 00 5e c0 bd 93 eb 70 3d f9 4c 99 3c 1c 09 32 3d
       -0.09392929 0.05881841 0.018713461 0.04346572

lstm.bias_ih_l0 f4 [20]
000000 be 9b 70 3e c2 3d 56 3d 66 fa 5b bd 0d 6b 1c 3e
       0.23496911 0.05230499 -0.053705595 0.15275212
000010 21 31 7e 3c 30 14 3f 3e 50 d6 57 3d 26 29 8b be
       0.015514643 0.18660045 0.05269462 -0.2717983
000020 cc fd cc 3e 18 3f 1d 3e 0b 17 a5 bd f4 fa f9 3d
       0.40037382 0.153561 -0.08061036 0.12206069
000030 4c 26 a0 bc 76 29 c3 3d 1b b8 06 bd 98 bc 4d 3d
       -0.019549511 0.095293924 -0.03289042 0.050228685
000040 c4 08 0b 3e 2e 36 18 3e e2 93 91 3e 4a b4 81 3e
       0.13577563 0.14864418 0.28433138 0.25332862

lstm.bias_hh_l0 f4 [20]
000000 f5 b4 d6 3c 10 47 56 3d 80 5d a1 3e 8e cf 1c 3e
       0.026209334 0.052313864 0.31516647 0.15313551
000010 c9 eb 94 be 48 bc 4a 3e 0c c1 56 3d bd a1 cd bd
       -0.2908614 0.19798386 0.052430198 -0.10040615
000020 40 11 22 3d 78 2b 1d 3e f2 d1 0b be c7 1c 52 3e
       0.039567232 0.15348613 -0.13654307 0.2051879
000030 d6 5c 92 bc f6 a7 95 3d b2 23 0d bd 4a 2c d9 3e
       -0.017866533 0.07307427 -0.03445787 0.42416602
000040 43 92 0b 3e a7 45 18 3e d1 6e 36 3e cc 80 3e 3e
       0.13630013 0.1487032 0.1781571 0.1860382

linear1.weight f4 [1, 5]
000000 2f d3 5a 3f 8a 90 6c bf bd 3a 29 bf 28 49 7c 3f
       0.8547849 -0.9240805 -0.6610525 0.9854913
000010 18 67 4d 3f
       0.80235434
