LSTM_torch/models/pHdata/curriculum_None/relu/model_sl_10_bs_64_hs_5_ep_80_tim_0.688_gm_[5,5]_thd_[0.222,0.222].pth (torch, 2885 bytes, 5 tensors)

lstm.weight_ih_l0 f4 [20, 2]
0	0x3e24d298	0.1609596
1	0xbd0e00ce	-0.034668736
2	0x3c6262e1	0.01381752
3	0xbe0f4ef3	-0.1399496
4	0x3e0420f4	0.12903196
5	0x3e9f00fb	0.31055436
6	0x3e0f24ba	0.13978854
7	0x3e9cb6b9	0.30608156
8	0xbd626797	-0.055274572
9	0xbe16ad5d	-0.1471457
10	0x3bf96293	0.007610628
11	0x3bb4c9f6	0.0055172397
12	0xbb50af72	-0.0031842855
13	0xbbb37ffc	-0.0054779034
14	0x3c0e8c9d	0.008700517
15	0x3bd31acc	0.0064424034
16	0x3c0b6bfa	0.00850963
17	0x3bd46eb8	0.0064829253
18	0xbc08b090	-0.008342877
19	0xbbf9e723	-0.0076264306
20	0x3ead5a58	0.3385799
21	0x3e54250e	0.2071726
22	0xbed5f585	-0.4178888
23	0xbe6dc3c5	-0.23219211
24	0x3ed7df88	0.42162728
25	0x3cbdd494	0.023172654
26	0xbed4557b	-0.41471466
27	0xbcd6bf60	-0.026214302
28	0xbec321f1	-0.38111833
29	0xbe629925	-0.22128733
30	0x3e47d19c	0.19513553
31	0x3a913464	0.0011078236
32	0x3e23015c	0.15918487
33	0xbe3abfee	-0.18237278
34	0x3e34b20f	0.17646049
35	0x3e36cc66	0.1785141
36	0x3e3daa3e	0.18521973
37	0x3e326609	0.17421736
38	0xbe3de9b3	-0.1854618
39	0xbe44a32f	-0.19202875

lstm.weight_hh_l0 f4 [20, 5]
0	0x3ca7441a	0.020418216
1	0x3e89b846	0.26898402
2	0x3d893a9e	0.067006335
3	0xbd84f60b	-0.064922415
4	0x3d79dfb5	0.06100436
5	0xbbca9d8c	-0.006183332
6	0x3d1ee9cf	0.038797196
7	0x3ce5fdce	0.028075125
8	0xbea036eb	-0.312919
9	0x3d8cb462	0.06870343
10	0x3cb5482a	0.022129137
11	0x3c92b267	0.017907334
12	0x3d8202b0	0.06348169
13	0xbd7b4585	-0.061345596
14	0x3d4d1518	0.050068945
15	0x3ccc3226	0.024926256
16	0x3c60d17b	0.013721819
17	0x3d83ec79	0.06441588
18	0xbd7f1e68	-0.062284857
19	0x3d3a953c	0.045552477
20	0xbc8e47e5	-0.017368266
21	0x3e9d3364	0.3070327
22	0x3ea07b80	0.31344223
23	0xbc564d47	-0.013079948
24	0x3e9893ad	0.29800168
25	0x3b95c782	0.0045709023
26	0x3acf98b7	0.0015838359
27	0x3b91d810	0.0044508055
28	0xbb9a9c14	-0.004718313
29	0x3b3e0fad	0.0029001043
30	0x3ac0b79a	0.0014703155
31	0x3b9cb310	0.004782088
32	0xba70e475	-0.0009189316
33	0xbb7090c4	-0.003670738
34	0x3bc7d2c5	0.0060981237
35	0x3be486c7	0.0069740745
36	0xbb222a94	-0.0024744617
37	0x3c0829f2	0.008310782
38	0xbc101283	-0.008793476
39	0x3afe3a11	0.0019395967
40	0x3b667cfc	0.0035169711
41	0x3a96f993	0.0011518471
42	0x3b490fb2	0.003067952
43	0xbc01b9d6	-0.007917842
44	0xbb0bd8de	-0.002133898
45	0xbb12ed68	-0.0022419337
46	0x3aff3923	0.0019471984
47	0x3b0982aa	0.0020982423
48	0xbb615aa6	-0.0034386306
49	0x3b902d37	0.0043999213
50	0xba5bee4f	-0.0008389698
51	0x3d01500d	0.031570483
52	0x3d08f270	0.03343433
53	0x3e05c2f3	0.13062648
54	0xb991ef59	-0.00027834883
55	0x3e000f0b	0.12505738
56	0x3ae5adff	0.0017523168
57	0x39d2adc5	0.0004018379
58	0xbb9eadd6	-0.0048425
59	0x3b0e4e82	0.0021714275
60	0xbd5f464b	-0.054510396
61	0x3b11f52c	0.0022271378
62	0xbdbb01a0	-0.09131169
63	0xbdf6e843	-0.12056019
64	0xbc0eb4f5	-0.008710136
65	0x3d801b25	0.062551774
66	0xb9e874ee	-0.00044337608
67	0x38d4cab1	0.00010146702
68	0x3b65cdf4	0.0035065385
69	0x3a04a7da	0.0005060412
70	0xb9f6a5e1	-0.00047044366
71	0x3a9379d8	0.0011251522
72	0xb7ac5ad3	-2.0546291e-05
73	0x3a2f0148	0.0006675911
74	0xbdb75c1e	-0.08953117
75	0x3e3f2fc0	0.18670559
76	0x3e43c9fa	0.19120017
77	0x3e460802	0.19338992
78	0xbe385a38	-0.18003166
79	0x3e3de60c	0.18544787
80	0x3c88b58d	0.016688133
81	0x3e45b0d5	0.19305737
82	0x3d9f0e21	0.07766367
83	0xbd993ab4	-0.074819
84	0x3e3ea26c	0.18616647
85	0x3e45da5e	0.19321582
86	0xbca4483f	-0.02005398
87	0x3e3da537	0.18520056
88	0xbe3b1b65	-0.18272169
89	0x3d44dfc2	0.048064955
90	0x3dadf256	0.084934875
91	0xbcde0baf	-0.02710518
92	0x3e3463a6	0.17616138
93	0xbe2e22e0	-0.17005491
94	0x3d238063	0.03991736
95	0xbcb9def3	-0.022689318
96	0x3e2b66f3	0.16738491
97	0x3d0932ea	0.03349582
98	0xbd021892	-0.031761713
99	0x3e3fe79d	0.18740697

lstm.bias_ih_l0 f4 [20]
0	0x3ec38def	0.38194224
1	0x3e45c220	0.19312334
2	0x3e814eaf	0.25255343
3	0x3e0e4ad1	0.13895728
4	0x3e008949	0.1255237
5	0xbe292251	-0.16516997
6	0xbde836f5	-0.11338607
7	0x3d17148e	0.036884837
8	0xbc83d77b	-0.01609396
9	0xbe83cd0a	-0.2574237
10	0xbc834e21	-0.016028466
11	0xbde30562	-0.11085011
12	0xbe4cfac6	-0.20017537
13	0x3e57b847	0.2106639
14	0xbd2c6357	-0.042086925
15	0x3e1d1a20	0.15341997
16	0x3e4f998c	0.20273417
17	0x3dcb0209	0.099124976
18	0x3e0f2c4d	0.13981743
19	0xbd990c2c	-0.07473025

lstm.bias_hh_l0 f4 [20]
0	0xbd899f97	-0.067198925
1	0x3e46286c	0.19351357
2	0x3d7bb4a1	0.061451558
3	0x3e0e444d	0.13893242
4	0x3dffc455	0.12488619
5	0x3e30ba38	0.17258537
6	0x3dfb9288	0.12283808
7	0xbce20f13	-0.027595079
8	0x3c984b66	0.01859064
9	0x3e87ed98	0.26548457
10	0x3d2cecd5	0.042218048
11	0xbdf113a6	-0.11771326
12	0xbe61b42d	-0.22041388
13	0x3e56fb83	0.20994382
14	0xbd2b5d18	-0.041836828
15	0x3d048980	0.032357693
16	0xbc862842	-0.016376618
17	0x3d72d808	0.059288055
18	0x3d1b3199	0.037889097
19	0xbde8ac56	-0.113609955

linear1.weight f4 [1, 5]
0	0x3f8edb03	1.1160587
1	0xbf60fb0d	-0.87883073
2	0x3f837dfa	1.027282
3	0xbf751423	-0.9573385
4	0xbf5dd288	-0.8664937
