LSTM_torch/models/pHdata/curriculum_None/relu/model_sl_10_bs_64_hs_10_ep_100_tol_-0.001_gm_[4,4]_thd_[1,1].pth (torch, 4332 bytes, 5 tensors)

lstm.weight_ih_l0 f4 [40, 2]
0.12338889 -0.012649013 0.101615794 -0.04911444 0.14778839 -0.0032481188 0.16158378 0.021516133
0.20218414 0.07271857 0.08981695 -0.084180236 0.09900765 -0.048960436 0.15830779 0.020058885
0.20272402 -0.0052149026 0.115069345 -0.018775642 0.0015861248 0.0013936561 0.0015152895 -0.0008494546
0.0012395709 0.0011874489 0.0012991924 -0.0012653869 0.00072600134 0.0015867138 0.0015354473 0.0015973747
0.0016097333 -0.0014555173 -0.0009985205 0.0016059154 -0.0014457472 -0.00096279633 0.0015661762 -2.903125e-05
-0.26468387 -0.06769479 -0.23081698 -0.14875017 -0.25191888 -0.09994491 -0.32994616 -0.007109486
0.43622622 -0.035557 0.2319154 0.24875237 -0.23399521 -0.13471533 0.32574776 0.009797893
0.2755941 0.06782361 -0.25151473 -0.08615074 0.00015336405 -0.0023748658 -0.00044712896 -0.0028101117
0.0016322101 -0.0020248396 -0.002485961 -0.0013822337 0.0010165467 0.00049423164 0.0003346968 0.002788647
0.00024452104 0.0025099772 0.0013968707 -0.00050018786 0.0024328278 4.493615e-05 -0.00076555496 -0.003260286
00000000: 50b3 fc3d ce3d 4fbc f11b d03d 392c 49bd
00000010: d755 173e 64de 54bb 3876 253e 9a42 b03c
00000020: 5c09 4f3e 79ed 943d f3f1 b73d b066 acbd
00000030: 86c4 ca3d bd8a 48bd 701b 223e 8852 a43c
00000040: e396 4f3e c6e1 aabb 7aa9 eb3d 60cf 99bc
00000050: 84e5 cf3a 57ab b63a ae9c c63a efad 5eba
00000060: 1979 a23a 2ca4 9b3a aa49 aa3a 57db a5ba
00000070: 2051 3e3a 48f9 cf3a 1041 c93a 005f d13a
00000080: b0fd d23a 0ec7 beba cae0 82ba 947d d23a
00000090: 3a7f bdba 2b64 7cba 2748 cd3a 2288 f3b7
000000a0: a584 87be 91a3 8abd 495b 6cbe f751 18be
000000b0: 83fb 80be ebaf ccbd b4ee a8be b1f6 e8bb
000000c0: 0b59 df3e 38a4 11bd 3b7b 6d3e f1b8 7e3e
000000d0: 719c 6fbe d1f2 09be 69c8 a63e 5887 203c
000000e0: ab1a 8d3e 1be7 8a3d 8ac6 80be cd6f b0bd
000000f0: 59d0 2039 a3a3 1bbb a26c eab9 da29 38bb
00000100: e2ef d53a 2cb3 04bb 81eb 22bb 112c b5ba
00000110: a63d 853a 538f 013a 3e7a af39 bcc1 363b
00000120: 0f33 8039 6e7e 243b 3417 b73a 0a1f 03ba
00000130: 1470 1f3b d379 3c38 86af 48ba 86aa 55bb

lstm.weight_hh_l0 f4 [40, 10]
-0.008467714 -0.0010780739 -0.009334799 -0.016397377 0.026873618 -0.0071085915 -0.002061323 0.016094526
0.012956554 -0.006931186 -0.0039458564 0.003579239 -0.0053747916 -0.01237142 0.023799883 -0.010998982
0.0026105312 0.012041679 0.009095797 -0.0023311106 -0.010491611 -0.0034738882 -0.0113639105 -0.018307805
0.029011445 -0.0039386 -0.004360681 0.018013932 0.0149630895 -0.0090239495 -0.013864777 -0.0072587975
-0.014787921 -0.020457702 0.028872035 -0.0014302583 -0.0080995895 0.020227512 0.018179376 -0.012641134
-0.023881117 -0.019785576 -0.02555931 -0.026862532 0.030679189 0.011464795 0.20234832 0.026837137
0.028196547 -0.023498021 0.00079967844 0.006861132 -0.0021355376 -0.006410821 0.017013025 -0.0124011915
0.006217243 0.0061466857 0.005476773 0.002050144 -0.003983936 0.0037528384 -0.0053529483 -0.012542509
0.024034692 -0.011565719 0.0027396407 0.01220149 0.009137044 -0.0023198747 -0.013611362 -0.007022958
-0.014503048 -0.020231508 0.028726488 -0.0015581555 -0.007863826 0.020003127 0.01787112 -0.012374934
-0.010374872 -0.0029270884 -0.011304969 -0.018419402 0.029126246 -0.0053660087 -0.0038998534 0.018103577
0.015044978 -0.0088404985 -0.007369009 -0.00015734095 -0.008253537 -0.015212283 0.02567116 -0.0075713065
-0.0011159218 0.014917554 0.011786813 -0.0058520874 -0.0012081539 0.00091485307 -0.0004565816 -0.0011452934
0.0009799254 -0.00028484932 0.00012573645 0.0014309543 6.182469e-05 -9.475556e-05 -0.0008283476 0.00067474943
-0.0002712021 -0.00087972666 0.0012146743 -0.0012228433 0.001554655 -0.0010406277 0.0009444702 0.0004651487
-0.0015196039 -0.00069271435 -0.00078168977 7.92369e-06 0.001387913 0.0002931501 -0.0007877254 -0.00022641366
-6.0989255e-06 -0.0006497534 -5.103291e-05 -0.00034715756 -0.0013146605 -0.0007853181 0.0003382377 0.00039845082
-0.0016083671 0.00083761866 0.0014742783 -0.0012130718 -0.0009464912 -0.0013412209 -0.0011285001 -0.0016015609
0.0006725431 0.0005533339 -0.0015403085 0.0009457939 0.0013876929 -0.00072084466 0.0011406514 0.001419151
0.00036917426 -0.0008222877 0.00013387015 -4.860358e-05 -0.00018168325 -0.0014746898 0.0008880333 0.00022810779
-0.0005637844 0.001573644 0.00062830374 -0.0005145843 0.0008051081 -0.0014060171 -0.0009864075 0.0014627253
0.00075733435 4.1882948e-05 -0.0007238636 -0.00053212006 -0.0014139364 -0.000402457 0.0012877772 0.0013951407
-7.686221e-07 0.00060385553 0.0012228123 -0.0006669023 -0.0012802879 0.0015739932 -0.0014201773 -0.000994336
0.00079118734 0.0015320756 -0.0014737627 0.0012997349 -0.00077268004 -0.0001558415 -8.439138e-05 -0.001030113
-7.702553e-05 -0.001167206 0.0012990335 0.000731115 0.00018234059 -0.0004920576 0.0011947197 -0.0016665932
-0.00013696699 1.1251231e-05 -0.00012142691 -0.00015110403 0.00012748204 -3.0574472e-05 0.00014074023 -0.00010355649
-7.656836e-06 1.3528248e-05 0.00013192507 0.0001103308 7.78697e-05 -5.415517e-05 -0.00015335543 0.00013109701
6.41365e-05 -0.00015890748 0.00024960216 8.711809e-05 -2.3881516e-05 3.675597e-05 -0.00029493443 0.00019009844
0.0004295971 6.391489e-05 -0.00023349616 -2.6115269e-05 0.00013635388 -3.279091e-05 7.7084593e-07 1.656915e-07
0.00036630948 3.1648895e-05 5.919662e-05 -0.00013196647 -0.00015400503 -3.0560794e-05 3.1142306e-05 0.0001613628
-0.00028094318 -9.250406e-05 -9.0769325e-05 7.4273405e-05 5.3347816e-05 5.7573896e-05 -6.5041044e-05 -0.0001259698
6.042687e-05 0.000102858314 -0.00013116274 -3.3870867e-05 -3.4223365e-05 -3.9243082e-07 -9.462024e-05 6.7215035e-05
00000000: 2bbc 0abc 284e 8dba fcf0 18bc cb53 86bc
00000010: 1026 dc3c 30ef e8bb 4317 07bb abd8 833c
00000020: ba47 543c 011f e3bb 3e4c 81bb aa91 6a3b
00000030: 051f b0bb 7fb1 4abc f9f7 c23c 1335 34bc
00000040: 7215 2b3b 764a 453c 8a06 153c 8cc5 18bb
00000050: 02e5 2bbc 2caa 63bb b22f 3abc 40fa 95bc
00000060: 69a9 ed3c 5f0f 81bb 0be4 8ebb f491 933c
00000070: bf27 753c 30d9 13bc 1729 63bc 35db edbb
00000080: 0949 72bc e996 a7bc 0c85 ec3c 8177 bbba
00000090: 24b4 04bc 2bb4 a53c eaec 943c c21c 4fbc
000000a0: 55a2 c3bc 5c15 a2bc c261 d1bc d00e dcbc
000000b0: ec52 fb3c d6d6 3b3c 6634 4f3e 8ed9 db3c
000000c0: 72fc e63c ec7e c0bc 83a1 513a 59d3 e03b
000000d0: 60f4 0bbb dd11 d2bb e65e 8b3c 5e2e 4bbc
000000e0: 04ba cb3b 236a c93b 8076 b33b b55b 063b
000000f0: ad8b 82bb 2ef2 753b c967 afbb 187f 4dbc
00000100: 67e4 c43c 247e 3dbc 8b8b 333b c2e8 473c
00000110: 8ab3 153c 0a09 18bb 3102 5fbc d720 e6bb
00000120: 319e 6dbc 8cbc a5bc d053 eb3c 063b ccba
00000130: 47d7 00bc 99dd a33c 7466 923c 3cc0 4abc
00000140: 5efb 29bc 65d4 3fbb 7a38 39bc 49e4 96bc
00000150: 2a9a ee3c 58d5 afbb af94 7fbb f44d 943c
00000160: 367f 763c bdd7 10bc ba77 f1bb e4fb 24b9
00000170: d839 07bc f03c 79bc 534c d23c b918 f8bb
00000180: 1f44 92ba c268 743c 7a1d 413c dec2 bfbb
00000190: eb5a 9eba c0d2 6f3a 5861 efb9 ab1d 96ba
000001a0: d770 803a d457 95b9 1fd8 0339 dc8e bb3a
000001b0: e1a7 8138 81b7 c6b8 7725 59ba abe1 303a
000001c0: 2130 8eb9 759d 66ba b535 9f3a d047 a0ba
000001d0: 91c5 cb3a ac65 88ba 5296 773a 34df f339
000001e0: 722d c7ba 4697 35ba 50ea 4cba fdef 0437
000001f0: a2ea b53a f1b1 9939 5b7f 4eba 7469 6db9
00000200: 5fa5 ccb6 3654 2aba 2b0c 56b8 b302 b6b9
00000210: b050 acba cedd 4dba 7f55 b139 2ae7 d039
00000220: d8cf d2ba a393 5b3a 923c c13a efff 9eba
00000230: f31d 78ba e8cb afba 2eea 93ba 77eb d1ba
00000240: 9a4d 303a 9c0d 113a 2de4 c9ba 27ef 773a
00000250: 3fe3 b53a 11f7 3cba e981 953a ce02 ba3a
00000260: bb8d c139 cb8e 57ba 7f5f 0c39 b2db 4bb8
00000270: 3a82 3eb9 614a c1ba e8ca 683a 3830 6f39
00000280: eeca 13ba bb42 ce3a c0b4 243a 2be5 06ba
00000290: e40d 533a 1b4a b8ba 584a 81ba ebb8 bf3a
000002a0: d987 463a 79ab 2f38 aac1 3dba f97d 0bba
000002b0: d553 b9ba dd00 d3b9 a2ca a83a 27dd b63a
000002c0: 4f53 4eb5 0f4c 1e3a c646 a03a 0ed3 2eba
000002d0: 55cf a7ba 734e ce3a 3e25 baba 6154 82ba
000002e0: af67 4f3a edcf c83a 452b c1ba de5b aa3a
000002f0: ae8d 4aba 6269 23b9 47fb b0b8 db04 87ba
00000300: c488 a1b8 effc 98ba 5544 aa3a 4ca8 3f3a
00000310: ae32 3f39 6dfd 00ba 2498 9c3a 9771 daba
00000320: cc9e 0fb9 abc3 3c37 93a6 feb8 ae71 1eb9
00000330: b3ac 0539 173d 00b8 ab93 1339 782c d9b8
00000340: dc75 00b7 62f7 6237 5e55 0a39 6661 e738
00000350: fa4d a338 ac24 63b8 09ce 20b9 1677 0939
00000360: 0581 8638 67a0 26b9 09dd 8239 2bb3 b638
00000370: 2a55 c8b7 6c2a 1a38 6ea1 9ab9 2955 4739
00000380: 8c3b e139 0c0a 8638 a6d6 74b9 1d12 dbb7
00000390: 37fa 0e39 f988 09b8 21ec 4e35 efe8 3134
000003a0: 3a0d c039 bebe 0438 e349 7838 7b60 0ab9
000003b0: 697c 21b9 672e 00b8 cc9e 0238 7f33 2939
000003c0: 8e4b 93b9 bdfe c1b8 695b beb8 3bc3 9b38
000003d0: c8c1 5f38 807b 7138 a566 88b8 c316 04b9
000003e0: dc72 7d38 a3b5 d738 bb88 09b9 9110 0eb8
000003f0: 0f8b 0fb8 48af d2b4 db6e c6b8 ccf5 8c38

lstm.bias_ih_l0 f4 [40]
0.14005455 0.08570898 -0.13041621 0.16698925 0.09747867 0.09273669 0.15500706 0.10755961
-0.12715565 0.020078583 -0.016755136 0.08514682 -0.0018263685 -0.08490203 0.18504323 0.11413885
-0.12296677 -0.059355885 -0.11053113 0.123149194 0.066371955 -0.023153072 0.033254962 0.16840898
-0.29808143 0.11232962 -0.0073860944 -0.16045074 -0.071364075 0.042952724 0.03010299 -0.06276918
0.02899097 -0.06058814 -0.025458654 0.035728138 0.027985208 -0.0017534131 0.010678916 0.22284386
00000000: 766a 0f3e 3188 af3d d48b 05be 3bff 2a3e
00000010: e6a2 c73d bcec bd3d 2cba 1e3e 3648 dc3d
00000020: 1735 02be d77b a43c 1142 89bc 7561 ae3d
00000030: c262 efba 1ee1 adbd f97b 3d3e a1c1 e93d
00000040: 00d6 fbbd 281f 73bd 255e e2bd a535 fc3d
00000050: 05ee 873d 83ab bdbc 5b36 083d 6773 2c3e
00000060: 219e 98be 120d e63d 0d07 f2bb 334d 24be
00000070: 5427 92bd 32ef 2f3d 8c9a f63c 218d 80bd
00000080: 797e ed3c 452b 78bd ab8e d0bc ab57 123d
00000090: 3c41 e53c c8d2 e5ba 9ff6 2e3c 2e31 643e

lstm.bias_hh_l0 f4 [40]
0.060761884 0.11326842 -0.072281994 0.0351505 0.09747962 0.106374964 0.04773564 0.095188044
-0.075481705 0.18253683 0.015961543 -0.08390193 0.0024063436 0.086225435 -0.18229678 -0.11261497
0.12450974 0.060540568 0.11206047 -0.121823415 0.066309705 -0.023467593 0.033253577 0.16391642
-0.29840368 0.11343972 -0.0072771274 -0.1601412 -0.0715635 0.042890795 -0.029227208 0.06382686
-0.030206608 0.058384743 0.028633216 -0.0345589 -0.029899905 0.000253776 -0.012721834 -0.22319028
00000000: 74e1 783d 46f9 e73d 9508 94bd f8f9 0f3d
00000010: 65a3 c73d 1edb d93d 7286 433d f3f1 c23d
00000020: 2796 9abd efea 3a3e c8c1 823c c6d4 abbd
00000030: bfb3 1d3b f696 b03d 02ac 3abe ada2 e6bd
00000040: f6fe fe3d 63f9 773d f67f e53d 8e7e f9bd
00000050: 62cd 873d 1c3f c0bc e734 083d b5d9 273e
00000060: 5ec8 98be 1553 e83d f874 eebb 0efc 23be
00000070: e28f 92bd 42ae 2f3d e66d efbc a8b7 823d
00000080: d973 f7bc d724 6f3d 3590 ea3c a28d 0dbd
00000090: a5f0 f4bc 3d0d 8539 3d6f 50bc fe8b 64be

linear1.weight f4 [1, 10]
-0.6227151 -0.6199782 -0.5602666 -0.69898397 0.85403895 0.6679797 -0.6150581 0.6877823
0.60207134 -0.5975951
00000000: 426a 1fbf e4b6 1ebf a26d 0fbf 9df0 32bf
00000010: 4ca2 5a3f b800 2b3f 7374 1dbf 8012 303f
00000020: 5921 1a3f fefb 18bf
