LSTM_torch/models/pHdata/curriculum_None/relu/model_sl_10_bs_64_hs_10_ep_100_tol_-0.001_gm_[3,3]_thd_[0,0].pth (torch, 4332 bytes, 5 tensors)

lstm.weight_ih_l0 f4 [40, 2]
-0.0019014801 -0.04093201 0.0893387 0.028879382 0.011245709 -0.05553288 0.06832937 0.018787874
0.051027533 0.0006800598 0.08617498 0.042241085 0.070420615 0.03138686 0.06602891 0.014284874
-0.01038665 -0.068240546 0.05931455 0.00792675 -0.032044724 -0.05778781 0.13520032 0.0660989
-0.056335825 -0.104167655 0.14843452 0.07286556 0.09939969 0.033723127 0.16798683 0.09188432
0.18848477 0.10928018 0.11878692 0.05260317 -0.107517354 -0.13950613 0.11682641 0.046864517
0.23953435 0.13081896 -0.23025186 -0.08274313 -0.28632474 -0.16335836 0.24593863 0.056297224
0.24781336 0.08300735 0.22299825 0.035843413 0.26098326 0.019508896 0.24071234 0.078743786
0.3101276 0.1464391 -0.24794945 -0.06798417 -0.13183816 -0.021458445 0.15260799 0.068748556
0.060851432 -0.23138586 0.15451209 0.068894915 0.14294739 0.047476366 0.2701308 0.14595613
0.17698334 0.11352554 0.15064754 0.061515372 0.014071048 -0.074032135 0.15754338 0.059871294
00000000: 163b f9ba 53a8 27bd 35f7 b63d 7494 ec3c
00000010: ec3f 383c 7276 63bd 45f0 8b3d 07e9 993c
00000020: 3f02 513d 0a46 323a 827c b03d fd04 2d3d
00000030: af38 903d 828f 003d 2a3a 873d 1b0b 6a3c
00000040: c52c 2abc b3c1 8bbd d0f3 723d 33df 013c
00000050: 5441 03bd e9b2 6cbd f471 0a3e dc5e 873d
00000060: 65c0 66bd da55 d5bd 38ff 173e 8a3a 953d
00000070: 1192 cb3d 4321 0a3d bd04 2c3e d92d bc3d
00000080: 2702 413e 49ce df3d 8f46 f33d 6c76 573d
00000090: 0f32 dcbd b2da 0ebe af42 ef3d 02f5 3f3d
000000a0: 7e48 753e 68f5 053e 25c7 6bbe 3b75 a9bd
000000b0: 2899 92be 6a47 27be 56d7 7b3e eb97 663d
000000c0: c9c2 7d3e c2ff a93d a759 643e 8bd0 123d
000000d0: 999f 853e 1fd1 9f3c 4c7d 763e 6c44 a13d
000000e0: 0bc9 9e3e 22f4 153e 76e6 7dbe 493b 8bbd
000000f0: 9500 07be 9fc9 afbc 4545 1c3e 0bcc 8c3d
00000100: 5a3f 793d 6af0 6cbe 6b38 1e3e c718 8d3d
00000110: cd60 123e 9476 423d 964e 8a3e 8675 153e
00000120: 1f3b 353e 1480 e83d 5943 1a3e 8bf7 7b3d
00000130: 418a 663c 299e 97bd 0d53 213e 9a3b 753d

lstm.weight_hh_l0 f4 [40, 10]
-0.012095053 -0.0056680287 0.018391881 0.006141831 0.0006716902 0.010681964 0.009067222 0.0035962241
-0.021516234 -0.002445661 -0.0017262084 -0.017582063 0.004661403 0.020804817 0.014552514 0.024093669
0.02571658 0.01652214 -0.008207999 -0.016053738 -0.01648269 -0.009566418 0.024535919 0.010196945
0.002349804 0.016865782 0.01400411 0.0065614334 -0.23823199 -0.0050753257 -0.005124721 -0.015148155
0.010049504 0.018011292 0.011225882 0.26906526 0.023822846 0.013694388 -0.014122382 -0.012734867
-0.007406065 -0.0128505975 0.012667212 0.014981055 0.008399829 0.019281618 0.019969793 0.011121247
-0.016486423 -0.010101962 0.0014686511 -0.015504135 0.00021600688 0.018638829 0.0138569735 0.02062235
0.02319852 0.015022911 -0.0030239823 -0.014732598 -0.0047295075 -0.017743634 0.010545029 0.021180816
0.014205808 0.21215037 0.02484394 0.016585007 -0.01561528 -0.2439168 -0.004333105 -0.014372157
0.008292237 0.016919877 0.01080722 0.020516613 0.021729397 0.013040165 -0.011799232 -0.012308628
-0.2542551 -0.005683569 0.02651662 0.005471269 -0.0018256573 0.0123147955 0.009426599 0.0024715045
-0.030189361 -0.00078005163 -0.0062537976 -0.013285702 0.010996512 0.015569911 0.009061183 0.019723082
0.021187907 0.01164444 -0.014631409 -0.010646236 -0.018486157 -0.0020308392 0.0270003 0.001222131
-0.0049985913 0.0073594996 0.004030149 -0.0009676371 -0.030503254 0.0027332762 0.0031391378 -0.02502152
-0.0015334248 0.030043682 0.022681756 0.032975588 0.036754023 0.024332594 -0.0026069123 -0.02411092
-0.03182594 -0.0011643174 0.044987835 -0.0012236311 -0.010820067 0.0093146 0.001807836 -0.0040174527
-0.049886514 0.006820101 0.0010318299 -0.028472653 0.0028090938 0.03462555 0.024980998 0.03867226
0.04464138 0.0273533 -0.008435294 -0.026573844 -0.0059238314 -0.021471389 0.011586337 0.025555639
0.016291602 0.030798769 0.03380956 0.019514909 -0.016872419 -0.018317886 0.0070454506 -0.029364562
-0.006205852 0.035858244 0.027931388 0.03819642 0.044649284 0.02914192 0.0016687819 -0.029025119
0.005636723 -0.037996132 -0.0018676996 0.046539 0.035795096 0.049746715 0.055043105 0.037679035
-0.0054048006 -0.03754599 -0.0006513726 -0.023262085 0.004047117 0.027896643 0.019743295 0.031768456
0.03551539 0.022041567 -0.008671389 -0.021365989 -0.03911829 0.006746061 0.053809315 -0.011304341
-0.020532414 0.0006271289 -0.009181721 -0.01282781 -0.058166824 0.01621189 -0.0035018849 -0.023204044
0.008231903 0.027824232 0.01854052 0.032730583 0.037206735 0.021476358 -0.013356148 -0.020371627
-0.00031216335 -0.00051024643 -0.0020798799 0.0015646975 -0.066340856 0.0019235376 -0.0007824661 0.00017216973
0.0026117854 -0.000848398 -0.004224179 0.0016728743 0.00030263627 0.0048779785 -0.0017204263 -0.0002490839
4.773562e-05 -0.0013815613 -0.0013178675 -0.03414356 -0.038504627 -0.010189842 0.0032095269 0.036243677
-0.0011212045 -0.0015654815 -0.00037795093 -0.0020729254 -0.0056592184 0.05810044 0.00127517 -0.0014125406
-0.0013224647 -3.5894004e-06 0.0008883145 0.00033970774 0.00074444845 1.7102617e-05 0.0008952751 0.000837093
0.05938328 0.008213217 -0.0009504959 -0.008825463 0.00044587438 0.004269919 0.0024462666 0.00043175343
0.0043304292 0.0011525304 -0.0007825403 -0.0009035199 0.0009245957 0.00036639755 0.008163266 0.002196868
00000000: 542a 46bc dfba b9bb 92aa 963c 6a41 c93b
00000010: 5e14 303a 6803 2f3c af8e 143c a1ae 6b3b
00000020: d042 b0bc 6247 20bb f141 e2ba 4208 90bc
00000030: afbe 983b dd6e aa3c ab6d 6e3c 1660 c53c
00000040: 94ab d23c 7059 873c d87a 06bc 2183 83bc
00000050: b506 87bc 77bc 1cbc 8dff c83c 1611 273c
00000060: 2bff 193b 1c2a 8a3c 7f71 653c 4b01 d73b
00000070: 16f3 73be eb4e a6bb 47ed a7bb f82f 78bc
00000080: ada6 243c 6b8c 933c c3ec 373c ecc2 893e
00000090: 2128 c33c 6d5e 603c 9061 67bc e7a5 50bc
000000a0: 93ae f2bb 508b 52bc 238a 4f3c 1973 753c
000000b0: 709f 093c 7cf4 9d3c b197 a33c e435 363c
000000c0: 890e 87bc b382 25bc c17f c03a 0e05 7ebc
000000d0: e87f 6239 75b0 983c 5c08 633c 34f0 a83c
000000e0: d30a be3c a822 763c 012e 46bb ff60 71bc
000000f0: fcf9 9abb 195b 91bc 0fc5 2c3c 6483 ad3c
00000100: 7abf 683c f23d 593e 8585 cb3c 48dd 873c
00000110: 3bd7 7fbc 53c5 79be b8fc 8dbb 3279 6bbc
00000120: 2adc 073c 8e9b 8a3c c410 313c 7512 a83c
00000130: d901 b23c 6ba6 553c 9151 41bc 21aa 49bc
00000140: b92d 82be 3b3d babb 6239 d93c 5548 b33b
00000150: e54a efba ffc3 493c 0672 1a3c f7f8 213b
00000160: ae4f f7bc 617c 4cba a8ec ccbb 46ac 59bc
00000170: b72a 343c f118 7f3c 5b75 143c 4d92 a13c
00000180: 4392 ad3c 52c8 3e3c 94b8 6fbc 8d6d 2ebc
00000190: 4870 97bc d417 05bb bc2f dd3c e92f a03a
000001a0: 39cb a3bb f527 f13b 570f 843b 07a9 7dba
000001b0: f6e1 f9bc c420 333b feb9 4d3b eef9 ccbc
000001c0: 33fd c8ba 2b1e f63c 17cf b93c 6911 073d
000001d0: 638b 163d 2655 c73c bbd8 2abb 4484 c5bc
000001e0: eb5b 02bd 029c 98ba 2a45 383d 3f62 a0ba
000001f0: a646 31bc 449c 183c e9f4 ec3a d6a4 83bb
00000200: cd55 4cbd 277b df3b 773e 873a 7b3f e9bc
00000210: c618 383b 85d3 0d3d f3a4 cc3c ce66 1e3d
00000220: e1d9 363d 0714 e03c 3034 0abc 64b1 d9bc
00000230: b31c c2bb c4e4 afbc 9fd4 3d3c 0f5a d13c
00000240: f775 853c b34d fc3c e57b 0a3d bbdd 9f3c
00000250: 0738 8abc 640f 96bc 86dd e63b f38d f0bc
00000260: 765a cbbb 18e0 123d 5ed0 e43c d973 1c3d
00000270: 2be2 363d 09bb ee3c 07bb da3a 16c6 edbc
00000280: 42b4 b83b d5a1 1bbd 99cd f4ba ae9f 3e3d
00000290: e19d 123d 36c3 4b3d e174 613d 5555 1a3d
000002a0: c11a b1bb d3c9 19bd e0c0 2aba 2190 bebc
000002b0: ae9d 843b 8087 e43c b1bc a13c a41f 023d
000002c0: 9678 113d 8490 b43c 7112 0ebc ba07 afbc
000002d0: 803a 20bd 100e dd3b 2867 5c3d d835 39bc
000002e0: 9833 a8bc e865 243a ee6e 16bc bc2b 52bc
000002f0: 5640 6ebd ccce 843c e17f 65bb 6816 bebc
00000300: 1bdf 063c a5ef e33c 4ae2 973c 8110 063d
00000310: 1766 183d 30ef af3c bfd3 5abc 66e2 a6bc
00000320: dba9 a3b9 0fc2 05ba 984e 08bb 8916 cd3a
00000330: b7dd 87bd 361f fc3a 691e 4dba 7688 3439
00000340: 7d2a 2b3b 0767 5eba fb6a 8abb 5944 db3a
00000350: 27ab 9e39 73d7 9f3b ed7f e1ba 7a97 82b9
00000360: bb37 4838 8115 b5ba 4cbc acba 1eda 0bbd
00000370: 07b7 1dbd 4cf3 26bc ed56 523b 4074 143d
00000380: 61f5 92ba d830 cdba b727 c6b9 ebd9 07bb
00000390: f770 b9bb bafa 6d3d 9b23 a73a ff24 b9ba
000003a0: 8d56 adba 6ee1 70b6 c7dd 683a cd1a b239
000003b0: 1727 433a 9777 8f37 e5b0 6a3a 5c70 5b3a
000003c0: e23b 733d bb90 063c b32a 79ba ad98 10bc
000003d0: 3fc4 e939 adea 8b3b 8b51 203b f75c e239
000003e0: 46e6 8d3b 8110 973a 6423 4dba 32da 6cba
000003f0: 9160 723a 0c19 c039 38bf 053c 54f9 0f3b

lstm.bias_ih_l0 f4 [40]
0.052775033 -0.2266939 0.08257531 0.047739636 0.24320851 0.0016590962 0.21180612 0.047878083
0.1626619 0.11999926 0.063974425 0.050617766 0.11508503 0.0537907 0.06384363 0.041300327
0.066416636 0.053994488 0.121634796 0.057880037 -0.024457317 0.0040339613 -0.03570434 -0.04839763
-0.023384111 -0.030548975 -0.15265514 -0.016537532 0.05447719 0.011357377 0.07676994 0.07044402
0.058304764 0.044114694 0.09769098 -0.21557589 0.17462097 0.08273874 0.17927681 0.12385902
00000000: a22a 583d 7222 68be 3e1d a93d a38a 433d
00000010: a70b 793e 0876 d93a b4e3 583e cf1b 443d
00000020: d790 263e 2cc2 f53d 0605 833d 9354 4f3d
00000030: b3b1 eb3d a353 5c3d 73c0 823d 882a 293d
00000040: 7205 883d 5329 5d3d aa1b f93d 9e13 6d3d
00000050: b65a c8bc 522f 843b b73e 12bd 983c 46bd
00000060: 0990 bfbc d841 fabc a151 1cbe b879 87bc
00000070: 7923 5f3d 4b14 3a3c 8f39 9d3d f444 903d
00000080: fad0 6e3d 9cb1 343d 3512 c83d edbf 5cbe
00000090: d7cf 323e ee72 a93d 5794 373e cca9 fd3d

lstm.bias_hh_l0 f4 [40]
0.052770883 -0.027464714 0.08257864 0.047738545 0.027453998 0.2626264 0.06237289 0.047878243
0.09656759 0.11789417 0.063972466 0.050617676 0.11508797 0.053790655 0.0638436 0.041300315
0.06641368 0.05399446 0.12163126 0.057880044 -0.024457298 0.0040340913 -0.03570432 -0.04837082
-0.02338778 -0.030540109 -0.1527642 -0.016537802 0.054476004 0.01135257 0.07676943 0.07044278
0.24393126 0.25218633 0.09768967 -0.07371571 0.062484 0.082738906 0.11224146 0.10581855
00000000: 4826 583d aefd e0bc fd1e a93d 7e89 433d
00000010: 35e7 e03c f876 863e b77a 7f3d fa1b 443d
00000020: 3bc5 c53d 8072 f13d ff03 833d 7b54 4f3d
00000030: 3eb3 eb3d 9753 5c3d 6fc0 823d 852a 293d
00000040: e503 883d 4b29 5d3d cf19 f93d a013 6d3d
00000050: ac5a c8bc 6930 843b b13e 12bd 7b20 46bd
00000060: bb97 bfbc 402f fabc 386e 1cbe 497a 87bc
00000070: 3b22 5f3d 2100 3a3c 4a39 9d3d 4e44 903d
00000080: 1ec9 793e 911e 813e 8611 c83d 43f8 96bd
00000090: 39ef 7f3d 0473 a93d dade e53d 65b7 d83d

linear1.weight f4 [1, 10]
0.3888129 -0.45354417 -0.55034536 0.56130785 0.52809054 0.51894623 0.6341075 0.48823252
0.55210274 -0.5245587
00000000: 7c12 c73e f136 e8be 6fe3 0cbf dfb1 0f3f
00000010: f130 073f a9d9 043f de54 223f 9df9 f93e
00000020: 9b56 0d3f 7b49 06bf
