LSTM_torch/models/pHdata/curriculum_None/relu/model_sl_10_bs_64_hs_5_ep_30_tim_0.644_gm_[10,10]_thd_[0.667,0.667].pth (torch, 2959 bytes, 5 tensors)

lstm.weight_ih_l0 f4 [20, 2]
0.25782564 0.10065139 0.14834869 -0.22756708 -0.3635787 0.04116423 0.34009448 0.057285596
0.21733926 0.0029170378 0.00067892286 0.00022892299 0.0020183492 -0.0024542776 -0.0001429311 0.0006516775
-0.0022337786 0.00093965494 0.0013545799 0.0020741257 -0.5820109 -0.024092142 0.54930794 0.08903076
0.5118649 0.06943862 -0.0820968 -0.41741598 0.1330108 0.41056457 0.16723494 0.1642297
0.16676943 -0.1679205 0.014209932 -0.1679764 0.16579852 0.16493449 0.1667301 0.16813695
00000000: b901 843e 5122 ce3d b8e8 173e 5807 69be
00000010: fd26 babe d39b 283d dd20 ae3e 4da4 6a3d
00000020: 2f8e 5e3e c62b 3f3b bef9 313a 0c0b 7039
00000030: 4846 043b f2d7 20bb c6df 15b9 56d5 2a3a
00000040: 9664 12bb 2d53 763a 298c b13a 0eee 073b
00000050: abfe 14bf e25c c5bc 729f 0c3f c255 b63d
00000060: 9409 033f d635 8e3d 5e22 a8bd 8cb7 d5be
00000070: fc33 083e 8535 d23e a33f 2b3e d52b 283e
00000080: 9bc5 2a3e 5af3 2bbe c6d0 683c 0102 2cbe
00000090: 16c7 293e 96e4 283e 4cbb 2a3e 182c 2c3e

lstm.weight_hh_l0 f4 [20, 5]
-0.09193229 0.05116744 -0.01738996 -0.15230751 0.3616933 -0.17235246 -0.033847455 -0.12842992
-0.13005166 0.35345346 -0.20640731 0.050622784 -0.3632161 -0.17111127 0.36223754 -0.3633928
0.030392032 0.014549938 -0.3638232 -0.36392486 -0.12035851 0.015573472 -0.023104407 -0.07282831
0.0506203 0.0010229024 0.0018173335 -0.0016894732 -0.002403862 -0.0024337145 0.0001495089 0.00080165395
-0.0017233568 -0.001242879 -0.0018577251 0.0015399426 0.00088968826 0.0024499507 -0.0018150475 -0.0019677451
0.0029016526 0.0004358582 0.0011671415 0.0024562152 0.0017386979 -0.00062717026 0.00040918868 0.0019169057
-0.0028988947 0.002213141 -0.00022627175 0.003340159 0.00015061242 0.00020591733 -0.0009812093 0.0020181476
-0.00028410344 -0.000101962214 0.0018080316 -0.0027208228 0.100847304 0.0013812988 -0.0074454662 -0.03829753
0.0014580215 -0.00035104738 0.041774902 0.0006192962 0.077999674 -0.0011173005 -0.0010625062 -5.8316173e-06
0.013647535 0.01796879 9.360701e-05 -0.16736335 0.1482212 -0.03470849 -0.1667831 0.16728786
-0.16529663 -0.051536568 -0.16324195 -0.16678937 0.16649507 -0.16313641 -0.16734158 -0.16448566
-0.16438448 0.16819833 -0.1680495 0.16538318 0.1676289 -0.16780512 0.16551156 -0.15663466
0.10052999 0.013248803 -0.15862076 0.168175
00000000: ff46 bcbd f394 513d 6475 8ebc 80f6 1bbe
00000010: dd2f b93e 2a7d 30be a1a3 0abd 2283 03be
00000020: 432c 05be daf7 b43e 705c 53be d659 4f3d
00000030: 76f7 b9be cb37 2fbe 3377 b93e 9f0e babe
00000040: b6f8 f83c dd62 6e3c 0947 babe 5c54 babe
00000050: 867e f6bd e027 7f3c 7445 bdbc 0227 95bd
00000060: 3b57 4f3d e912 863a 9833 ee3a 5071 ddba
00000070: 1d8a 1dbb f47e 1fbb 7dc5 1c39 1626 523a
00000080: 42e2 e1ba 19e8 a2ba e97e f3ba e6d7 c93a
00000090: f839 693a 5a8f 203b e3e6 edba 49f5 00bb
000000a0: a729 3e3b e683 e439 c5fa 983a 74f8 203b
000000b0: 05e5 e33a af68 24ba 6088 d639 af40 fb3a
000000c0: 62fb 3dbb 580a 113b 5c43 6db9 92e6 5a3b
000000d0: b7ed 1d39 83eb 5739 ec9b 80ba e642 043b
000000e0: b8f3 94b9 8cd4 d5b8 79fb ec3a d54f 32bb
000000f0: 0889 ce3d b20c b53a 19f9 f3bb dfdd 1cbd
00000100: 151b bf3a c80c b8b9 291c 2b3d 4458 223a
00000110: 4bbe 9f3d 6272 92ba cb43 8bba 36ad c3b6
00000120: e999 5f3c 4933 933c e14e c438 4c61 2bbe
00000130: 4cc7 173e 7d2a 0ebd 30c9 2abe 824d 2b3e
00000140: 8543 29be 0218 53bd e628 27be d5ca 2abe
00000150: af7d 2a3e 3b0d 27be 975b 2bbe ee6e 28be
00000160: 6854 28be 2f3c 2c3e 2b15 2cbe 355a 293e
00000170: e9a6 2b3e 1bd5 2bbe dd7b 293e d664 20be
00000180: abe2 cd3d 8211 593c 7b6d 22be 1136 2c3e

lstm.bias_ih_l0 f4 [20]
-0.16297518 -0.06723912 -0.09807345 -0.22077657 0.11666907 0.05476117 0.0096791405 -0.059151396
0.01867635 -0.19523111 0.232031 -0.076754056 -0.054915104 -0.2006368 0.15237853 -0.03328435
0.1347653 0.03501402 0.11614497 0.28918415
00000000: f7e2 26be aab4 89bd bcda c8bd 4113 62be
00000010: 32f0 ee3d 404d 603d 4295 1e3c bc48 72bd
00000020: 25ff 983c aaea 47be 8999 6d3e 3b31 9dbd
00000030: a9ee 60bd bc73 4dbe 1e09 1c3e 2c55 08bd
00000040: eaff 093e dc6a 0f3d 6add ed3d f20f 943e

lstm.bias_hh_l0 f4 [20]
0.5249848 0.41023734 0.4624534 -0.14324003 0.22798309 -0.05556528 -0.012342574 0.060227085
-0.016945872 0.19495161 0.53565586 0.10481813 -0.037692137 -0.17446922 0.13829766 -0.13467798
0.027593631 0.11453366 0.02529501 -0.12528634
00000000: 6765 063f a10a d23e b1c6 ec3e 84ad 12be
00000010: 6674 693e 6b98 63bd 8238 4abc adb0 763d
00000020: 12d2 8abc 65a1 473e be20 093f e3aa d63d
00000030: 1263 1abd 0fa8 32be e79d 0d3e 06e9 09be
00000040: 0a0c e23c a090 ea3d 7b37 cf3c 104b 00be

linear1.weight f4 [1, 5]
-0.8985274 0.9863229 0.7526619 -1.0078734 0.59446347
00000000: e405 66bf a87f 7c3f 73ae 403f ff01 81bf
00000010: c22e 183f
