LSTM_torch/models/pHdata/curriculum_None/relu/model_sl_10_bs_64_hs_5_ep_30_tim_0.635_gm_[7,7]_thd_[0.222,0.222].pth (torch, 2885 bytes, 5 tensors)

lstm.weight_ih_l0 f4 [20, 2]
000000 dd d0 1c 3e 5d 3c 92 be 6d 13 8e 3e e1 18 8e 3d
       0.1531405 -0.2856168 0.27749196 0.06938339
000010 6f c4 fc 3d 58 57 db bd cf 26 4d 3e 96 c5 10 be
       0.12342154 -0.10710019 0.20034336 -0.14137873
000020 a9 2e 91 3e 1c 98 b1 bd 5b f8 fb bc c6 c9 e6 bc
       0.2835591 -0.08671591 -0.030758074 -0.028172385
000030 24 29 f6 3c ca 6a e3 3c 4b 65 b4 3c e5 64 ee 3c
       0.030048914 0.027760882 0.022020957 0.029100845
000040 2e 5a ef 3c d9 9c 91 b9 b5 96 e2 3c de cc e6 3c
       0.029217806 -0.00027773416 0.027659753 0.02817386
000050 f5 36 c1 be 10 52 86 be ac 37 f3 be f2 5f 57 3d
       -0.3773724 -0.26234484 -0.47503412 0.052581735
000060 20 fa ae 3e a5 e6 6c 3e d9 e2 91 3e ca f1 aa 3e
       0.34175205 0.23134859 0.28493384 0.33387595
000070 aa 12 f7 be bf fb 01 3e ee 9d f1 bd 05 2b 01 be
       -0.48256427 0.1269369 -0.11797701 -0.12614067
000080 fc 93 01 3e ed 3f 00 3e e5 fa 01 3e c1 56 c2 3d
       0.12654108 0.12524386 0.12693365 0.09489203
000090 5f 8b f7 3d d2 9f ad 3c 08 68 00 3e e3 93 ed 3d
       0.1208713 0.021194372 0.12539685 0.11600473

lstm.weight_hh_l0 f4 [20, 5]
000000 b5 f0 d6 3d b5 c9 93 3e 82 f1 42 3d 18 dd 06 3d
       0.1049513 0.28864828 0.0475936 0.032925695
000010 e3 e1 91 3e 0b be ab 3d 5d ee b9 bd 7a 2f 2b 3d
       0.2849265 0.08385857 -0.09078667 0.041793324
000020 e6 a0 dd 3c 89 ec 9f bd b7 da 9b 3d 8a 9e 93 be
       0.027054261 -0.078087874 0.07610076 -0.28831893
000030 44 a7 d7 3c e0 c1 5a 3c ba ed 90 be f3 c2 f4 3d
       0.026324876 0.013351887 -0.2830637 0.11951246
000040 07 f2 02 be 13 45 16 3d 6a f5 a5 3c e9 c1 ca bd
       -0.12787639 0.036686968 0.020258624 -0.09900267
000050 8b 3c c2 3d ab 17 92 be d5 af 51 3d 60 6f 16 3d
       0.09484204 -0.28533682 0.051193077 0.03672731
000060 11 e1 d0 bd f7 79 c0 3c 9b 63 b8 bc f8 09 b6 bc
       -0.10199178 0.023495657 -0.022508433 -0.02222155
000070 d2 d4 da bc fc 6c 66 bc 94 be 9b bc 41 a9 f9 bc
       -0.026712809 -0.01406407 -0.019011773 -0.030476214
000080 79 ce b7 3c a4 31 f4 3c 3c 49 d6 bc 8a b6 b3 3c
       0.022437321 0.029808827 -0.026157968 0.021937627
000090 44 55 ee bc ea 95 f0 3c 09 c0 bf 3c 68 27 cd bc
       -0.029093392 0.02936836 0.023407 -0.025043204
0000a0 d8 8d e3 3c 7e 60 f7 bc ff be dc 3c 97 e2 a6 3c
       0.027777597 -0.030197378 0.026946543 0.020371718
0000b0 d4 ff ed bc b7 24 af 3c a2 6f ef bc 2a c8 a2 3c
       -0.029052652 0.021379812 -0.029228035 0.019870836
0000c0 82 e1 8b 3c 5e a0 fc bc 2b 59 3f be 62 50 68 bb
       0.017075304 -0.030838188 -0.18686359 -0.0035448303
0000d0 0b d8 0e bb 11 4b fc bc b9 3e 3b bb 26 9b ec 3a
       -0.0021796252 -0.030797513 -0.002857132 0.0018051609
0000e0 aa 9d e4 3a b9 05 f7 ba 07 70 31 bb a0 35 45 3b
       0.0017442007 -0.001884631 -0.002707483 0.0030091777
0000f0 27 18 2d 3e ba 51 c5 bd 3e 02 6e bb e6 93 4b 3c
       0.16903745 -0.09634729 -0.0036317254 0.012425398
000100 80 e0 a9 ba ab 49 a4 3d 43 54 bd ba 26 17 ee 3a
       -0.0012960583 0.080218635 -0.0014444668 0.0018164858
000110 6f 9c 6b 3b 4e 6a 62 bb ff 02 32 3e 25 ad 32 3b
       0.0035951396 -0.0034548226 0.17383955 0.0027263847
000120 59 a8 6d bb fc ae e7 3a 82 9f 4d 3b ec 49 f8 3d
       -0.0036263673 0.0017676051 0.0031375592 0.121234745
000130 9d 4e e7 bd 87 43 01 be 6d 9a f9 bd 3e 57 de bd
       -0.11294291 -0.12623416 -0.121876575 -0.10856484
000140 e3 8d fe 3d a2 d8 f5 bd 32 fa 01 3e 25 d5 01 3e
       0.124294065 -0.1200421 0.12693098 0.12678964
000150 06 2d f8 bd f3 2c ea 3d e8 40 f7 bd 95 8a f0 3d
       -0.121179625 0.11434355 -0.12072927 0.117451824
000160 5d 76 01 3e b0 d7 01 be c9 51 fc 3d 68 77 fc bd
       0.12642808 -0.12679935 0.12320287 -0.123274624
000170 0b 4d ff 3d 26 10 ec 3d 1f 46 01 be a5 8e fa 3d
       0.12465867 0.115265176 -0.12624405 0.122342385
000180 e3 7e fb bd 94 b4 fe 3d 05 b4 02 3e 4b 81 03 be
       -0.12280061 0.12436786 0.12763985 -0.1284229

lstm.bias_ih_l0 f4 [20]
000000 2a b2 8e 3e 55 cb 5b 3e 6e 29 64 3d ad b1 f1 3c
       0.27870303 0.21464284 0.055703573 0.029503668
000010 5c 78 fe 3c b0 7e 36 be 53 a8 9d bb 88 43 be 3d
       0.031063251 -0.17821765 -0.0048113256 0.09290224
000020 05 4f 52 3c 42 80 07 3d 4f 86 61 bb 8c 49 60 3e
       0.012836223 0.0330813 -0.003441233 0.21903056
000030 02 aa 9e 3d b9 dd ba bc 47 ca d9 bd 16 8f 22 3e
       0.0774727 -0.022810804 -0.106342845 0.15874895
000040 7f 00 3d 3e ce d0 58 3e 26 54 a6 3e 39 56 e2 3d
       0.1845722 0.21173403 0.32486075 0.11051602

lstm.bias_hh_l0 f4 [20]
000000 1c ca 56 3e ce 70 60 3e 76 1e 6d 3e 7c ce 84 3e
       0.20975536 0.21918032 0.23156151 0.25938785
000010 fc 29 84 3e b9 83 48 3e d5 29 ab bc 10 48 9c bd
       0.25813282 0.19581498 -0.02089397 -0.07630932
000020 d6 e1 07 3c 40 c1 fa bc 7c 8b 05 be 97 20 3a 3e
       0.00829359 -0.030609727 -0.1304149 0.18176495
000030 fe 9f 88 3c 3b 5c 89 3d 0d 64 b2 3e a7 80 22 bd
       0.016677853 0.06707045 0.34841958 -0.039673474
000040 3c 93 93 bd 5f eb b6 bd f5 14 59 be 74 ea 91 3c
       -0.07205817 -0.08931612 -0.211994 0.017811991

linear1.weight f4 [1, 5]
000000 9b a3 75 bf 4c 48 62 bf 20 f7 27 3f 54 4f 60 3f
       -0.9595277 -0.88391566 0.6561146 0.87621045
000010 97 a3 77 bf
       -0.96733993
