LSTM_torch/models/pHdata/curriculum_None/relu/model_sl_10_bs_64_hs_10_ep_100_tol_-0.001_gm_[5,5]_thd_[7,7].pth (torch, 4332 bytes, 5 tensors)

lstm.weight_ih_l0 f4 [40, 2]
000000 81 7d 48 3e 28 4c 55 be 7a 4c 55 3e 4d 21 28 3d
       0.19579126 -0.20829833 0.20829955 0.041047383
000010 10 25 28 3e a6 f6 07 3d bd 6c b9 3d 47 cc 52 bd
       0.16420388 0.033194207 0.09053943 -0.051464345
000020 6b 33 02 3e 36 57 e7 ba 32 4f 20 3e 16 1e f0 3c
       0.12714927 -0.0017649892 0.1565521 0.029311221
000030 21 43 ee 3d 60 17 54 bc 0b 1f f6 3d c1 04 0d bc
       0.116338976 -0.012945026 0.1201764 -0.00860709
000040 6c b2 fb 3d 05 80 d3 bb 0d b4 bf 3d 80 c3 a0 bd
       0.12289891 -0.00645447 0.09360514 -0.07849789
000050 01 b0 69 3a de e6 39 3a d3 c8 82 ba c9 46 2b 3a
       0.0008914471 0.0007091592 -0.0009978063 0.000653368
000060 ba 63 ac b9 b1 6b f9 b9 60 61 93 3a 61 94 95 ba
       -0.000328807 -0.00047573217 0.001124423 -0.0011412018
000070 22 78 9d 3a 5b bf f3 39 94 e8 52 39 4f 64 b7 3a
       0.0012013952 0.00046491143 0.00020113803 0.0013991686
000080 b3 75 89 3a bc a3 94 39 47 36 93 3a e1 61 50 3a
       0.0010487348 0.0002835075 0.0011231386 0.00079491554
000090 06 d1 a4 ba 1f 9c 82 3a 0c 50 69 3a 04 d9 36 ba
       -0.0012574501 0.0009964741 0.00089001725 -0.0006975087
0000a0 66 23 76 be 1a 49 35 be ec e3 c7 3e 86 d6 e4 bc
       -0.24036941 -0.17703667 0.39041078 -0.027934324
0000b0 cd 95 b9 3e 6d 45 83 bc 0a 32 75 be 55 6f 18 be
       0.362471 -0.016024316 -0.2394487 -0.1488622
0000c0 0c 0d 8e 3e e7 c2 4f 3d d2 84 ac 3e 70 f3 e8 ba
       0.2774433 0.050722983 0.33695084 -0.0017772745
0000d0 0a 3f 84 3e fc 0d 9f 3d 0e 6f 89 3e 6a 60 79 3d
       0.25829345 0.07766339 0.2684254 0.060882963
0000e0 ad cc 89 be d8 23 7d bd 88 08 7c be ad 94 79 be
       -0.26913968 -0.06180176 -0.2461263 -0.24373122
0000f0 2b bf 32 bb 9a df 05 3b ed 02 c0 3a b9 0a e4 ba
       -0.002727459 0.0020427466 0.001464931 -0.0017398215
000100 84 92 41 ba 4a f7 da 3a ac e0 af 3a 72 97 29 3b
       -0.0007384198 0.0016705778 0.0013418398 0.0025877622
000110 f2 0a 05 3b 36 91 b0 b9 ce 0a 17 3b 73 4d 14 ba
       0.0020300713 -0.00033677527 0.0023047212 -0.0005657293
000120 52 ef e9 ba 01 76 36 3b 4b f9 ad 3a 8b f8 2b 3b
       -0.0017847812 0.0027841332 0.0013273148 0.0026240672
000130 01 e3 99 3a 39 03 20 3b 18 52 2b bb 35 cb 2a 3b
       0.0011740626 0.0024415983 -0.002614146 0.0026061062

lstm.weight_hh_l0 f4 [40, 10]
000000 04 9f 4b bb dd 8c e4 3c 55 7c c7 3c 48 01 55 3e
       -0.0031070122 0.0278992 0.024351278 0.2080127
000010 7a 2b 5c 3c 1d ae b1 3c fc d0 32 3c f0 eb 48 3c
       0.0134381 0.021689469 0.010914084 0.012263283
000020 a1 96 4b bc 58 fe 54 3e c2 1c a0 bb 62 d3 d5 3c
       -0.012426049 0.2080015 -0.0048862407 0.026101772
000030 51 60 c6 3c c5 e1 27 bc dd f1 92 3c 14 b9 bd 3c
       0.02421585 -0.010246699 0.017937595 0.023159541
000040 38 55 82 3c 77 02 8c 3c 7f 81 8c bc f8 4f 4d ba
       0.015909776 0.01709102 -0.017151592 -0.00078320457
000050 49 cd 68 bb 56 d8 d5 3c c5 6e c3 3c 1d 38 03 bc
       -0.003552275 0.026104134 0.02385653 -0.008008984
000060 06 f4 85 3c 94 59 55 3e 8b 1b 67 3c ea 51 7c 3c
       0.016351711 0.20834953 0.014105688 0.015400389
000070 43 c2 7d bc ff 3c b9 3a d8 26 ca 3b 1d a2 66 3c
       -0.01548821 0.0014132558 0.0061691813 0.014076737
000080 f4 ec 36 3c 8c 44 c2 3b 17 cc 07 3b 90 99 12 3c
       0.011164892 0.0059285816 0.0020721012 0.008947745
000090 23 8a 9d b8 55 88 81 3a fe b4 9c ba b5 53 45 3c
       -7.512073e-05 0.0009882549 -0.0011955795 0.012043883
0000a0 35 d0 98 3a ce 4c b4 3c ca 43 9c 3c dd d6 4d ba
       0.001165873 0.02200928 0.019075293 -0.00078521465
0000b0 0a 26 1c 3c f9 d8 89 3c 60 58 e8 3b 4f 7e 0a 3c
       0.009530554 0.016827093 0.0070906132 0.008452966
0000c0 a0 d8 0b bc 6a 94 e7 3b 35 56 38 bb 05 af d1 3c
       -0.008535534 0.007067253 -0.0028127555 0.025596151
0000d0 ec 16 bd 3c f3 cb d5 bb 8b de 74 3c 48 6c 55 3e
       0.023082219 -0.006524557 0.0149456365 0.20842087
0000e0 4a c9 4e 3c 03 ef 64 3c 84 21 67 bc 55 97 13 3b
       0.012621233 0.013973 -0.014107112 0.002252062
0000f0 56 1e 17 3b 7f 7b a1 3c f0 7f 89 3c 51 1e 7f 3a
       0.0023058853 0.019712208 0.016784638 0.00097319955
000100 b5 e4 f2 3b 4e 30 6e 3c 00 89 a6 3b e5 28 d0 3b
       0.007412518 0.014537884 0.0050822496 0.0063525313
000110 ac 09 d4 bb e7 7d 04 3c 14 1c ec 3a a7 da af 3c
       -0.0064708795 0.008086658 0.0018013739 0.021466566
000120 7b 95 96 3c 16 7c 1b 39 7a 71 0e 3c 10 c3 84 3c
       0.018381825 0.00014828178 0.008694047 0.016206294
000130 0e 5a ca 3b 90 c6 f7 3b c9 99 fb bb d5 35 01 3c
       0.006175286 0.0075615123 -0.0076782447 0.00788637
000140 a2 19 da 3a 33 4e ad 3c 97 0a 95 3c 6a a1 b1 b6
       0.0016639719 0.021155452 0.018193526 -5.293802e-06
000150 8a 3f 0e 3c 0d 77 82 3c 71 82 cc 3b 09 be f7 3b
       0.008682141 0.015925908 0.0062411358 0.0075604958
000160 c3 69 fb bb 0e 51 f7 3b 35 dd f7 3b 89 5f 15 3c
       -0.00767252 0.0075475043 0.0075642117 0.009117016
000170 e2 a9 cf 3b ba 32 55 3e c0 b1 c6 ba 50 d5 8e 3b
       0.0063373903 0.20820132 -0.0015159175 0.004358925
000180 ef 31 4d bb d2 21 22 bb 4d a0 0c 3b fe 7a 46 3c
       -0.003131028 -0.0024739397 0.0021457851 0.012114285
000190 ab e7 30 3a 8f 9a fb 39 f4 57 0b ba a0 70 dd 3a
       0.00067483884 0.00047989606 -0.0005315535 0.0016894527
0001a0 6c 2f 8a b8 b7 f1 16 ba f4 2e 13 3a 38 53 1f ba
       -6.589186e-05 -0.0005758064 0.00056146015 -0.0006077769
0001b0 85 eb 28 ba 22 53 8b ba ea f7 b9 37 25 8b a0 39
       -0.00064437866 -0.0010629634 2.2169163e-05 0.0003062125
0001c0 7f 23 a0 3a 8c db c4 b9 f8 5d 8b 3a ab bb 29 3a
       0.001221761 -0.00037547608 0.0010632863 0.0006474803
0001d0 22 31 2c 3a 6d bc 6e 3a 6d d2 88 ba eb 2a 0a ba
       0.00065686007 0.0009107057 -0.0010438688 -0.00052706775
0001e0 3d c1 b4 ba 36 31 34 3b 1f ea a2 ba a8 37 85 b9
       -0.00137905 0.0027495152 -0.0012429393 -0.00025409204
0001f0 9d ae 3a 3a 83 ef ba 39 dd 4e b4 3a 33 66 bb 39
       0.00071213563 0.00035655135 0.0013756413 0.00035743564
000200 05 cb 69 b9 be c3 4d ba bf a7 f6 39 1a d1 3f 3a
       -0.00022296242 -0.0007849297 0.00047045757 0.00073172303
000210 52 d6 50 3a 19 26 b2 3a db 15 b5 3a 44 4d 98 3a
       0.00079665065 0.0013591676 0.0013815718 0.0011619707
000220 41 a2 86 ba 15 d3 68 ba 93 cd cc b9 37 0f 40 39
       -0.0010271744 -0.00088815513 -0.00039063077 0.00018316215
000230 d2 0e 4d ba 59 54 b8 3a 4a 97 4a 3a 83 20 0e 39
       -0.0007822338 0.0014063223 0.00077282323 0.00013554287
000240 26 16 d0 39 9b d7 9a 3a 83 10 84 39 b7 f7 83 ba
       0.00039689353 0.0011813523 0.00025189304 -0.0010068332
000250 1d 40 2e ba 29 16 8c b9 7d 7d 90 ba a6 90 ba 39
       -0.0006647127 -0.00026719391 -0.0011023727 0.00035584456
000260 01 03 3e 39 7c 8e 9c b9 bc 7c 8d 3a a1 95 17 3a
       0.00018120931 -0.00029860798 0.001079462 0.00057824893
000270 e0 06 9d 3a bb 8d df 39 fd 50 c0 b9 42 ff 6c 3a
       0.0011980198 0.00042639472 -0.00036681435 0.0009040722
000280 9c 14 d2 39 65 cf 82 b8 ee fd a8 3a 8d 05 6c ba
       0.00040069676 -6.237513e-05 0.001289306 -0.00090035127
000290 92 66 86 b8 89 19 8f 39 48 3e 91 3a a1 d3 ac 3a
       -6.408723e-05 0.0002729411 0.0011081183 0.0013185629
0002a0 dd 9a 75 39 ce c4 aa ba 25 7b 96 3a 02 f0 f2 39
       0.00023422712 -0.0013028623 0.0011480792 0.00046336657
0002b0 64 f6 b3 3a e3 3e 1d 3a 4c f0 25 39 2e 66 b0 3a
       0.0013730046 0.00059984456 0.00015825144 0.0013458186
0002c0 0a 35 98 b8 0e c7 68 ba be 0b af ba d6 17 a1 ba
       -7.257804e-05 -0.0008879759 -0.001335494 -0.0012290429
0002d0 86 db 57 39 fe f0 58 b8 f0 6e 46 39 be 2c 94 39
       0.00020585777 -5.1722855e-05 0.00018924079 0.00028262095
0002e0 4a d6 9f 3a 3e 16 d4 39 f4 d9 04 3a 99 96 96 39
       0.00121946 0.00040452363 0.0005067878 0.00028722433
0002f0 b0 71 46 38 01 13 1b ba 58 56 47 b8 47 17 b1 38
       4.731276e-05 -0.00059156126 -4.752571e-05 8.4443534e-05
000300 c2 83 56 3a cf 3c d6 39 f2 e0 79 39 39 19 e9 b9
       0.00081830856 0.00040862567 0.00023830289 -0.00044460015
000310 77 06 d4 38 0f 3d b3 3a 7d e0 8b 3a 69 6c 4d 38
       0.00010110152 0.0013674813 0.0010671761 4.8976774e-05
000320 42 9a 56 38 3b 14 ae b7 f6 65 97 37 9f be c0 b7
       5.116524e-05 -2.0751837e-05 1.8048082e-05 -2.2976948e-05
000330 2e 4a a1 b8 44 5b ed b8 66 65 1d 39 76 4f 1e 38
       -7.690895e-05 -0.0001131804 0.0001501046 3.774414e-05
000340 5e cb 7d b7 a3 01 95 b7 0f ad aa b8 f8 b5 b6 36
       -1.5127325e-05 -1.7762946e-05 -8.1384664e-05 5.4452066e-06
000350 8b 89 ba b8 7c 7b c1 38 d8 c2 86 38 49 8b 3d b9
       -8.8947905e-05 9.225958e-05 6.4259104e-05 -0.00018076332
000360 f1 2c 85 39 20 7b 38 39 12 5d c9 b9 89 63 ed 38
       0.0002540122 0.00017593475 -0.0003840705 0.000113195805
000370 51 3b 74 b9 2e 17 08 b9 b6 be 19 38 8a fa f3 b8
       -0.0002329175 -0.00012978606 3.6655656e-05 -0.000116338095
000380 d3 13 ab 38 d2 fc d3 b8 f7 0d 52 38 96 d2 e1 37
       8.157608e-05 -0.000101083555 5.0080907e-05 2.6920152e-05
000390 7a ab 3b b9 9f 43 54 38 c8 3a 4f 38 c8 0e 90 39
       -0.0001789759 5.0607716e-05 4.940739e-05 0.00027476833
0003a0 4b 95 e9 38 bb 4f 08 39 c3 2f f2 38 4f 26 86 38
       0.00011138114 0.00012999673 0.000115483555 6.3967535e-05
0003b0 a9 54 c4 b9 eb 81 80 38 a0 f5 8b 39 16 b3 ba b8
       -0.0003744711 6.127715e-05 0.0002669515 -8.9025285e-05
0003c0 2f 15 c4 39 c6 b3 d8 37 41 64 91 37 bb 90 85 b9
       0.00037399816 2.583292e-05 1.7332031e-05 -0.0002547557
0003d0 56 7d 1b 38 66 26 19 39 26 2d 1b 39 ad 5c 8b 39
       3.7071608e-05 0.00014605522 0.00014798771 0.00026581195
0003e0 4b b2 f8 b9 4b cd 8d 36 d5 63 35 35 62 af 49 38
       -0.00047435085 4.2260267e-06 6.757303e-07 4.8085472e-05
0003f0 e1 bb 72 b9 80 d6 98 38 b1 85 8a b7 ba 26 c4 38
       -0.00023148909 7.2878785e-05 -1.6513137e-05 9.353222e-05

lstm.bias_ih_l0 f4 [40]
000000 71 76 41 be e9 84 ce 3d 65 8f f3 bd 4f c0 2c 3e
       -0.18892838 0.10083944 -0.11892585 0.16870235
000010 8c 7c a7 3d 22 a6 cd 3d 39 9e 9d 3d 94 a4 8a 3d
       0.08178052 0.10041453 0.07696194 0.06769672
000020 d1 08 a3 3d 6b 08 73 3e 10 82 e4 bd 3e 17 f6 bc
       0.07960666 0.2373368 -0.1115762 -0.03004038
000030 80 cd f7 bb 79 00 43 3e d3 4f 81 bc af ea 21 be
       -0.0075623393 0.19043149 -0.015785133 -0.15812181
000040 fb 83 2c 3c 3c f1 aa 3d c2 3a b8 bc 92 1d ea bd
       0.0105295135 0.08346793 -0.022488955 -0.11431421
000050 8b 1c c5 bc 07 df 78 be c4 fe 52 be 9f 01 be bc
       -0.024061462 -0.24303828 -0.20604998 -0.023194132
000060 cf 50 a1 bd 75 21 2e be 12 24 3a bd cb ec 84 bd
       -0.07876741 -0.1700495 -0.045444556 -0.06490477
000070 2e 3c 83 3d a2 2c e8 bd 36 a6 5e 3c 1b 98 f8 bd
       0.06407963 -0.11336638 0.013589432 -0.12138387
000080 3a 4a 1e be 01 43 35 3d 23 d7 3d 3e 98 74 89 3d
       -0.15458003 0.044253353 0.185391 0.067116916
000090 24 c6 9a 3a f6 39 d1 3d 3c 18 27 bd c8 c6 0b be
       0.0011808318 0.10216133 -0.040794596 -0.13650048

lstm.bias_hh_l0 f4 [40]
000000 87 0a a0 bc cf 84 ce 3d 2d cd a6 3e 6b d2 22 3d
       -0.01953627 0.10083925 0.32578412 0.03975145
000010 f9 7b a7 3d df a6 cd 3d 43 9c 9d 3d 18 0b 10 3e
       0.08177943 0.10041594 0.0769582 0.14066732
000020 a3 08 a3 3d dd be ec bc 0f ea e8 3d d0 69 00 3d
       0.07960632 -0.028899604 0.11372768 0.03135091
000030 40 6c f7 3b 07 8c 41 be 1f 30 8b 3c 90 af 22 3e
       0.007550746 -0.18901072 0.01699072 0.15887284
000040 53 25 1a bc 0b c0 a8 bd f9 b0 bb 3c 53 c9 ed 3d
       -0.009408313 -0.08239754 0.022911536 0.11610665
000050 fb 58 c5 bc 00 df 78 be fb c9 52 be c3 fe bd bc
       -0.02409028 -0.24303818 -0.20584862 -0.023192769
000060 aa 50 a1 bd 7d 1a 2e be b5 25 3a bd 58 ed 84 bd
       -0.078767136 -0.17002292 -0.045446116 -0.06490582
000070 35 3c 83 3d 25 39 e8 bd 0e 81 53 bc 2a 6f fb 3d
       0.06407968 -0.113390245 -0.012909187 0.12277062
000080 b8 43 20 3e 25 f3 2f bd 06 2d 3d be 16 14 8a bd
       0.15650833 -0.04295649 -0.18474206 -0.06742112
000090 4f fb 92 3a 82 5c d5 bd fe 55 31 3d e1 17 0a 3e
       0.0011213812 -0.10418035 0.0432949 0.13485672

linear1.weight f4 [1, 10]
000000 a5 b1 16 bf c6 5c 47 3f dc 17 3d 3f 3b db 1c bf
       -0.58864814 0.77875936 0.7386453 -0.6127202
000010 00 c0 1e 3f dc 8f 32 3f 04 b5 17 3f f7 29 20 3f
       0.6201172 0.6975076 0.5926058 0.62564033
000020 7a fd 1b bf 2f ae 2a bf
       -0.6093365 -0.66672033
