LSTM_torch/models/pHdata/curriculum_None/relu/model_sl_10_bs_64_hs_5_ep_30_tim_0.676_gm_[2,2]_thd_[0.667,0.667].pth (torch, 2885 bytes, 5 tensors)

lstm.weight_ih_l0 f4 [20, 2]
0	0x3e5709fc	0.20999902
1	0x3eb0879c	0.34478462
2	0x3e8f5102	0.27991492
3	0x3ea94a31	0.33064416
4	0x3e110e6a	0.14165655
5	0xbd67a1d7	-0.056550827
6	0xbeb2079e	-0.34771436
7	0x3dccde70	0.10003364
8	0x3e159e7e	0.14611241
9	0x3d8ccfe5	0.0687559
10	0x3af46e8a	0.0018648666
11	0x3aaf4efa	0.0013374977
12	0x38b5f8fb	8.677129e-05
13	0x3a9a64de	0.0011779328
14	0x3affcaf2	0.0019515438
15	0xb9444eba	-0.00018721345
16	0xba914d3a	-0.0011085637
17	0x3a7f183c	0.0009731089
18	0x39b5b568	0.00034658168
19	0xbadc1bdc	-0.0016792971
20	0x3e374390	0.17896867
21	0x3e8429cb	0.25813136
22	0xbe7ca4da	-0.24672261
23	0xbd061655	-0.03273614
24	0x3f054c29	0.52069336
25	0x3c2b4303	0.010452989
26	0x3eb4f834	0.35345614
27	0x3e8d9c82	0.27658468
28	0xbf0d89ac	-0.55288196
29	0xbd608684	-0.054815784
30	0x3e1448e3	0.14480929
31	0x3e1393c2	0.14411834
32	0x3e0fdfda	0.14050236
33	0x3e15164c	0.14559287
34	0x3e13c294	0.14429694
35	0xbd8b07aa	-0.06788571
36	0x3c02f400	0.007992744
37	0xbe0a1356	-0.13483939
38	0x3e1532fc	0.1457023
39	0x3decbec3	0.115598224

lstm.weight_hh_l0 f4 [20, 5]
0	0x3d060f86	0.032729648
1	0xbd30a986	-0.04313042
2	0x3c71b7a4	0.014753256
3	0xbd20c663	-0.039251696
4	0xbeafe2fc	-0.34352863
5	0x3d2f0d58	0.042737335
6	0xbd47fed1	-0.048826996
7	0x3d329360	0.04359758
8	0x3c8d4e1d	0.017249161
9	0xbd874425	-0.066047944
10	0x3e407a43	0.18796639
11	0xbe2c38f3	-0.168186
12	0x3ce2bf0c	0.027678989
13	0xbeb1caa2	-0.3472491
14	0xbdcd933d	-0.10037849
15	0x3eaabdb8	0.3334787
16	0xbe291366	-0.16511306
17	0xbeb10cec	-0.3458017
18	0xbd9ca862	-0.07649304
19	0xbdfa97e3	-0.12236001
20	0x3eb1bb52	0.34713227
21	0xbe2ccba1	-0.16874553
22	0x3d28dbf1	0.041225377
23	0xbd347856	-0.044060074
24	0xbdafcc5b	-0.085838996
25	0x396da567	0.00022663698
26	0x39b05cf4	0.0003363859
27	0x3a260b57	0.0006334087
28	0xb90692d6	-0.00012833936
29	0xbabcfa5e	-0.0014417877
30	0xbae90684	-0.0017778431
31	0x3a29baa3	0.00064746494
32	0xbada31db	-0.0016646938
33	0x3a9267da	0.0011169866
34	0xbafd660a	-0.0019332778
35	0xb9db3ea5	-0.0004181761
36	0x38e9b17d	0.000111433656
37	0xba49e46d	-0.00077015796
38	0x3ab354ea	0.0013681923
39	0x3a246745	0.0006271492
40	0xba383e26	-0.0007028304
41	0x39116351	0.00013865276
42	0x3a6a66e1	0.0008941722
43	0xbad0d88a	-0.0015933674
44	0xbaf47385	-0.001865015
45	0xba218837	-0.000616196
46	0x3ad8e4a2	0.001654763
47	0x3a9e5ec5	0.0012082687
48	0x3aaf3787	0.0013367989
49	0x3b028337	0.0019914636
50	0xba4bf55c	-0.0007780397
51	0x3b744784	0.0037274072
52	0x3bba9a39	0.0056946543
53	0x3b9ec155	0.0048448243
54	0xba0b0ca8	-0.0005304315
55	0xba2948c5	-0.0006457682
56	0xba44d770	-0.00075089093
57	0xb910d9d0	-0.00013814052
58	0x3aa94914	0.0012915456
59	0x3a91350e	0.0011078434
60	0xba94b5bd	-0.0011345666
61	0x3a5f0624	0.000850769
62	0xb98aa784	-0.0002644622
63	0xba83191c	-0.001000199
64	0x3986635d	0.00025632503
65	0x3dc94e34	0.09829369
66	0xbc11ced3	-0.008899408
67	0x3d3f9bd1	0.046779457
68	0x3db64679	0.0890016
69	0xbaef3831	-0.0018250999
70	0xbc25fe4e	-0.010131432
71	0x3aaad7e3	0.001303431
72	0xbb4003d0	-0.0029299147
73	0x3cf7dbdf	0.03025621
74	0x3a7a77aa	0.00095545745
75	0x3e13721b	0.14398997
76	0xbe14a711	-0.14516856
77	0x3e1355f6	0.1438826
78	0x3dc92423	0.09821346
79	0xbe14ad94	-0.1451934
80	0x3e13aeb2	0.1442211
81	0xbe147141	-0.14496328
82	0x3e0e1b49	0.13877596
83	0x3dc0956b	0.09403499
84	0xbe12382e	-0.14279243
85	0x3e12d23a	0.14338008
86	0xbe1495a3	-0.14510207
87	0xbe1500a0	-0.1455102
88	0xbe13ea27	-0.14444791
89	0xbe100c1d	-0.14067121
90	0x3e15574c	0.14584082
91	0xbe12962d	-0.143151
92	0xbd2b90ee	-0.041886263
93	0xbe1334fd	-0.14375682
94	0x3e14d501	0.1453438
95	0x3e131d92	0.14366749
96	0xbe141143	-0.1445971
97	0x3df58aa1	0.11989332
98	0xbe159c57	-0.1461042
99	0xbe0eea59	-0.13956584

lstm.bias_ih_l0 f4 [20]
0	0x3db5ed16	0.08883111
1	0x3c5555ca	0.013020942
2	0x3e6b9171	0.230047
3	0x3eb5d4f6	0.3551404
4	0x3def8875	0.11695949
5	0xbe3e5637	-0.18587576
6	0x3ca0cfab	0.019630274
7	0x3e9dbec0	0.30809593
8	0x3e07f29f	0.13276146
9	0xbec74dcc	-0.38926542
10	0x3db8c9ec	0.090228885
11	0xbe1efe0b	-0.15526597
12	0xbe76ae48	-0.2408992
13	0x3dcfdaf7	0.10149186
14	0x3e8f702f	0.28015277
15	0xbdbb5be7	-0.09148388
16	0xbe0831ab	-0.13300197
17	0x3e213b9f	0.157454
18	0x3e30db0f	0.17271064
19	0xbe73a00b	-0.2379152

lstm.bias_hh_l0 f4 [20]
0	0x3da270cd	0.07931671
1	0x3d4fc460	0.050724387
2	0x3ee023fa	0.43777448
3	0x3ec60c5e	0.3868131
4	0x3e7095db	0.23494665
5	0x3e3f6f22	0.18694738
6	0xbca71004	-0.020393379
7	0xbe9ed043	-0.31018266
8	0xbe09aa13	-0.13443784
9	0x3ec6b671	0.38811067
10	0x3e8be174	0.27320445
11	0xbe834bc6	-0.25643748
12	0xbe504d38	-0.20341957
13	0x3e1d26ea	0.15346876
14	0x3ee0f5ac	0.43937433
15	0xbd585d01	-0.05282307
16	0x3e8c713f	0.2743015
17	0xbc661131	-0.014042185
18	0xbcd9a7cd	-0.026569271
19	0x3ec29ff7	0.38012668

linear1.weight f4 [1, 5]
0	0x3f40379b	0.7508485
1	0xbf1406ad	-0.57822686
2	0x3f9a400e	1.2050798
3	0x3f763ba6	0.96184766
4	0xbf4f1e4a	-0.8090559
