LSTM_torch/models/pHdata/curriculum_None/relu/model_sl_10_bs_64_hs_10_ep_100_tol_-0.001_gm_[7,7]_thd_[4,4].pth (torch, 4332 bytes, 5 tensors)

lstm.weight_ih_l0 f4 [40, 2]
0.124476776 0.0147217745 0.133695 0.052134585 0.11932635 0.026364787 0.10168787 -0.088498384
0.1323315 0.050761297 0.10276531 -0.07121103 0.124421895 0.015288462 0.12820935 -0.014997278
0.11139238 -0.012447978 0.11528248 -0.004041965 0.0011843665 0.00095201953 6.570477e-06 -0.0012021393
0.0012070937 -0.0011112087 0.001246575 -0.0013379223 -0.00081625517 0.0011810842 0.0011787352 -0.00021280079
-0.0015611547 0.0012843724 0.0012365303 0.0012247772 0.0009109684 0.0005457248 0.0009189967 0.00085116446
0.30128264 0.029781878 0.3637492 -0.013685885 -0.3206257 -0.013362794 0.2387851 0.27896586
-0.36079827 0.012024471 -0.22670445 -0.21413088 0.30016512 0.031814273 -0.25575975 -0.08336847
-0.24925381 -0.106598966 -0.27586764 -0.05472557 0.0027082572 -0.0015125939 0.00030788907 0.0022425689
-0.0002550946 0.0024212468 -0.0022587918 0.0010629079 0.0028725867 0.0026122287 -0.0016608374 0.0024742172
0.0024485532 0.0020063194 0.0012808385 0.0024569028 0.002296357 0.0018693266 0.0022854821 -0.0012694201
00000000: aeed fe3d 9933 713c 58e7 083e 138b 553d
00000010: 6061 f43d f7fa d73c bb41 d03d a43e b5bd
00000020: e981 073e 14eb 4f3d 9e76 d23d 17d7 91bd
00000030: e8d0 fe3d 757c 7a3c 5049 033e 25b7 75bc
00000040: b021 e43d 9bf2 4bbc 3919 ec3d 7672 84bb
00000050: bf3c 9b3a f390 793a f877 dc36 1a91 9dba
00000060: 5837 9e3a faa5 91ba 1e64 a33a 395d afba
00000070: f5f9 55ba 9cce 9a3a ca7f 9a3a 4723 5fb9
00000080: a99f ccba 6358 a83a 1213 a23a b488 a03a
00000090: 0ece 6e3a f90e 0f3a d3e8 703a ae20 5f3a
000000a0: b841 9a3e 20f9 f33c 563d ba3e c33a 60bc
000000b0: 0d29 a4be 9fef 5abc 1584 743e 9dd4 8e3e
000000c0: 8dba b8be 4902 453c 3625 68be 2045 5bbe
000000d0: 3eaf 993e af4f 023d f1f2 82be 17bd aabd
000000e0: 643c 7fbe 8f50 dabd 863e 8dbe eb27 60bd
000000f0: 047d 313b 3b42 c6ba 2c6c a139 10f8 123b
00000100: 38be 85b9 c8ad 1e3b 3d08 14bb 4551 8b3a
00000110: 0242 3c3b ed31 2b3b 75b0 d9ba 7a26 223b
00000120: e877 203b 747c 033b cfe1 a73a fd03 213b
00000130: 7a7e 163b 3104 f53a 07c8 153b ac62 a6ba

lstm.weight_hh_l0 f4 [40, 10]
0.020041294 0.026068736 -0.022335336 -0.0025749896 -0.025854938 -0.0041520656 0.020040853 -0.015707083
-0.015139674 -0.017869437 0.02637502 0.03080827 -0.028234003 0.0053778845 -0.030671319 -0.012691099
0.02643616 -0.023375332 -0.022631804 -0.024932269 0.02161584 0.027208019 -0.023790808 -0.00081501435
-0.027016241 -0.0061535747 0.021629741 -0.017612219 -0.017013866 -0.01962757 0.0011399776 0.007109338
-0.0033828146 -0.013112964 -0.006845994 0.009576728 0.0014327088 0.0019924755 0.13694261 0.0005786439
0.026201367 0.030729651 -0.028089134 0.0050203577 -0.030587692 -0.012339081 0.02625798 -0.023122352
-0.02237874 -0.024714515 0.00561139 0.01254788 -0.008140827 -0.013045122 -0.012266795 0.008559458
0.0057636625 -0.0012327072 -0.0019791778 -0.0032928109 0.020213492 0.026312433 -0.022526396 -0.0023811483
-0.02609562 -0.004299802 0.020208467 -0.015837178 -0.015262701 -0.018017007 0.014036362 0.02075525
-0.016476678 -0.00800204 -0.020509185 0.0021172576 0.014024368 -0.009187871 -0.008925445 -0.011550297
0.014585614 0.021153482 -0.016975753 -0.0061633163 -0.020895377 0.0006576166 0.014601072 -0.010008014
-0.009851747 -0.012235124 0.01611699 0.022568107 -0.01850728 -0.006529896 -0.022333613 0.00018610319
0.016108785 -0.0114238085 -0.011046733 -0.013731325 2.7125081e-05 0.00043178443 -0.00078192615 -0.00035135378
-0.00086100865 -0.001199664 0.00040322376 8.612704e-05 -0.00030300266 -0.0006567107 0.0009438423 0.0008615395
-0.0010365898 0.0010782629 -0.00051098125 -0.0005062337 0.0009706657 -0.0012846356 -0.0012913798 -0.00029649658
0.0003711798 0.0010597492 -0.00039306108 -0.0018687482 -0.0006920758 0.00044532845 0.0012310266 -0.0007261444
-0.000656021 -0.0011172408 -0.0013978446 0.0007978198 -0.0010905551 -0.0010403902 -0.0002114058 -0.00013617055
0.00060621224 0.0011293967 -0.0011999989 0.0001987857 0.00025321334 0.00082213344 -0.0010998419 0.00065318623
-0.0011989372 0.00067055406 0.001246502 -0.0007125015 -0.0011380663 -0.0011784175 0.0010928422 0.00027405008
0.0009854372 0.0001829404 0.00013418477 -0.0007772245 0.00012603206 -0.0010392709 0.0005731686 0.00062991393
0.0011682449 0.00047143135 -0.0011398126 0.0012656378 -0.00028362504 0.0006234501 0.00024621232 -0.00024830655
-7.698468e-05 -0.00027213164 0.0004528864 0.0007761654 0.00010003008 0.00023052169 -0.00073792646 -0.0007945811
-4.232314e-05 0.00016720449 -0.0006733851 -0.00075032015 0.0012440011 0.00065850985 -0.00044918753 0.000871805
-0.0006763199 -0.0007913695 0.0003395556 -0.00072276924 -9.3691124e-05 -0.0005070453 0.00012551587 0.00030432298
-0.0004301536 -0.0005356214 -0.00018840117 -0.0002714058 -0.00017597279 0.00044240075 -0.00035009068 0.0012888043
9.840724e-06 8.730879e-05 0.00016825463 -0.0003222807 0.00011151683 5.2290703e-05 -1.3881401e-05 3.7315607e-05
-8.0073965e-05 0.00032144625 0.000153672 -1.7346021e-05 0.00016509247 -0.00011829734 0.00026973177 0.00013910144
-2.6867428e-06 -0.0001460657 -8.399142e-05 -1.6600945e-05 -4.1686373e-05 -5.8739977e-05 2.688181e-05 8.831097e-05
3.7789763e-05 3.1614956e-05 -6.604628e-05 9.521219e-06 2.0191725e-05 -0.0002760391 9.2151066e-07 3.3014665e-05
-0.00014538155 0.00018594136 4.7500638e-05 7.384714e-06 5.8005488e-05 0.00025193032 0.00016633747 -9.0039604e-05
0.0001491522 2.5538964e-05 0.00036356173 0.00015343651 8.543763e-05 4.4617587e-05 -0.00011712105 1.3066425e-05
-6.978726e-05 3.0364495e-06 -4.499724e-05 -7.200471e-05 -7.773662e-05 7.377042e-05 -6.645787e-05 0.00044267243
00000000: a42d a43c 1a8e d53c 98f8 b6bc 28c1 28bb
00000010: bccd d3bc 0d0e 88bb b72c a43c 24ac 80bc
00000020: 650c 78bc ed62 92bc 6d10 d83c a061 fc3c
00000030: ff4a e7bc f738 b03b 6b42 fbbc 54ee 4fbc
00000040: a590 d83c a07d bfbc 5566 b9bc c23e ccbc
00000050: b413 b13c 5ae3 de3c f1e4 c2bc b0a6 55ba
00000060: 2a51 ddbc eda3 c9bb db30 b13c 8047 90bc
00000070: aa60 8bbc ffc9 a0bc 4d6b 953a 73f5 e83b
00000080: 36b2 5dbb c2d7 56bc 5c54 e0bb b5e7 1c3c
00000090: bbc9 bb3a 3194 023b af3a 0c3e 23b0 173a
000000a0: 40a4 d63c c0bc fb3c 2f1b e6bc d081 a43b
000000b0: 0a93 fabc db29 4abc fa1a d73c 166b bdbc
000000c0: 9f53 b7bc 1876 cabc c0df b73b a095 4d3c
000000d0: 1a61 05bc 35bb 55bc abfa 48bc f83c 0c3c
000000e0: 1bdd bc3b ca92 a1ba 18b5 01bb 33cc 57bb
000000f0: c496 a53c 2c8d d73c 4789 b8bc 0a0d 1cbb
00000100: 7bc6 d5bc 5ae5 8cbb 3a8c a53c f8bc 81bc
00000110: 6810 7abc 6798 93bc c5f8 653c ea06 aa3c
00000120: 19fa 86bc fd1a 03bc e102 a8bc b0c1 0a3b
00000130: 76c6 653c b988 16bc 083c 12bc 753d 3dbc
00000140: 80f8 6e3c 114a ad3c bc10 8bbc a5f5 c9bb
00000150: c82c abbc e763 2c3a 5639 6f3c a7f8 23bc
00000160: 3969 21bc d475 48bc c707 843c c0e0 b83c
00000170: 949c 97bc bdf8 d5bb fbf4 b6bc b224 4339
00000180: 92f6 833c ed2a 3bbc 5bfd 34bc 5af9 60bc
00000190: ab8a e337 2061 e239 2dfa 4cba e835 b8b9
000001a0: 50b5 61ba 0b3e 9dba c767 d339 1a9f b438
000001b0: 54dc 9eb9 1c27 2cba 2f6c 773a f0d8 613a
000001c0: 2fde 87ba 8054 8d3a 5ff3 05ba c5b4 04ba
000001d0: 4674 7e3a 3861 a8ba 8443 a9ba 1973 9bb9
000001e0: e99a c239 48e7 8a3a c413 ceb9 c9f0 f4ba
000001f0: 6c6c 35ba f97a e939 665a a13a ba5a 3eba
00000200: d3f8 2bba 6170 92ba e237 b7ba c824 513a
00000210: f5f0 8eba b45d 88ba d0ac 5db9 01c9 0eb9
00000220: 37ea 1e3a 4408 943a 4849 9dba 2171 5039
00000230: b8c1 8439 7184 573a 9228 90ba 963a 2b3a
00000240: a825 9dba 1fc8 2f3a ab61 a33a 2bc7 3aba
00000250: 2b2b 95ba 2175 9aba b33d 8f3a 61ae 8f39
00000260: c929 813a b1d3 3f39 f3b3 0c39 a7be 4bba
00000270: 7927 0439 2538 88ba b240 163a cf20 253a
00000280: cb1f 993a 722a f739 c465 95ba c2e3 a53a
00000290: 82b3 94b9 076f 233a 0f16 8139 242f 82b9
000002a0: d672 a1b8 e4ac 8eb9 6271 ed39 9477 4b3a
000002b0: 3ec7 d138 32b8 7139 6871 41ba 6f4b 50ba
000002c0: 2084 31b8 9d53 2f39 1c86 30ba 22b1 44ba
000002d0: c00d a33a d99f 2c3a ee80 ebb9 d889 643a
000002e0: 0f4b 31ba e873 4fba 6206 b239 3978 3dba
000002f0: 0a7c c4b8 3ceb 04ba e99c 0339 8a8d 9f39
00000300: 3d86 e1b9 f268 0cba 8e8d 45b9 784b 8eb9
00000310: 5685 38b9 06f2 e739 608c b7b9 19ed a83a
00000320: 9619 2537 8d19 b738 826d 3039 c9f7 a8b9
00000330: 24de e938 b752 5b38 2ae4 68b7 5483 1c38
00000340: 62ed a7b8 c987 a839 0323 2139 4c82 91b7
00000350: ac1c 2d39 6716 f8b8 c96a 8d39 c2db 1139
00000360: e44d 34b6 3629 19b9 8d24 b0b8 4242 8bb7
00000370: 67d8 2eb8 925f 76b8 3f80 e137 9733 b938
00000380: 7380 1e38 4d9a 0438 5482 8ab8 53bd 1f37
00000390: 6661 a937 57b9 90b9 bb5d 7735 3a79 0a38
000003a0: 9071 18b9 41f9 4239 6c3b 4738 36ca f736
000003b0: eb4a 7338 8415 8439 e06a 2e39 a5d3 bcb8
000003c0: bd65 1c39 823c d637 6e9c be39 cde3 2039
000003d0: fa2c b338 c523 3b38 e39e f5b8 de37 5b37
000003e0: c05a 92b8 cec5 4b36 6bbb 3cb8 3c01 97b8
000003f0: 8806 a3b8 31b5 9a38 4c5f 8bb8 7d16 e839

lstm.bias_ih_l0 f4 [40]
-0.052266445 0.27556282 0.05973315 -0.025040142 0.07185743 0.051625367 0.054032788 0.05590242
0.025890078 0.11365189 -0.088708095 -0.01977417 0.010033147 -0.051540405 -0.19432782 0.13443767
-0.15275179 -0.0064498917 -0.082652315 -0.06277525 -0.12272033 -0.20480636 0.14871743 0.13419184
0.20154814 -0.078220375 -0.11869138 0.050053876 0.032945886 0.08571667 0.13097258 0.06344557
0.098020114 -0.031995576 0.11559499 0.17810714 0.15945217 0.045504842 0.0013340251 -0.08309539
00000000: 5715 56bd 9216 8d3e bfaa 743d fc20 cdbc
00000010: fd29 933d 1f75 533d 7c51 5d3d f0f9 643d
00000020: 6e17 d43c 52c2 e83d 97ac b5bd 71fd a1bc
00000030: 1262 243c 081c 53bd dffd 46be 07aa 093e
00000040: f76a 1cbe 9d59 d3bb 9e45 a9bd 4f90 80bd
00000050: cc54 fbbd c2b8 51be 6249 183e 9669 093e
00000060: a362 4e3e 0132 a0bd 7714 f3bd 4b05 4d3d
00000070: 44f2 063d 398c af3d ad1d 063e c0ef 813d
00000080: c5be c83d cb0d 03bd 11bd ec3d b861 363e
00000090: 6e47 233e 4963 3a3d 74da ae3a ea2d aabd

lstm.bias_hh_l0 f4 [40]
0.18922077 -0.13904524 0.05973259 0.16200066 0.065112956 0.05163451 0.054010298 0.055900067
-0.16271336 0.02343984 0.08838125 0.020901121 -0.009020421 0.052813716 0.19612442 -0.13326557
0.1535758 0.0070838835 0.083832674 0.06295264 -0.122666776 -0.20470347 0.1487205 0.1341803
0.20151347 -0.07818624 -0.11868257 0.05005868 0.032944676 0.08571253 -0.12939358 -0.06493497
-0.09713164 0.03416026 -0.11649606 -0.17965424 -0.15814589 -0.04746068 0.0012882446 0.085073724
00000000: 17c3 413e e061 0ebe 29aa 743d 80e3 253e
00000010: f159 853d b57e 533d e739 5d3d 78f7 643d
00000020: 559e 26be e804 c03c 3b01 b53d d438 ab3c
00000030: 63ca 13bc 3253 583d d7d4 483e c576 08be
00000040: f942 1d3e ec1f e83b 77b0 ab3d 50ed 803d
00000050: b838 fbbd c99d 51be 304a 183e 9066 093e
00000060: 8c59 4e3e 1b20 a0bd d90f f3bd 550a 4d3d
00000070: fff0 063d 0d8a af3d c07f 04be a0fc 84bd
00000080: f4ec c6bd a1eb 0b3d 7c95 eebd 48f7 37be
00000090: fff0 21be 2166 42bd 51da a83a 223b ae3d

linear1.weight f4 [1, 10]
0.65889174 0.7324318 -0.67928624 0.68957853 -0.7304308 -0.6486121 0.6521984 -0.6074773
-0.56897986 -0.6330578
00000000: 21ad 283f a780 3b3f b4e5 2dbf 3888 303f
00000010: 83fd 3abf 710b 26bf 79f6 263f a283 1bbf
00000020: aaa8 11bf 1310 22bf
