LSTM_torch/models/pHdata/curriculum_None/relu/model_sl_10_bs_64_hs_10_ep_100_tol_-0.001_gm_[2,2]_thd_[4,4].pth (torch, 4332 bytes, 5 tensors)

lstm.weight_ih_l0 f4 [40, 2]
0.17485073 0.015765332 0.17078592 0.0732023 -0.17657577 0.04109867 0.16652253 0.17663324
0.12711199 -0.014507588 -0.17664628 0.023615548 0.13483937 -0.0100033125 -0.10908568 -0.17651972
0.17615668 -0.014765034 0.15963429 0.000854741 9.254339e-05 0.0021721318 -0.001008571 0.0016677409
0.0025610414 0.0005846776 -0.00043475046 0.0020748759 0.0021742366 0.0020045838 -0.0005134713 -0.00032155213
-0.00086328684 0.0013952213 0.0021015173 -0.00038826003 0.0012957392 -0.0013446084 -0.002051668 0.0019305748
-0.27283067 -0.087818906 0.43076983 -0.018983768 0.25729397 0.16224933 -0.43590567 0.032055575
-0.2713544 -0.08163788 0.2541713 0.2255345 -0.27329257 -0.078163795 -0.22837466 -0.17955872
-0.2750443 -0.10382554 0.2771412 0.08486661 0.00036284083 0.002475209 0.0011653719 0.0024982865
-0.0033943474 0.003493473 0.0028510352 -0.0008344493 0.003297848 -0.0021089958 -0.00016719369 0.003411427
-0.003294081 -0.002895242 -0.0027743066 -0.0034888901 -0.0008541597 -0.0015572255 0.00077043375 -0.002752061
00000000: 120c 333e 4c26 813c 81e2 2e3e 16eb 953d
00000010: 47d0 34be 1457 283d e284 2a3e 58df 343e
00000020: a529 023e 3cb1 6dbc c3e2 34be 6575 c13c
00000030: 5513 0a3e efe4 23bc 5068 dfbd 96c1 34be
00000040: 6b62 343e 0be9 71bc 2c77 233e b310 603a
00000050: db13 c238 535a 0e3b 0732 84ba 1998 da3a
00000060: 25d7 273b 0d45 193a 38ef e3b9 a4fa 073b
00000070: a37d 0e3b 565f 033b 7a9a 06ba ff95 a8b9
00000080: 334e 62ba dcdf b63a 9cb9 093b 618f cbb9
00000090: cbd5 a93a 923d b0ba 4775 06bb 570b fd3a
000000a0: 76b0 8bbe 66da b3bd dd8d dc3e d983 9bbc
000000b0: 09bc 833e b024 263e 072f dfbe b54c 033d
000000c0: f7ee 8abe c331 a7bd be22 823e 84f2 663e
000000d0: 01ed 8bbe 5714 a0bd 0cdb 69be 3ede 37be
000000e0: 9bd2 8cbe 7ca2 d4bd 74e5 8d3e 8cce ad3d
000000f0: ac3b be39 1e37 223b 64bf 983a 4bba 233b
00000100: b373 5ebb c0f2 643b 6fd8 3a3b f2be 5aba
00000110: b520 583b 1437 0abb b750 2fb9 3f92 5f3b
00000120: 82e1 57bb 1abe 3dbb 24d1 35bb dda5 64bb
00000130: b0e9 5fba d11b ccba eff6 493a ec5b 34bb

lstm.weight_hh_l0 f4 [40, 10]
-0.1763728 0.03142613 -0.003681538 -0.035228357 0.17654003 -0.008531244 -0.013095854 0.0106085325
0.15568747 0.014865088 -0.026118219 0.032155383 0.0057074726 -0.03601327 -0.023529872 -0.00013842015
-0.024008887 0.00814493 -0.024100173 0.025648445 -0.02085502 0.03603424 0.0028292078 -0.040015273
-0.018404528 -0.00082988036 -0.018918224 0.0055699013 -0.019549342 0.020530986 -0.02061342 0.025356784
0.00045655668 -0.029217215 -0.017527334 -0.005514372 -0.018018104 0.012238088 -0.018474722 0.020047052
-0.010003787 0.025815917 -0.008891826 -0.029591972 -0.007158017 -0.0141096115 -0.007643273 0.014806045
-0.008484845 0.009712246 -0.019537415 0.03309472 0.0013520236 -0.037426814 -0.016441664 -0.0017310572
-0.016963312 0.0073863543 -0.018117448 0.019024698 -0.17661342 0.027037494 -0.008334045 -0.03083906
0.17661548 -0.013622648 -0.008489112 0.014404181 -0.009266434 0.010515415 -0.019680785 0.03266444
0.004369358 -0.03596813 -0.017830625 0.0011289687 -0.018258404 0.0031063624 0.17665288 0.019436775
-0.012326082 0.029624796 -0.17629671 -0.033912864 -0.17659616 -0.17663668 -0.009646746 0.015628215
-0.010648566 0.011980999 -0.0130653335 0.029291486 -0.00645776 -0.03322837 -0.010224996 -0.011642906
-0.010752595 0.013277327 -0.011526782 0.012776214 -0.0019490379 0.0016877599 0.0016054015 -0.0010049985
-0.001643668 0.002055927 -0.0016470427 -1.8410696e-05 0.0022216565 0.0019043254 -0.0019257974 0.002085266
0.0015241012 -0.0021044011 -0.0013550455 0.00075213105 -0.0019717934 -0.001523715 -0.0020109345 0.0020770787
-0.0006411226 0.0020883617 -0.0015184192 -0.001720828 -0.0011307837 -0.0018830928 -0.0018235358 0.00061617733
-0.0017465898 0.00039163 -0.0017732369 0.0016916061 0.0017385079 -0.002173687 -0.0012889616 0.0013795045
0.0011756567 -0.0007294647 -0.0018471301 0.0018858167 -0.0018528147 0.00089583045 0.0016792426 -0.0013928501
-0.00023118664 0.0006672815 -0.00060039555 0.0013492372 -0.0018544643 0.00065280136 -0.0015136771 0.0010921564
-0.00080642966 -0.0009444188 -9.698634e-05 -0.0011834239 9.54743e-05 0.0004775702 -0.0015487564 0.0020083236
-0.0015424243 0.0015159646 0.00053435814 -0.0021202061 -0.001452229 -0.001954119 -0.0021769279 0.00030592855
-0.0014474705 0.0016777338 -0.0020430894 0.0008939904 0.0004095306 -0.00085266726 0.0016719725 -0.00053759245
0.0006283247 0.0019770507 0.0012066406 0.0009354217 -0.00010560895 0.0018058993 0.000588579 -0.0020514557
-0.0013600112 -0.0014374031 -0.0013814493 0.00025406317 -0.0021230516 0.0012221294 -0.002165743 0.00088920305
-0.00020193425 -0.0012952341 -0.0014523609 0.0017345865 -0.0015187414 0.0011707481 -0.0014326408 0.0016051567
3.3425287e-05 -0.00026591323 7.94302e-05 -2.4409635e-06 0.00014538332 -0.000132476 -0.00017340535 -4.339779e-05
-4.1637933e-05 4.8561622e-05 7.6169694e-05 -2.9884743e-05 2.232282e-05 0.00016107054 2.7033919e-05 8.988307e-05
0.00013051012 -7.567794e-06 -0.00012615506 -4.9533144e-05 4.9915718e-05 4.5923243e-05 -0.00012300549 -9.192144e-06
8.9264075e-05 2.8986105e-05 0.00016294829 -3.153392e-05 -0.0002474648 -2.7439328e-05 -2.7661468e-05 -3.157819e-05
-1.5759528e-05 0.00012692214 7.7406774e-05 0.00012282655 -0.00016433073 0.00018369925 -0.00023669703 4.8620735e-05
6.0615406e-05 -1.7375547e-05 -2.5617546e-05 6.2772565e-06 4.6347555e-05 0.00025960896 8.88651e-05 -9.312979e-05
0.000102977996 0.00027453474 -0.00023357997 -0.0001039347 8.223349e-06 -1.4520928e-05 0.00015915716 2.8467872e-05
00000000: 129b 34be b0b8 003d f545 71bb 9c4b 10bd
00000010: e9c6 343e a1c6 0bbc fe8f 56bc 69cf 2d3c
00000020: 896c 1f3e b38c 733c e0f5 d5bc 5db5 033d
00000030: c005 bb3b a782 13bd b8c1 c0bc e024 11b9
00000040: 49ae c4bc 5072 053c ba6d c5bc b01c d23c
00000050: 26d8 aabc a498 133d 3b6a 393b 0ee7 23bd
00000060: 18c5 96bc 548c 59ba 64fa 9abc b883 b63b
00000070: f125 a0bc 9930 a83c 7add a8bc 08b9 cf3c
00000080: 005e ef39 f158 efbc 7c95 8fbc e8b1 b4bb
00000090: b49a 93bc 4382 483c 4d58 97bc b739 a43c
000000a0: ede6 23bc e77b d33c 05af 11bc dd6a f2bc
000000b0: cc8d eabb 002c 67bc 6c74 fabb 0e95 723c
000000c0: 0504 0bbc 1d20 1f3c ee0c a0bc 548e 073d
000000d0: 6236 b13a dc4c 19bd abb0 86bc a4e4 e2ba
000000e0: a5f6 8abc 3b09 f23b 0b6b 94bc afd9 9b3c
000000f0: 26da 34be bc7d dd3c 858b 08bc 32a2 fcbc
00000100: b0da 343e 8731 5fbc eb15 0bbc 84ff 6b3c
00000110: 3ed2 17bc d948 2c3c 9939 a1bc 26cb 053d
00000120: d52c 8f3b 5153 13bd 8811 92bc e7f9 933a
00000130: a692 95bc 1d94 4b3b 7ee4 343e df39 9f3c
00000140: 56f3 49bc b3af f23c 2087 34be 37e8 0abd
00000150: a0d5 34be 3fe0 34be 630d 1ebc be06 803c
00000160: 5377 2ebc f44b 443c fb0f 56bc b3f4 ef3c
00000170: 9e9b d3bb 791a 08bd be86 27bc e3c1 3ebc
00000180: a72b 30bc 2589 593c d4da 3cbc 5353 513c
00000190: dc76 ffba d337 dd3a 566c d23a 27ba 83ba
000001a0: 5970 d7ba bbbc 063b 95e1 d7ba ab70 9ab7
000001b0: 3699 113b 8f9a f93a 0a6b fcba f5a8 083b
000001c0: 5ac4 c73a fee9 09bb c89b b1ba a92a 453a
000001d0: 3439 01bb 64b7 c7ba e2c9 03bb 991f 083b
000001e0: 0211 28ba e5dc 083b b205 c7ba 688d e1ba
000001f0: ce36 94ba 1cd2 f6ba b503 efba f686 213a
00000200: d4ed e4ba b053 cd39 f56b e8ba e2b8 dd3a
00000210: a5de e33a 6b74 0ebb 60f2 a8ba 7dd0 b43a
00000220: 7e18 9a3a 8c39 3fba 671b f2ba 822d f73a
00000230: 25da f2ba 2ad6 6a3a 081a dc3a 4b90 b6ba
00000240: b16a 72b9 81ec 2e3a dd63 1dba e3d8 b03a
00000250: 7f11 f3ba c220 2b3a 9366 c6ba b026 8f3a
00000260: 9466 53ba df92 77ba 2565 cbb8 1e1d 9bba
00000270: 6039 c838 6362 fa39 a4ff caba 149e 033b
00000280: 2c2b caba 55b3 c63a 2b14 0c3a 28f3 0abb
00000290: b858 beba ad10 00bb caaa 0ebb 0965 a039
000002a0: 0db9 bdba 68e7 db3a 5ae5 05bb ae5a 6a3a
000002b0: 44b6 d639 8885 5fba 1626 db3a 38ed 0cba
000002c0: 28b6 243a 6891 013b 2428 9e3a 1637 753a
000002d0: 607a ddb8 edb3 ec3a de4a 1a3a b771 06bb
000002e0: 6742 b2ba 3f67 bcba bf11 b5ba c833 8539
000002f0: e522 0bbb dc2f a03a 23ef 0dbb 6819 693a
00000300: 50be 53b9 d8c4 a9ba 255d beba 115b e33a
00000310: 8110 c7ba ca73 993a 73c7 bbba 1f64 d23a
00000320: 2132 0c38 456a 8bb9 c493 a638 6fcf 23b6
00000330: 0a72 1839 41e9 0ab9 25d4 35b9 0606 36b8
00000340: 64a4 2eb8 a5ae 4b38 4bbd 9f38 ffb0 fab7
00000350: e441 bb37 0be5 2839 e6c6 e237 9b7f bc38
00000360: 8bd9 0839 dbee fdb6 7e48 04b9 cfc1 4fb8
00000370: 985c 5138 b59d 4038 09fb 00b9 f537 1ab7
00000380: 4933 bb38 3027 f337 19dd 2a39 4a43 04b8
00000390: 2abe 81b9 822d e6b7 8d0a e8b7 d372 04b8
000003a0: 5433 84b7 6716 0539 7255 a238 00cb 0039
000003b0: 3250 2cb9 649f 4039 e031 78b9 1eee 4b38
000003c0: 4c3d 7e38 b4c1 91b7 43e5 d6b7 39a1 d236
000003d0: 4f65 4238 201c 8839 165d ba38 ad4e c3b8
000003e0: e4f5 d738 6eef 8f39 25ed 74b9 84f7 d9b8
000003f0: 04f7 0937 e99e 73b7 6de3 2639 4ace ee37

lstm.bias_ih_l0 f4 [40]
-0.21752128 0.17980476 0.08292088 0.1732661 0.08128203 0.0859374 0.087126374 0.003937498
-0.17064036 0.07434739 0.00400592 -0.008696156 -0.048468772 -0.06959647 0.07041111 0.04059283
0.011517262 0.06722691 -0.031150037 -0.00093763554 0.048507027 -0.29265717 0.038883395 0.29306945
0.058034167 0.093457706 0.060797095 -0.016971536 0.04921815 -0.057974927 -0.0010010144 0.113279626
0.021369264 0.17824423 0.019893773 0.030370312 -0.0002716129 -0.036678728 -0.12805931 -0.0020918497
00000000: e6bd 5ebe bd1e 383e 6cd2 a93d ab6c 313e
00000010: 3177 a63d f3ff af3d 506f b23d 2106 813b
00000020: 59bc 2ebe 7243 983d 1844 833b 527a 0ebc
00000030: 3187 46bd 9888 8ebd b333 903d ab44 263d
00000040: e6b2 3c3c 43ae 893d 5d2e ffbc a8cb 75ba
00000050: 4eaf 463d 29d7 95be 3244 1f3d 330d 963e
00000060: 3cb5 6d3d c166 bf3d 6006 793d e407 8bbc
00000070: f998 493d 1e77 6dbd 7834 83ba 26ff e73d
00000080: 980e af3c a885 363e 44f8 a23c 29cb f83c
00000090: 4467 8eb9 6f3c 16bd fb21 03be 6a17 09bb

lstm.bias_hh_l0 f4 [40]
0.041060727 -0.003385982 0.082920924 0.0026459843 0.0953511 0.085909985 0.08712467 -0.18044157
-0.0059627374 -0.1948555 -0.0018241579 0.011030622 0.050642036 0.06940036 -0.068201475 -0.04313227
-0.011837676 -0.06606956 0.031840324 -0.001613395 0.048506517 -0.29057172 0.03901489 0.29487747
0.058066767 0.09339959 0.060796272 -0.016980449 0.051533964 -0.05798134 0.0042662956 -0.113973305
-0.022386013 -0.17530905 -0.019800125 -0.028877618 0.0032942414 0.03655717 0.1307658 0.0036769656
00000000: 4b2f 283d 5ae7 5dbb 72d2 a93d 4068 2d3b
00000010: 7047 c33d 93f1 af3d 6b6e b23d adc5 38be
00000020: 1163 c3bb 3388 47be 9518 efba c8b9 343c
00000030: 066e 4f3d c721 8e3d 37ad 8bbd 77ab 30bd
00000040: d0f2 41bc 7a4f 87bd 006b 023d 8e78 d3ba
00000050: c5ae 463d d1c5 94be 14ce 1f3d 2efa 963e
00000060: 6bd7 6d3d 4948 bf3d 8305 793d 951a 8bbc
00000070: 4715 533d d77d 6dbd 48cc 8b3b d66a e9bd
00000080: df62 b7bc 3784 33be df33 a2bc c190 ecbc
00000090: 33e4 573b f9bc 153d 78e7 053e 3ff9 703b

linear1.weight f4 [1, 10]
-0.60934436 0.8788952 0.5840829 -0.8715118 -0.65141076 0.6172668 -0.66114575 -0.47340155
-0.66124415 0.6331086
00000000: fefd 1bbf 47ff 603f 7586 153f 661b 5fbf
00000010: dbc2 26bf 3205 1e3f d940 29bf b061 f2be
00000020: 4c47 29bf 6813 223f
