LSTM_torch/models/pHdata/curriculum_None/relu/model_sl_10_bs_64_hs_5_ep_80_tim_0.666_gm_[2.78,2.78]_thd_[0.222,0.222].pth (torch, 2979 bytes, 5 tensors)

lstm.weight_ih_l0 f4 [20, 2]
000000 26 dc c6 3d 8b 98 79 bd c4 1d 61 3e 8f 14 76 3d
       0.09709959 -0.060936492 0.21984011 0.0600782
000010 0c f6 42 3e e7 01 3f 3d 8f 2c 16 3e 89 bd 8a bd
       0.19039172 0.046632674 0.14665435 -0.06774432
000020 6f 35 bd 3d ca a9 e5 bd 12 7b d5 3c f1 81 a5 bc
       0.09238707 -0.11214025 0.026059661 -0.020203562
000030 60 d8 97 3c 3d 27 95 3c 2e 75 da 3c 50 4b 73 3c
       0.018535793 0.018207187 0.026667204 0.014849499
000040 a3 61 c4 bc 5f 89 cb bc f4 cf 8e bc d1 21 a1 bc
       -0.023972338 -0.024845777 -0.017433144 -0.019669445
000050 60 44 9e be 42 dc 35 be d0 80 dc 3e ca e7 9c 3c
       -0.3091154 -0.17759803 0.43067026 0.019153494
000060 35 99 c9 be 49 d9 09 bd 06 50 b1 be 75 3b 5f be
       -0.393747 -0.033654485 -0.34631366 -0.21800025
000070 ea 71 ea 3e 49 76 55 3e 8d e3 08 3e de d3 eb bd
       0.45790035 0.20845903 0.13368054 -0.1151502
000080 32 af 08 3e b0 94 08 3e 08 d4 03 3e 2d 75 05 3e
       0.13348082 0.1333797 0.12873852 0.1303298
000090 8a 66 f0 3d ef 5d e4 bd d7 09 ed 3d 7f 19 07 be
       0.11738308 -0.11150729 0.115741424 -0.1319332

lstm.weight_hh_l0 f4 [20, 5]
000000 c9 11 00 3c c3 6a 1b 3d 31 c8 1b bd 98 85 11 3c
       0.00781674 0.037943613 -0.038032714 0.008881949
000010 eb 4f 0f bd e0 f6 b3 bc 41 d0 89 3d fb 00 91 bd
       -0.034988325 -0.021968305 0.067291744 -0.07080265
000020 a1 02 7e bc df 6d 4e be d3 18 77 bc 98 d1 81 3d
       -0.0155035565 -0.201591 -0.015081602 0.06338805
000030 19 3d 86 bd f5 ac 28 bc 23 56 9c bc 71 c1 03 3a
       -0.06554622 -0.010295142 -0.019084042 0.00050260784
000040 08 cc 40 3d 05 a1 4d bd 9d 93 7e 3e f7 d2 05 bd
       0.04706958 -0.05020239 0.24860997 -0.032671895
000050 fa 94 28 3c 42 96 b1 3c be 18 a0 3e 97 2e 66 3c
       0.010289425 0.021678094 0.31268877 0.014049194
000060 53 d8 e0 bc 7f a1 d3 3c a2 90 cb 3c 85 66 86 bc
       -0.027446901 0.025833843 0.02484924 -0.016406307
000070 68 d7 d0 3c 86 b5 86 bc 6a a2 63 3c a2 7f dd 3c
       0.025493339 -0.016443979 0.013893703 0.0270384
000080 54 c7 86 bc ce 41 d4 3c 03 6e df bc 2d dc 9a bc
       -0.016452469 0.025910284 -0.027274137 -0.018903816
000090 ef 3f cc 3b 2c 77 8b bc 27 e2 6f bb a0 cd a0 3c
       0.0062332074 -0.017024599 -0.0036603303 0.0196293
0000a0 bc df 3e 3c bc 86 dc 3c 97 f5 98 bc 27 96 a8 3c
       0.011650022 0.026919715 -0.018671794 0.02057941
0000b0 08 1f d9 bc 9e 66 e1 3c 8b c3 86 ba d8 9d 8c bc
       -0.026504055 0.027514752 -0.0010281665 -0.01716511
0000c0 0b 1c d2 3c 1c 62 cd bc 88 f1 04 bb 41 b5 85 39
       0.025648138 -0.025071196 -0.0020285565 0.00025502782
0000d0 67 68 ac 3b 54 a1 1a ba 88 fc 79 ba b5 54 dd 3a
       0.005261469 -0.00058986736 -0.0009536226 0.0016886207
0000e0 3f 35 58 3d 61 a1 28 ba 1b 68 6f bd b0 91 65 3a
       0.052785154 -0.0006432739 -0.058448892 0.0008757366
0000f0 c0 3a 71 3e 8e cf 8d ba 27 10 df 39 89 8d bf bd
       0.23557568 -0.0010819302 0.0004254591 -0.093531676
000100 89 82 9c b9 6a da 11 3b 78 69 24 3d 27 a5 8d b8
       -0.00029851895 0.002225543 0.040139645 -6.754166e-05
000110 df a3 58 bd 0f a5 e1 3d 2a 0d ba bd be a4 2b 3b
       -0.052890655 0.110178106 -0.09084542 0.0026190723
000120 4b a7 a0 b8 1a 7b 3e 3a ff f9 9f 3b 4e 61 11 bd
       -7.660555e-05 0.00072662684 0.004882097 -0.035493188
000130 da ae e4 3d 6d b1 f1 bd eb 49 c0 bc a7 b1 bb bd
       0.11166163 -0.118014194 -0.023472747 -0.09164744
000140 af 6f b0 bd 3a 1c 04 3e d7 4e 01 be 55 35 cf 3d
       -0.08615052 0.12901393 -0.12627731 0.10117594
000150 10 0a 99 bd 7f 13 d7 bd 75 a8 00 3e 66 fa f9 bd
       -0.074726224 -0.105017655 0.12564261 -0.12205963
000160 91 7c c7 bd 41 5a ad 3c 49 c8 e6 3d 6b 67 bd 3d
       -0.09740556 0.0211612 0.1126867 0.09248241
000170 96 aa eb bd e8 6c 47 bc a9 98 bc bd 9a 50 02 3b
       -0.11507146 -0.012171961 -0.09208805 0.0019884468
000180 89 71 8d 3d 7c 30 db bd ce 90 e7 3d 85 cb dc bd
       0.06906421 -0.10702607 0.11306916 -0.10781006

lstm.bias_ih_l0 f4 [20]
000000 21 05 cb 3e d5 51 c1 3d eb d6 29 3e ac f0 44 be
       0.3965235 0.09439436 0.16585891 -0.19232434
000010 96 1f 7e 3e e8 b6 47 be 4e 34 40 3d 7f 9b 8f bd
       0.24816737 -0.19503367 0.04692488 -0.070120804
000020 1f 73 97 3e 96 78 38 bd bd 6e b8 bc ba 79 86 be
       0.29580018 -0.045036875 -0.022513742 -0.26264745
000030 ec 50 52 3e aa 3f 93 3c ea 67 47 3e b0 30 ed 3d
       0.20538682 0.017974693 0.19473234 0.11581552
000040 9e b4 8f 3e 51 6f 99 3e 70 da f1 bb bd 31 38 3e
       0.28067487 0.2996774 -0.007380776 0.17987724

lstm.bias_hh_l0 f4 [20]
000000 b5 cc 9d bd a8 f6 6f 3e 39 e9 29 3e 16 a1 da bd
       -0.077050604 0.23433936 0.16592874 -0.10675256
000010 fc 1f 7e 3e 33 bf 51 3e 1d 38 02 bd 5e 3e ac 3d
       0.24816889 0.20483093 -0.031791795 0.08410333
000020 d3 9e 8b be 31 25 8c 3d 28 a3 c3 bc 19 4d 7c be
       -0.2726961 0.06843031 -0.02388151 -0.24638785
000030 81 61 6f 3e 3c 08 94 3c 64 21 46 3e 64 43 67 3c
       0.23377039 0.018070333 0.19348675 0.014115188
000040 04 fe 19 be de bc 43 be 9f 92 f0 3d 5d d5 8a bd
       -0.15038306 -0.19115016 0.11746716 -0.06778977

linear1.weight f4 [1, 5]
000000 dc 6a 61 bf fe 47 8a 3f 33 a4 8a bf ea d4 57 bf
       -0.8805368 1.080322 -1.083136 -0.84309256
000010 01 4a 8a 3f
       1.0803834
