LSTM_torch/models/pHdata/curriculum_balance/relu/model_sl_10_bs_64_hs_5_ep_100_tim_0.671_gm_[0.000501,6.38e-05]_thd_[0.2,0.8].pth (torch, 3004 bytes, 5 tensors)

lstm.weight_ih_l0 f4 [20, 2]
0	0x3e0e5635	0.13900073
1	0x3d25c4b4	0.040470794
2	0x3db0cbc0	0.08632612
3	0x3c188441	0.009308876
4	0x3d882a09	0.066486426
5	0xbdcb7a98	-0.09935492
6	0x3d941e52	0.07232346
7	0xbcc40a1c	-0.023930602
8	0x3d8435df	0.064555876
9	0xbcb6dcb3	-0.022322034
10	0x3e815fd7	0.25268432
11	0x3e037f8f	0.12841628
12	0x3e39169a	0.18075028
13	0x3d9aafc2	0.075530544
14	0xbc730ae1	-0.014834137
15	0xbe5632ca	-0.20917812
16	0x3e20a9f6	0.15689835
17	0x3cee7f48	0.029113427
18	0x3dfc0e34	0.123073965
19	0x3c93b5e2	0.018031064
20	0x3e96e6a2	0.29472834
21	0x3da04710	0.07826054
22	0x3e856c43	0.2605916
23	0x3dd6dd10	0.10491383
24	0x3ed7df98	0.42162776
25	0x3e17a183	0.14807706
26	0x3e9410ec	0.2891916
27	0x3de89460	0.11356425
28	0x3e8db0c2	0.27673918
29	0x3e1120f7	0.14172731
30	0x3e851873	0.25995216
31	0x3deb34a2	0.11484648
32	0x3e7fc396	0.24976954
33	0x3daf61e8	0.08563596
34	0x3e0cb004	0.1373902
35	0xbe1c918a	-0.15289894
36	0x3e4e8f7a	0.2017192
37	0x3cbf4df5	0.023352602
38	0x3e3f09f3	0.18656139
39	0x3cbe5ae1	0.023236694

lstm.weight_hh_l0 f4 [20, 5]
0	0x3d5fe6e3	0.05466355
1	0x3d2c7abe	0.042109244
2	0xbc542009	-0.012947091
3	0x3d1007e0	0.03516376
4	0x3cef4e37	0.0292121
5	0x3d1ac916	0.037789427
6	0x3cd374fe	0.025812622
7	0xbc6d2295	-0.014473577
8	0x3c9fb0c7	0.019493474
9	0x3c776a43	0.015101018
10	0x3d27c636	0.040960513
11	0x3cf989bd	0.030461187
12	0xbcce7c5e	-0.025205787
13	0x3c4c6be9	0.0124769
14	0x3c4863b2	0.0122308
15	0x3d39196a	0.045190252
16	0x3cf50906	0.02991153
17	0xbcfb840c	-0.030702613
18	0x3ca44f2c	0.020057283
19	0x3c6ba621	0.01438287
20	0x3d12fab4	0.03588362
21	0x3cc37ff4	0.023864724
22	0xbcaf716d	-0.02141639
23	0x3c7a7541	0.015286745
24	0x3c3d03b7	0.01153653
25	0x3dadfd39	0.08495564
26	0x3d867de6	0.06566982
27	0x3c08b18d	0.008343113
28	0x3d7ed09b	0.06221066
29	0x3d54cd11	0.05195338
30	0x3d8510de	0.06497358
31	0x3d3d539b	0.04622231
32	0xbb5af154	-0.0033408003
33	0x3d26c4cd	0.040715028
34	0x3d064521	0.03278077
35	0x3d137c64	0.0360073
36	0x3cb3a2d4	0.021928228
37	0xbd8ab29b	-0.067723475
38	0xbc1e4ed5	-0.00966235
39	0xbc06cde3	-0.008227798
40	0x3d99f240	0.07516909
41	0x3d504b1e	0.050852887
42	0xbce82181	-0.028336288
43	0x3d2599ed	0.04043
44	0x3cf7917f	0.030220745
45	0x3d69540b	0.056964915
46	0x3d1f6ca8	0.038921982
47	0xbc9d1eea	-0.01917978
48	0x3cf01179	0.029305207
49	0x3cbb5a35	0.022870163
50	0x3bbe4658	0.0058067255
51	0xb924bd20	-0.00015710713
52	0xbd703a67	-0.058649447
53	0xbb69413a	-0.0035591857
54	0xb9d37a30	-0.00040336093
55	0x39e8857b	0.0004434994
56	0x373ae48b	1.1139676e-05
57	0x3a8ee547	0.001090207
58	0x36801640	3.8172875e-06
59	0xb8c76b1b	-9.5090094e-05
60	0xb9c01540	-0.00036636926
61	0xb8178fb0	-3.6135025e-05
62	0x3e0e7d86	0.13915071
63	0xb8bf7c9e	-9.1308015e-05
64	0xb83c9ac8	-4.4966844e-05
65	0xb9040690	-0.00012590946
66	0xb92599b7	-0.0001579289
67	0x3b2d1529	0.0026410318
68	0xb948dd9b	-0.00019156041
69	0xb9835668	-0.00025050645
70	0xb8a36f25	-7.793148e-05
71	0x371f074e	9.478839e-06
72	0x3c302e8f	0.010753288
73	0x3794b748	1.7728322e-05
74	0x378881f8	1.6272985e-05
75	0x3db775f4	0.08958045
76	0x3d9af02a	0.07565339
77	0x3c7fc97e	0.015612004
78	0x3d893a31	0.06700552
79	0x3d78a81f	0.060707208
80	0x3daa4b9f	0.08315205
81	0x3d899ad1	0.06718982
82	0x3c114288	0.00886596
83	0x3d6b096c	0.057382032
84	0x3d51fd32	0.051266856
85	0x3d978c45	0.07399801
86	0x3d5e2a44	0.054239526
87	0xbd48413c	-0.048890337
88	0x3cb33dfe	0.021880146
89	0x3ca56c31	0.020193191
90	0x3db1a106	0.08673291
91	0x3d8c22c1	0.06842566
92	0xbc6ece81	-0.014575602
93	0x3d584561	0.05280054
94	0x3d3e1740	0.04640889
95	0x3d97eba8	0.07417995
96	0x3d6e71b6	0.058213912
97	0xbbe1c264	-0.0068896282
98	0x3d39edfb	0.04539297
99	0x3d2462a7	0.040133145

lstm.bias_ih_l0 f4 [20]
0	0xbdd202f1	-0.10254467
1	0x3d94df72	0.07269181
2	0x3e512993	0.20426016
3	0x3ddc365e	0.10752557
4	0x3dbfa747	0.093580775
5	0x3daa7873	0.08323755
6	0x3d995b5a	0.07488127
7	0x3e3a424f	0.18189357
8	0x3def5535	0.11686174
9	0x3dde94c8	0.108682215
10	0xbe28ba21	-0.16477253
11	0xbd766ede	-0.060164325
12	0x3e318107	0.17334376
13	0xbdbe6ebc	-0.09298465
14	0xbd086894	-0.03330286
15	0x3e2a33b2	0.16621283
16	0x3d940a71	0.07228554
17	0x3e9bdc04	0.30441296
18	0x3e5b797e	0.21433064
19	0x3e342ded	0.17595644

lstm.bias_hh_l0 f4 [20]
0	0xbc42e4e4	-0.011895392
1	0x3d956e95	0.072964825
2	0x3e512a8d	0.20426388
3	0x3ddc3c5b	0.107536994
4	0x3dbfa810	0.09358227
5	0x3daa7636	0.08323328
6	0x3d99505b	0.0748603
7	0x3e3a3308	0.1818353
8	0x3def545c	0.11686012
9	0x3ddea3b5	0.108710684
10	0xbe2b2d85	-0.16716583
11	0xbd770ece	-0.060316853
12	0x3e2ff76a	0.17184225
13	0xbdd5a51a	-0.10431881
14	0xbd06e5bb	-0.03293393
15	0x3e2a33c1	0.16621305
16	0x3d9032fe	0.07040976
17	0x3e9bde53	0.30443057
18	0x3e5b8cc2	0.21440414
19	0x3e34295e	0.17593905

linear1.weight f4 [1, 5]
0	0x3f5705bd	0.8399313
1	0x3f3c39ca	0.7352568
2	0x3f83e4bb	1.0304178
3	0x3f5c05dc	0.8594644
4	0x3f34e134	0.7065613
