LSTM_torch/models/pHdata/curriculum_None/backup/relu/model_sl_10_bs_64_hs_5_ep_100_tol_-0.001_gm_[8,8]_thd_[4,4].pth (torch, 2855 bytes, 5 tensors)

lstm.weight_ih_l0 f4 [20, 2]
0	0x3e73c804	0.23806769
1	0x3e73cda7	0.23808919
2	0xbca2fbea	-0.019895513
3	0x3e73d4c7	0.23811637
4	0x3e2fc9e3	0.17166857
5	0xbc98a2c3	-0.018632298
6	0x3e5023af	0.20326112
7	0xbe73dedd	-0.23815484
8	0x3e63632a	0.22205797
9	0x3a94b0af	0.001134416
10	0x3a496cfb	0.0007683781
11	0x3a67c023	0.0008840581
12	0x3a5e8dd4	0.0008489762
13	0xba4c84f0	-0.00078017917
14	0x399e57b1	0.00030201444
15	0x3a60fb16	0.00085823366
16	0x394567b6	0.0001882602
17	0x3a406b01	0.00073401636
18	0x39c4a1f5	0.000375047
19	0x3a5a7a14	0.0008334231
20	0xbec2ffa9	-0.38085678
21	0xbd04b116	-0.032395445
22	0x3ebc5760	0.36785412
23	0x3ebe9515	0.37223116
24	0xbed12ad2	-0.40852982
25	0xbd0d14bf	-0.034443613
26	0x3ec20f11	0.3790212
27	0x3de3be84	0.11120322
28	0xbf0b0c36	-0.5431551
29	0x3c93ecf4	0.018057324
30	0xb71fd71f	-9.527225e-06
31	0xb9dc6cb6	-0.00042042666
32	0x3a05b580	0.0005100593
33	0xbab0c7c5	-0.001348727
34	0xbab49257	-0.0013776523
35	0xb8fb6675	-0.00011987697
36	0x397a7d17	0.00023888458
37	0xbadef537	-0.0017010336
38	0x3adc7e54	0.0016822317
39	0x37237b80	9.744312e-06

lstm.weight_hh_l0 f4 [20, 5]
0	0xbbab6dd9	-0.0052316007
1	0xbd46ae7c	-0.048506245
2	0x3c5e2f16	0.013561031
3	0xbd172ee7	-0.036909964
4	0xbadd036d	-0.0016861983
5	0x3caad0c5	0.020851502
6	0x3e73e508	0.23817837
7	0x3d394db6	0.045240127
8	0xbd4b034a	-0.049563684
9	0x3d12ca3b	0.035837393
10	0xbd158dd3	-0.036512207
11	0xbc4b3470	-0.012402639
12	0xbca0bf4a	-0.019622464
13	0xbaf131b8	-0.0018401658
14	0xbd10bf42	-0.035338648
15	0xbd05f3ce	-0.032703213
16	0xbcc85baa	-0.024457771
17	0xbc6b8b37	-0.014376453
18	0xbc6e7911	-0.014555232
19	0xbd2b5c22	-0.04183591
20	0xbe6d531b	-0.23176233
21	0x3e73e3dd	0.23817392
22	0xbcae1a47	-0.021252764
23	0xbe67cbdc	-0.2263636
24	0xbcd17956	-0.025570553
25	0xb9b25b14	-0.00034018664
26	0x3a1b77cc	0.0005930632
27	0x3a1507fd	0.0005685089
28	0xba4b6301	-0.0007758588
29	0xba5d1682	-0.0008433835
30	0x3a027a9f	0.00049773784
31	0x3a60660c	0.0008560128
32	0xb98e2300	-0.00027110428
33	0xb9de925b	-0.00042452183
34	0xba13df12	-0.0005640845
35	0x3a3a83ea	0.00071149936
36	0x39e2654a	0.00043181545
37	0xba03ebae	-0.00050323724
38	0x3a22632c	0.00061945873
39	0xba29e9bf	-0.0006481669
40	0xba38a3e8	-0.0007043467
41	0x3a317d2f	0.0006770668
42	0xba5db98b	-0.0008458129
43	0x3a56fb34	0.00082008843
44	0xb9aa37f1	-0.00032466606
45	0xba0a13f0	-0.0005267253
46	0xba53fdaf	-0.0008086813
47	0x3a5a682e	0.0008331564
48	0x3a4f35af	0.0007904423
49	0xba5e445d	-0.0008478815
50	0xb887cc57	-6.475363e-05
51	0xb8d09367	-9.945669e-05
52	0x391379af	0.00014064343
53	0x387819aa	5.915171e-05
54	0x3890b5fd	6.900353e-05
55	0x38351b93	4.3179443e-05
56	0xb8607b29	-5.3520464e-05
57	0x368558d1	3.9740485e-06
58	0xb9268aa0	-0.00015882635
59	0xb9188050	-0.0001454365
60	0x38ab4646	8.167005e-05
61	0xb676e358	-3.6789188e-06
62	0xb90f4b15	-0.00013665513
63	0x376883d5	1.3858972e-05
64	0x37d1e30f	2.5020474e-05
65	0x39334d5f	0.00017099593
66	0xb924af92	-0.00015705664
67	0xb87903f1	-5.9369897e-05
68	0x3701f58c	7.74617e-06
69	0x3987eea8	0.0002592702
70	0xb85df03c	-5.291424e-05
71	0xb52846bb	-6.2687803e-07
72	0xb9284dba	-0.00016050684
73	0xb84224a6	-4.6287336e-05
74	0xb92b2e43	-0.00016325065
75	0x3878f708	5.9357873e-05
76	0x39ace4c4	0.0003297684
77	0x3a98f2e2	0.0011669064
78	0x3a60e3c9	0.00085788645
79	0xb9f48b49	-0.00046643082
80	0xbadfa9fb	-0.0017064208
81	0x3ad74213	0.001642289
82	0x3ab3de6f	0.0013722907
83	0x39e04b5f	0.00042780765
84	0xbab12158	-0.0013513966
85	0xbac11cb4	-0.0014733286
86	0x3a3712d0	0.0006983699
87	0x3978f29a	0.00023741499
88	0x3ab28984	0.0013621305
89	0xba0d40ae	-0.0005388361
90	0x3a498b25	0.00076882757
91	0xba8bd8b9	-0.0010669447
92	0xbad1e1f0	-0.0016012769
93	0x3acd2510	0.0015651304
94	0x387e9caa	6.0704224e-05
95	0xb798eca5	-1.8230008e-05
96	0x3ad0004e	0.0015869231
97	0xbaa98910	-0.0012934525
98	0x3af0963d	0.0018355321
99	0xbac5e9c4	-0.0015099575

lstm.bias_ih_l0 f4 [20]
0	0x3dedb30b	0.11606415
1	0x3c1897a1	0.009313495
2	0xbdd7d71d	-0.105390765
3	0xbe0490ca	-0.12945858
4	0x3dde8160	0.1086452
5	0xbdca2099	-0.09869499
6	0xbb870272	-0.0041201646
7	0xbcc059a3	-0.023480242
8	0xbd50604f	-0.050873097
9	0xbe81f10a	-0.2537921
10	0x3e2c4335	0.16822512
11	0x3e901f5b	0.28148922
12	0x3e44a261	0.19202568
13	0x3b8d90de	0.004320248
14	0x3ec375de	0.38175863
15	0x3da4cb19	0.0804655
16	0x3d0a8b94	0.03382452
17	0x3dba4930	0.09095991
18	0x3d99e6d4	0.0751473
19	0xbe710e26	-0.23540553

lstm.bias_hh_l0 f4 [20]
0	0x3dedb363	0.11606481
1	0x3e6a5866	0.22885284
2	0x3eafe760	0.34356213
3	0x3ebb9901	0.3664017
4	0x3e04a2a0	0.12952662
5	0x3dc88440	0.0979085
6	0x3b8fce20	0.0043885857
7	0x3cc7bb23	0.024381226
8	0x3d4e6d34	0.050397113
9	0x3e825788	0.25457406
10	0x3e4282ee	0.18995258
11	0x3e8807f3	0.26568565
12	0x3e44e840	0.19229221
13	0x3bd5e1a1	0.006527141
14	0x3eb86124	0.36011612
15	0xbda7bd20	-0.081903696
16	0xbd0bdda6	-0.034146927
17	0xbdbb81d5	-0.09155623
18	0xbd9b5632	-0.075848
19	0x3e716542	0.23573783

linear1.weight f4 [1, 5]
0	0xbf87b2a1	-1.0601388
1	0x3f96227b	1.1729273
2	0xbf7c6d1a	-0.98603976
3	0x3f911f67	1.1337708
4	0xbf9f7fe6	-1.2460907
