LSTM_torch/models/pHdata/curriculum_None/backup/relu/model_sl_10_bs_64_hs_5_ep_100_tol_-0.001_gm_[1,1]_thd_[1,1].pth (torch, 2855 bytes, 5 tensors)

lstm.weight_ih_l0 f4 [20, 2]
000000 12 ec a7 3c ef 0d fc 3d e3 c1 15 3e b6 3b 78 bd
       0.02049831 0.12307345 0.14624743 -0.06060382
000010 30 df 4b 3e 35 96 93 bc 1e d8 67 3e 46 e3 44 3d
       0.19909358 -0.01801596 0.22641036 0.048068307
000020 28 63 4d 3e 36 e1 51 be eb b0 d8 3a c7 9c 69 ba
       0.20057356 -0.20496067 0.0016532218 -0.0008911606
000030 0f 1f 57 ba 06 63 bb 3a 77 6d 84 3a b3 2f c1 3a
       -0.0008206227 0.0014296479 0.0010103424 0.0014738947
000040 f3 f2 d4 ba f3 a7 23 ba 74 88 a9 b8 e1 66 ca 3a
       -0.0016246721 -0.0006242983 -8.083964e-05 0.0015442037
000050 c2 58 cf be ae 8d 46 be 26 6a bc be 87 9e 99 bd
       -0.40497404 -0.19389984 -0.36799735 -0.0750094
000060 96 86 ec 3e 40 40 05 3c 8b 58 0b 3f 75 cb 27 3d
       0.4619643 0.008132994 0.5443198 0.040965516
000070 21 76 c2 3e d1 02 94 3e 72 b6 63 ba bd de 89 b9
       0.3798075 0.289084 -0.0008686549 -0.0002629663
000080 8b a1 62 ba 3f 1c b3 ba 39 59 07 b9 cc d8 72 39
       -0.00086452876 -0.0013665034 -0.00012907841 0.00023159682
000090 84 39 13 3b 6f 39 f5 3a bc 3e fe 38 34 d1 73 3a
       0.0022464702 0.0018709133 0.00012123349 0.0009300888

lstm.weight_hh_l0 f4 [20, 5]
000000 94 7d 09 3d da a6 f9 3c f8 d4 8a bc 73 5b 0c 3e
       0.033567026 0.030475069 -0.016947255 0.1370676
000010 8a 9a ff bb 1b 47 55 3c 38 b8 bc ba ca 01 a3 3c
       -0.007800405 0.013017441 -0.0014398163 0.019898314
000020 39 67 05 3d 8f 63 a0 bc 54 d6 27 bb 20 4e 56 bc
       0.032569144 -0.019578723 -0.0025609927 -0.01308015
000030 21 21 c3 3c 60 69 fc 3c fb ce 15 bc 71 fb ed bc
       0.023819508 0.030811965 -0.009143586 -0.02905056
000040 ec 68 f9 bc 36 a2 c7 bd c0 4c 02 3d 3d 32 65 be
       -0.030445538 -0.09747736 0.031811476 -0.22382446
000050 bb 5b 2a be 9b e4 79 3c bd 6b 4c 3b 5e 9a 99 3c
       -0.16636555 0.015252258 0.0031192147 0.018750366
000060 3c 9d 48 be e3 ac 93 ba 04 09 37 3a bf 9a 3b 3a
       -0.1959123 -0.0011266734 0.00069822394 0.0007156543
000070 55 f0 c1 3a 02 05 b3 ba cb 2c a4 ba b8 fa 9d ba
       0.0014796356 -0.0013658109 -0.0012525556 -0.001205287
000080 02 22 af 3a ca b1 d6 3a 92 b2 34 b9 10 a9 ce ba
       0.0013361576 0.001637989 -0.0001723266 -0.0015766937
000090 a8 ea c9 ba 83 87 d4 3a 28 68 d1 3a 17 0a 9c 3a
       -0.0015405016 0.0016214702 0.0015976476 0.0011904862
0000a0 f8 33 df ba 58 f5 00 ba 25 a6 c5 ba ee dc b4 ba
       -0.0017029038 -0.00049193716 -0.0015079422 -0.0013798752
0000b0 b5 da 19 3a b8 f5 9f b9 25 42 a7 3a 80 53 8b 3a
       0.00058690767 -0.00030509918 0.0012760801 0.0010629743
0000c0 c1 26 b7 3a bf c5 ba ba 9d 18 5d 37 bd 0c bd 38
       0.0013973342 -0.0014249607 1.3178357e-05 9.014595e-05
0000d0 77 56 17 39 37 c2 2c 38 c6 c0 35 39 51 69 37 39
       0.00014432693 4.1188872e-05 0.00017333319 0.00017491473
0000e0 c5 73 94 38 bf 63 fc b8 41 f6 f2 b7 80 03 08 39
       7.078754e-05 -0.000120348755 -2.8963319e-05 0.00012971275
0000f0 fe 37 5e b8 b3 b6 31 b8 70 35 fa b7 77 d8 33 39
       -5.298107e-05 -4.237024e-05 -2.9827206e-05 0.0001715141
000100 9c 0b 9f b7 2d 74 a9 37 a3 d2 60 b9 af eb d2 38
       -1.8959683e-05 2.0200468e-05 -0.00021440773 0.0001005748
000110 b5 b8 41 b8 a1 a1 5c b3 8e 17 9b b6 d1 f0 78 38
       -4.6186808e-05 -5.1369742e-08 -4.622102e-06 5.9352085e-05
000120 88 4d b5 38 88 75 6b 39 8f 7a b3 b9 a3 1b 83 b8
       8.645194e-05 0.0002245513 -0.00034232854 -6.2517145e-05
000130 50 c5 01 3b 0e 05 b9 3a eb 62 da 3a 29 01 ba 3a
       0.0019801445 0.0014115886 0.001666156 0.001419102
000140 af 18 05 bb 2b ad a8 3a 5c df 02 bb ab 2e bb 3a
       -0.0020308902 0.0012868991 -0.0019969558 0.0014280876
000150 a3 61 4c ba ed 48 81 3a 62 39 88 ba 7f 7c 04 ba
       -0.00077965314 0.0009863653 -0.0010393078 -0.0005053952
000160 35 8c a5 39 1a 4b ec 3a 59 9b 87 3a df e3 0b ba
       0.00031575715 0.0018027753 0.001034598 -0.00053363846
000170 c2 a3 5d b9 01 21 10 3a 4c 9b a7 ba 4e 2b 03 bb
       -0.00021137207 0.0005498082 -0.0012787371 -0.0020014825
000180 db 82 97 ba 91 1f 44 3a 61 3a 6f b9 56 f5 f5 3a
       -0.0011559384 0.00074815104 -0.00022814564 0.0018765132

lstm.bias_ih_l0 f4 [20]
000000 98 d5 e7 3d aa 0c e9 3d b3 17 e7 3d 0b be 50 3d
       0.11320037 0.113793686 0.11283817 0.05096249
000010 aa 3f 84 bc 27 a2 0c be 69 2c 5d bd 97 27 d6 bc
       -0.016143639 -0.13733731 -0.05399743 -0.026141925
000020 72 60 8f 3c b6 30 cd 3d de 8d 0e be 6e 87 a1 3d
       0.017502043 0.100190565 -0.13921306 0.07887159
000030 16 2d 86 be ba e6 cd be 3a 34 29 3e 9b 0d 5e 3e
       -0.26206273 -0.40215093 0.16523829 0.21684878
000040 22 16 39 3e 3f 1b 24 3e 37 5d 0e 3e 98 dc d9 bc
       0.18074849 0.16026019 0.13902746 -0.026594445

lstm.bias_hh_l0 f4 [20]
000000 1f d7 e7 3d 79 0b e9 3d 24 18 e7 3d 45 c5 34 3e
       0.11320328 0.11379141 0.11283901 0.17653377
000010 45 d9 56 be f0 67 0d 3e ee f0 5e 3d 04 65 d2 3c
       -0.20981319 0.1380918 0.054428987 0.025682934
000020 eb 5d 8b bc c3 49 cf bd 13 99 09 be ec 96 a1 3d
       -0.017012557 -0.10121491 -0.134373 0.07890114
000030 ce c1 86 be 15 f3 d7 be e5 0a 29 3e 11 eb 5e be
       -0.26319736 -0.42177644 0.16508062 -0.21769358
000040 bc 68 3a be b9 cb 25 be 6d 74 0c be 9a 10 e3 3c
       -0.18204015 -0.16190995 -0.13716288 0.027717877

linear1.weight f4 [1, 5]
000000 77 26 89 bf 49 a0 77 bf 9a 97 91 3f a2 7f b0 3f
       -1.0714864 -0.9672895 1.137439 1.378895
000010 31 c8 88 3f
       1.0686094
