LSTM_torch/models/pHdata/curriculum_None/backup/relu/model_sl_10_bs_64_hs_5_ep_100_tol_-0.001_gm_[2,2]_thd_[0,0].pth (torch, 2855 bytes, 5 tensors)

lstm.weight_ih_l0 f4 [20, 2]
000000 d3 b4 9a 3d b2 4b 97 3b 8d 46 bd 3d be 73 7e 3b
       0.07554021 0.004617178 0.09241972 0.0038826312
000010 0f 96 bb 3c 68 ac 7f 3e 51 3c 93 be 2c 26 93 be
       0.022898702 0.24968112 -0.28756955 -0.2874006
000020 49 73 43 3d 3a af 23 bd f3 d0 4f 3e ce 0c cb 3d
       0.047717366 -0.03996203 0.20294552 0.09914552
000030 ab 18 56 3e 5e 5f 8c 3d 8c f8 28 3e f0 d3 81 3d
       0.20907848 0.06854127 0.16501063 0.06339252
000040 f9 67 2d be 49 a8 4c be 27 8d 78 3d 45 fd 33 bd
       -0.16934194 -0.1998607 0.06068149 -0.04394271
000050 00 66 83 3e b0 8f ed 3d 76 49 91 3e f2 78 90 3d
       0.25663757 0.11599672 0.2837636 0.070543185
000060 2f 1a 7a be dc 52 9e bd aa 43 bc 3e 8e 9d f4 3d
       -0.24424051 -0.07730648 0.36770374 0.11944114
000070 a4 f5 b2 be 93 52 26 be b3 df 67 3e 60 8a a2 3d
       -0.34953034 -0.16242437 0.22643928 0.07936549
000080 25 16 66 3e 8d a7 73 3d bc 57 7a 3e 9e 34 ca 3d
       0.22469385 0.05948596 0.2444753 0.09873317
000090 55 b8 03 be 96 07 83 be eb 6f 43 3e fa dc 36 bc
       -0.12863286 -0.25591725 0.19085662 -0.011161083

lstm.weight_hh_l0 f4 [20, 5]
000000 78 a4 7d 3c 47 ca c2 3c 24 e8 a7 bc 4c 14 1f bd
       0.015481107 0.023778094 -0.020496435 -0.038837716
000010 c3 ff 0d 3a 77 18 e5 3c ea 4a 2b 3d 6a 3b 9f be
       0.00054168346 0.027965767 0.04181949 -0.31100017
000020 6d 29 82 be 8a 9b b7 bb 5d ef c7 3b 84 39 a5 3c
       -0.2542223 -0.0056032585 0.0061015324 0.020169027
000030 3c b6 58 bc 06 54 59 bd 7f 69 6e 3c 9f eb f9 3b
       -0.013227042 -0.053058647 0.014551519 0.007626965
000040 01 cc 9b be 37 d7 12 bc 95 ff e3 bc a5 8d 33 3b
       -0.3042908 -0.008962444 -0.027831832 0.002739766
000050 61 8e 69 3c 62 27 82 3c 8e 82 9f bc 30 80 7d bd
       0.014255137 0.01588792 -0.019471433 -0.061889827
000060 78 79 0b 3c 94 4e 25 3d 86 db 76 3d 92 a9 46 bd
       0.008512847 0.04035814 0.060267948 -0.04850156
000070 4f ea d9 bc 64 8d d7 bc a9 47 5f 3d 57 d3 b3 3d
       -0.026600985 -0.026312537 0.0545117 0.08780544
000080 ca f3 99 bd 46 c4 a0 bd a5 36 d3 bc de 31 03 3d
       -0.07517202 -0.07849936 -0.025782892 0.03202998
000090 bf f0 8a 3d 2f 81 37 bd 54 23 4f bd 20 ba 03 bc
       0.067842 -0.044800933 -0.0505708 -0.008039981
0000a0 45 ac cc bc 23 d6 2c bd e8 ad c2 3c 1d 99 b6 bd
       -0.024984488 -0.042196404 0.023764566 -0.08915923
0000b0 56 5e 60 3d 08 9f 99 3c 55 b8 cc 3c 1d 1a de bc
       0.054777466 0.01875259 0.02499024 -0.027112061
0000c0 e1 cb be bd 67 fa 8a 3c da 4d 78 b9 46 ae 32 39
       -0.093162306 0.016965104 -0.00023680125 0.00017040325
0000d0 ff 53 1e be 98 05 07 3e f1 95 c7 ba 76 ba 20 3d
       -0.1546173 0.13185728 -0.0015227181 0.039240323
0000e0 3f 82 11 3a b7 2c ca bd dd 0e 82 3a e2 c5 36 3b
       0.0005550719 -0.0987181 0.0009922642 0.0027888943
0000f0 75 38 2d be 2e 2b de b9 79 b3 72 ba 87 ba 18 bc
       -0.16916068 -0.0004237531 -0.0009258311 -0.009321815
000100 89 97 92 ba 0d 3d c4 3a 07 cc c2 bd 94 54 24 ba
       -0.0011184077 0.0014971808 -0.095115714 -0.00062687066
000110 fd de de 3b 58 63 a0 ba 35 45 0c bb 37 f7 f8 bd
       0.0068014846 -0.0012236638 -0.0021403555 -0.121565275
000120 5e 5d 49 3d 61 c2 58 bb a6 30 a5 bd c8 dd 4e 3d
       0.049161308 -0.0033074843 -0.080659196 0.050504476
000130 b2 4f 83 3d 4e d2 76 bd c7 6b 37 bd 89 2e 73 3e
       0.06411685 -0.060259156 -0.04478052 0.2374822
000140 ff d6 8b 3d 96 2f a6 3d 80 73 b2 bd 4e 10 d4 bd
       0.068281166 0.08114545 -0.08713436 -0.10354672
000150 9a fd 08 bd eb 22 68 3d 0a 9d 9a 3d bf c9 8d bd
       -0.03344498 0.056673925 0.07549484 -0.06923246
000160 47 df 66 bd 36 69 08 bd d2 51 99 bc 38 e4 14 bd
       -0.056365278 -0.033303462 -0.018715773 -0.03635046
000170 fa 6d 8b 3c 7f 9e ca bd 3e d5 59 3d 6f 83 47 3d
       0.017020214 -0.09893512 0.05318188 0.04870933
000180 91 0c 62 3d 18 98 79 bd 1d 30 b9 be b5 12 31 bc
       0.055187766 -0.060936064 -0.3616952 -0.010807683

lstm.bias_ih_l0 f4 [20]
000000 68 c8 92 3e 3f 6a 16 3e bd 44 a7 3e 52 7f 94 3d
       0.28668523 0.14688967 0.3266963 0.07250847
000010 0b ef 85 3e a2 af d3 bd 84 70 70 3e 43 d3 85 3d
       0.26158938 -0.10336234 0.23480421 0.065344356
000020 7c a4 17 3e 9b d2 88 3e dc 4d 00 bc 09 d6 6d be
       0.1480884 0.2672318 -0.007831063 -0.23226179
000030 2d 15 9e 3d 3b f5 b1 3d 09 3b 1b bd 42 dc 66 3e
       0.07718883 0.08689352 -0.037898097 0.22544959
000040 b9 1a 23 3e 99 63 63 3d ea 95 32 3e 31 7b 9a 3e
       0.15928163 0.055514906 0.1744 0.30172113

lstm.bias_hh_l0 f4 [20]
000000 a5 d1 33 3b 5f 71 03 3e 6b f8 7f bc 90 91 94 3d
       0.002743819 0.12836216 -0.015623192 0.07254326
000010 b4 72 2b 3d 02 98 8f be 25 06 33 3e 9b d4 85 3d
       0.041857436 -0.2804566 0.17482813 0.06534692
000020 a3 a2 17 3e bf b9 03 3e d4 46 03 bc 23 82 81 be
       0.14808135 0.12863825 -0.008012492 -0.252946
000030 be 80 a6 3d a9 ae b3 3d 40 20 f3 bc fa 3b 31 3e
       0.081300244 0.08773548 -0.029678464 0.17308035
000040 27 d2 b6 3e 0e c3 99 3e ad 99 32 3e 6d 88 45 3e
       0.3570721 0.30031627 0.17441435 0.19290324

linear1.weight f4 [1, 5]
000000 7a 87 2e 3f d1 d3 80 3f d0 98 51 bf 2e d5 38 3f
       0.6817547 1.0064641 -0.818738 0.72200286
000010 c3 4d 6a bf
       -0.91524905
