LSTM_torch/models/pHdata/curriculum_None/backup/relu/model_sl_10_bs_64_hs_5_ep_100_tol_-0.001_gm_[5,5]_thd_[9,9].pth (torch, 2855 bytes, 5 tensors)

lstm.weight_ih_l0 f4 [20, 2]
0.1953424 0.004526064 -0.3011979 -0.3011621 0.22669517 -0.30117145 0.12694424 0.3012137
0.29891187 -0.2987877 -0.0011498155 0.00085936545 0.0005828839 0.0007912704 0.0015485203 0.0006221115
0.0008619451 8.0799386e-05 -0.00063344423 0.0008373776 -0.41249472 -0.06391591 0.41304126 0.20618689
0.37487844 0.1914038 0.4916869 0.038986042 -0.44697946 -0.051918134 -0.0016797532 -0.0010598077
0.0018850586 -0.0020221248 0.0020435425 -0.0009889057 -0.000118219345 0.0014405304 -0.00012620953 -0.0015304668
00000000: d707 483e 604f 943b 9c36 9abe eb31 9abe
00000010: c722 683e 2533 9abe acfd 013e af38 9a3e
00000020: fa0a 993e b4fa 98be 68b5 96ba 0a47 613a
00000030: adcc 183a 426d 4f3a b8f7 ca3a 3215 233a
00000040: 28f4 613a d772 a938 b90d 26ba 7683 5b3a
00000050: 8232 d3be 58e6 82bd 257a d33e a822 533e
00000060: 11f0 bf3e 5cff 433e 63be fb3e d4af 1f3d
00000070: 7eda e4be 1ca8 54bd 2a2b dcba 3fe9 8aba
00000080: 1214 f73a a085 04bb f4ec 053b 2b9e 81ba
00000090: 87ec f7b8 2ed0 bc3a 1d57 04b9 f299 c8ba

lstm.weight_hh_l0 f4 [20, 5]
-0.02406456 -0.052308135 -0.007894027 0.041307364 -0.014739133 -0.07958926 0.005010042 0.05645166
0.1022516 -0.07152887 -0.016793523 -0.048513483 -0.01237403 0.04007608 -0.007946598 -0.007712564
-0.062142324 -0.01557182 0.020978503 0.004481464 -0.064077884 -0.021735307 0.03350148 0.080668174
0.30120486 0.0006190865 -0.00042160662 -0.0012372432 0.0005466526 -0.0005631515 0.00048920565 -8.6570566e-05
0.00063621113 0.0008028875 -0.0004050523 -0.00014539788 -0.0006699215 -0.0005607901 0.0007170084 -0.0008453351
-0.0007721979 0.00038626976 0.00055059977 0.00097326405 -0.00085289736 -0.00021152092 -0.00046208894 0.0006303309
0.00084652606 -0.0015664573 -3.0353398e-05 -5.411791e-05 9.51978e-05 9.78381e-05 -1.4632822e-05 -0.00029772782
-0.00017114289 9.021954e-06 -0.000117526964 -0.000116991716 4.5112793e-05 -0.00023319897 -7.09327e-05 0.00012960384
0.00024152265 -0.00014371389 0.00012614865 0.00025476335 0.00016194228 0.00017272687 -6.138907e-05 4.7162725e-05
-0.00011729718 0.00016038709 -0.00013728825 -0.0017127235 0.0020134698 -0.0009643201 0.0019650536 0.0017826057
0.0015690456 0.00029134855 -3.4365774e-05 0.0008113415 0.0017238245 -0.0013396759 -0.0010973909 0.00036207002
-0.0009105947 -0.0016358243 6.201929e-05 0.0016571868 0.0015263108 0.0001849891 0.0012268326 0.000690641
-0.001306121 0.0014233551 0.0014408412 -0.00170612
00000000: 0a23 c5bc 0e41 56bd f355 01bc e931 293d
00000010: 687c 71bc b2ff a2bd 472b a43b db39 673d
00000020: 4969 d13d ba7d 92bd 9292 89bc 13b6 46bd
00000030: 72bc 4abc d126 243d 7332 02bc adb9 fcbb
00000040: f388 7ebd f220 7fbc 1cdb ab3c 3fd9 923b
00000050: 443b 83bd 3e0e b2bc d938 093d 5b35 a53d
00000060: 8637 9a3e 314a 223a 150b ddb9 fe2a a2ba
00000070: 3c4d 0f3a 75a0 13ba 093e 003a 388d b5b8
00000080: 68c7 263a de78 523a 335d d4b9 f275 18b9
00000090: ac9d 2fba fd01 13ba 9ff5 3b3a 7a99 5dba
000000a0: 536d 4aba 4084 ca39 2056 103a a522 7f3a
000000b0: f994 5fba b7cb 5db9 8744 f2b9 ca3c 253a
000000c0: 67e9 5d3a 9651 cdba 6d9f feb7 aafc 62b8
000000d0: eea4 c738 6e2e cd38 7e7f 75b7 5a18 9cb9
000000e0: d274 33b9 ff5c 1737 cf78 f6b8 7359 f5b8
000000f0: 7e37 3d38 df86 74b9 b4c1 94b8 44e6 0739
00000100: 3e41 7d39 e7b1 16b9 c546 0439 c291 8539
00000110: 0dcf 2939 041e 3539 02be 80b8 97d0 4538
00000120: 72fd f5b8 952d 2839 09f5 0fb9 777d e0ba
00000130: 6bf4 033b 6dca 7cba 21c8 003b 52a6 e93a
00000140: 6fa8 cd3a 24c0 9839 f823 10b8 35b0 543a
00000150: f4f1 e13a 1098 afba 54d6 8fba 37d4 bd39
00000160: fab4 6eba 2869 d6ba 5a10 8238 f635 d93a
00000170: 7e0e c83a a2f9 4139 accd a03a 220c 353a
00000180: 2632 abba df8f ba3a 9cda bc3a e39f dfba

lstm.bias_ih_l0 f4 [20]
0.18625422 0.12151405 0.14725678 0.2181615 0.39343435 -0.16987921 -0.1774408 0.043688245
0.17519423 -0.016420502 0.24425882 0.15378678 0.088978656 -0.3625252 0.27024877 -0.06051293
-0.03470955 -0.26394093 0.0988247 0.014068479
00000000: 6db9 3e3e 5cdc f83d 7bca 163e ba65 5f3e
00000010: 3a70 c93e d1f4 2dbe 0bb3 35be 72f2 323d
00000020: 1e66 333e 4a84 86bc fc1e 7a3e 487a 1d3e
00000030: 713a b63d e79c b9be 0c5e 8a3e 68dc 77bd
00000040: 9a2b 0ebd 4423 87be 9b64 ca3d 7a7f 663c

lstm.bias_hh_l0 f4 [20]
0.11463212 0.17790417 0.14725927 0.082880564 -0.09243947 0.17106032 0.17740704 -0.044550035
-0.175208 0.016215842 0.24375507 0.15299802 0.088504955 -0.36470366 0.27044013 0.061526157
0.034844067 0.2650384 -0.10119052 -0.014507049
00000000: 3fc4 ea3d 832c 363e 22cb 163e 49bd a93d
00000010: e850 bdbd 702a 2f3e 31aa 353e 197a 36bd
00000020: ba69 33be 16d7 843c ee9a 793e 83ab 1c3e
00000030: 1642 b53d 70ba babe 2177 8a3e da02 7c3d
00000040: a7b8 0e3d 1db3 873e fa3c cfbd f9ae 6dbc

linear1.weight f4 [1, 5]
-1.0949682 0.938115 1.0991247 1.1584028 -1.2353556
00000000: eb27 8cbf 4e28 703f 1eb0 8c3f 8b46 943f
00000010: 2220 9ebf
